ML-Agents/Examples/results/PlaneBalancer/PlaneBalancerAgent/PlaneBalancerAgent-8499889.onnx (onnx, 76634 bytes, 7 tensors)

network_body._body_endoder.seq_layers.0.weight f4 [128, 9]
0	0x3f0f1e0f	0.5590524
1	0xbec80ad7	-0.3907077
2	0xbf4e9140	-0.80690384
3	0x3f621a5c	0.8832147
4	0xbe6036da	-0.21895924
5	0x3dba400f	0.090942495
6	0x3ec2e9b9	0.3806894
7	0x3e47bcda	0.19505635
8	0xbe7ccb1b	-0.24686854
9	0x3f46e494	0.7769253
10	0xbefb41e4	-0.49073708
11	0x3e9d29fd	0.30696097
12	0xbf47ec2f	-0.7809476
13	0xbdd42198	-0.1035797
14	0xbe46e5e1	-0.1942363
15	0xbec211af	-0.37904117
16	0x3d81c268	0.06335908
17	0xbec0fb75	-0.37691846
18	0xbe87cd7a	-0.26523954
19	0x3e49283d	0.19644256
20	0x3f336fdf	0.70092577
21	0x3eae21f4	0.3401028
22	0xbe9da6c3	-0.30791292
23	0xbdf81c00	-0.121147156
24	0xbe0ce0ae	-0.13757583
25	0xbece7ec8	-0.403311
26	0x3e012d00	0.12614822
27	0x3d85b6ed	0.06529031
28	0xbe815ec8	-0.25267625
29	0x3edcae6a	0.43101817
30	0xbe8182bd	-0.25295058
31	0x3e9af80d	0.30267373
32	0x3edc6789	0.4304774
33	0xbdc540c0	-0.09631491
34	0xbee9fa10	-0.45698595
35	0xbe97377f	-0.29534528
36	0xbe3115c2	-0.17293456
37	0xbe5b967b	-0.21444122
38	0xbd73e2dd	-0.059542526
39	0x3ccde3e7	0.025133086
40	0xbce083d2	-0.027406607
41	0xbf0b1e0d	-0.5434273
42	0x3ed64afd	0.41854087
43	0xbed2dfee	-0.4118647
44	0x3e39aff9	0.18133534
45	0x3ee667be	0.45001024
46	0x3e0f033a	0.13966075
47	0x3f098a4b	0.53726643
48	0x3cf1f1bc	0.029534213
49	0x3e01ec2d	0.1268775
50	0xbeb80676	-0.3594243
51	0x3e116096	0.14197001
52	0x3e3425aa	0.17592493
53	0x3f007da4	0.5019171
54	0x3dbda33f	0.09259652
55	0xbe1a80ab	-0.15088145
56	0x3ccca1f0	0.024979562
57	0x3f1376a8	0.5760293
58	0x3d30ca7b	0.04316185
59	0x3ec932fa	0.39296705
60	0x3e02a263	0.12757258
61	0xbf0bea0f	-0.5465402
62	0x3e017523	0.1264234
63	0x3dc9adf8	0.09847635
64	0x3d4e8aae	0.050425224
65	0x3e36c15d	0.178472
66	0xbf2cd5dd	-0.6751383
67	0xbe7c0680	-0.24611855
68	0xbf17eae9	-0.5934282
69	0x3da33356	0.07968776
70	0x3ebaa331	0.3645263
71	0xbf2532cd	-0.6453064
72	0xbe043580	-0.12911034
73	0x3da08dfe	0.07839583
74	0x3e7da54a	0.24770084
75	0x3eac1df0	0.3361659
76	0x3e248e1f	0.1606984
77	0xbd65e01c	-0.05612193
78	0x3e140e84	0.14458662
79	0xbe10a96f	-0.14127134
80	0x3f0c9560	0.5491543
81	0xbf16efcb	-0.58959645
82	0xbda1b096	-0.07895009
83	0xbf68489c	-0.90735793
84	0xbecc5af2	-0.39913136
85	0x3e54cc1c	0.20780987
86	0xbe9bf7aa	-0.3046239
87	0x3eefe423	0.46853742
88	0x3dbdbcf6	0.09264557
89	0x3b89eda7	0.0042092386
90	0xbd417657	-0.047232
91	0x3ebe4108	0.3715899
92	0x3e803a58	0.25044513
93	0xbecbfd14	-0.3984152
94	0x3eb6f402	0.35733038
95	0x3ee6a89b	0.4505051
96	0x3ef77fd3	0.4833971
97	0x3dea1320	0.11429429
98	0xbe51b3f0	-0.20478797
99	0x3f2eba8f	0.68253416
100	0xbdf540f0	-0.119752765
101	0xbe8e1fc1	-0.277586
102	0xbfa0e3b3	-1.2569488
103	0x3e220c59	0.15825023
104	0x3e7393db	0.23786871
105	0x3e0bc267	0.13648377
106	0xbe9090da	-0.28235513
107	0x3e913bff	0.28366086
108	0xbebb5d89	-0.365948
109	0xbe439fb2	-0.19103888
110	0x3e958f92	0.29211098
111	0x3f221c7c	0.63324714
112	0x3f24144a	0.6409346
113	0x3f5218df	0.820692
114	0x3ebec450	0.3725915
115	0xbb88e108	-0.0041772164
116	0xbe4529a1	-0.19254161
117	0xbdb90cb2	-0.090356246
118	0x3e12b697	0.14327465
119	0xbe898111	-0.26856282
120	0xbf15be9e	-0.58493984
121	0x3cad9240	0.021187901
122	0xbf7b5c1a	-0.9818741
123	0xbea1fb90	-0.3163724
124	0xbe993af9	-0.29927805
125	0xbdea54ee	-0.1144198
126	0x3e95f7b5	0.29290548
127	0xbea67f67	-0.32519075
128	0xbe4b9497	-0.19880901
129	0x3ef8cd86	0.48594302
130	0x3e0f1d7c	0.13976091
131	0x3cb1e0e7	0.021713687
132	0x3e0f99db	0.14023535
133	0xbe961d56	-0.29319257
134	0x3dabf9ca	0.08397253
135	0x3e920f7f	0.28527448
136	0xbe02ed00	-0.12785721
137	0xbec31bac	-0.3810705
138	0x3ee8cefb	0.45470414
139	0xbe81d420	-0.2535715
140	0xbebd9a45	-0.3703176
141	0x3e9d443d	0.30716124
142	0xbe121a19	-0.14267768
143	0xbd26074b	-0.0405343
144	0x3d43d7be	0.04781317
145	0x3c207db1	0.009795592
146	0x3e3b20a0	0.18274164
147	0x3e856af7	0.2605817
148	0x3e3c25e5	0.1837383
149	0xbea42a16	-0.3206336
150	0x3ebed2d7	0.37270233
151	0xbd9bce74	-0.07607737
152	0xbf2c12b0	-0.67216015
153	0x3f4e231e	0.80522335
154	0xbee04fc6	-0.43810862
155	0x3e95334f	0.29140708
156	0x3e8d5923	0.27607068
157	0x3d9d7039	0.076874204
158	0xbf12dd10	-0.57368565
159	0x3f4c8a35	0.7989839
160	0xbe1f007e	-0.15527532
161	0x3ef7f005	0.48425308
162	0x3eb510a2	0.35364252
163	0xbf0c96c9	-0.5491758
164	0x3ca36ed1	0.019950302
165	0xbf7fd227	-0.9993004
166	0xbe946667	-0.28984377
167	0x3d7c0f52	0.061538048
168	0x3dd4da5a	0.1039321
169	0x3e451834	0.19247514
170	0x3d58ebfc	0.052959427
171	0x3e5fe0fa	0.21863165
172	0xbe73d2a3	-0.2381082
173	0x3d64ffe2	0.05590809
174	0x3e2184cf	0.15773319
175	0x3e3944d2	0.18092659
176	0xbeaad1c0	-0.33363152
177	0xbeaa4f0a	-0.33263427
178	0x3e49a0ac	0.19690198
179	0xbb4994d1	-0.0030758868
180	0x3f0f3d26	0.5595268
181	0x3f01c736	0.50694597
182	0xbe784426	-0.24244747
183	0xbe94c457	-0.29056045
184	0x3e8d160b	0.2755588
185	0x3fa2ede6	1.2728851
186	0xbe028d43	-0.127492
187	0x3d579aff	0.05263805
188	0xbda6638e	-0.08124457
189	0xbde23198	-0.110446155
190	0x3ca4f64a	0.020136971
191	0xbe635b6b	-0.22202842
192	0x3f37e241	0.7182961
193	0x3dcf51ce	0.10123025
194	0xbed2b16c	-0.41150987
195	0xbd7bdc67	-0.06148949
196	0x3e9583ce	0.29202121
197	0x3e971b2e	0.29512924
198	0xbd941b55	-0.07231776
199	0x3d1265ab	0.03574149
200	0x3e20e2ff	0.15711592
201	0xbead249f	-0.33817002
202	0xbebba2a0	-0.3664751
203	0x3f6f4f5a	0.93480456
204	0xbdf1b8ca	-0.11802824
205	0xbe9e10c2	-0.3087216
206	0x3e4c756f	0.19966672
207	0x3ee5b0e3	0.44861516
208	0x3f8288c7	1.0197991
209	0xbbbc32ea	-0.005743374
210	0xbe38bcba	-0.18040743
211	0xbc2b983c	-0.010473307
212	0xbe2d66dd	-0.1693377
213	0xbeb276ec	-0.34856355
214	0x3e512965	0.20425947
215	0x3e711219	0.2354206
216	0x3e39aed0	0.18133092
217	0xbeaf0455	-0.34182993
218	0xbedd3af3	-0.43209037
219	0x3f03323b	0.5124852
220	0x3e237f59	0.15966548
221	0x3b43fdd1	0.0029905925
222	0x3bf23bc3	0.007392378
223	0xbef656d2	-0.48113114
224	0x3e27c8db	0.16385214
225	0xbeac196b	-0.33613142
226	0x3e77e7dc	0.24209541
227	0x3cbd6dd4	0.02312366
228	0xbeb945e0	-0.36186123
229	0x3ee18a6a	0.44050914
230	0x3e2a4b71	0.16630341
231	0x3eeb7d98	0.45994258
232	0xbe266d8a	-0.16252723
233	0x3e72fcc6	0.23729238
234	0x3d8077ea	0.06272872
235	0xbf2cc050	-0.67480946
236	0xbea7e774	-0.32793772
237	0x3f3c0a26	0.73452985
238	0x3ed75be2	0.4206229
239	0xbe611678	-0.21981227
240	0x3f3243f2	0.69634926
241	0xbe81496e	-0.25251335
242	0x3f0e6dac	0.55636096
243	0x3e528459	0.20558299
244	0xbdf4a3fc	-0.1194534
245	0xbe847b74	-0.25875437
246	0x3ef93072	0.48669773
247	0xbe0c9147	-0.13727294
248	0xbf25a085	-0.6469806
249	0x3f16255f	0.58650774
250	0xbed13310	-0.4085927
251	0xbee2eb5d	-0.44320193
252	0x3ec887cd	0.39166108
253	0xbf984059	-1.1894637
254	0x3d5de931	0.054177467
255	0x3ecd84bf	0.4014034

network_body._body_endoder.seq_layers.0.bias f4 [128]
0	0xbdbbfd4c	-0.09179172
1	0xbdb09ced	-0.08623681
2	0xbdb2d416	-0.087318584
3	0xbd3f74a0	-0.04674208
4	0xbd8cc0ad	-0.068726875
5	0xbdbe9f65	-0.09307746
6	0xbdec4580	-0.115366936
7	0x3bea71c7	0.0071546766
8	0xbe29813f	-0.1655321
9	0xbda31514	-0.07963005
10	0x3d3bc8ce	0.0458458
11	0xbe02ba8d	-0.12766476
12	0xbdb02685	-0.08601097
13	0xbd6bbc6b	-0.057552736
14	0xbd6b7c0b	-0.057491343
15	0xbde981f2	-0.11401738
16	0xbe332389	-0.17494024
17	0xbda4c3e1	-0.080451734
18	0xbe1b068c	-0.15139216
19	0xbe0aee66	-0.13567504
20	0x3dbc9cb4	0.09209576
21	0xbe05b9cc	-0.13059157
22	0xbde68163	-0.11255147
23	0xbe5b0b5f	-0.21391056
24	0xbdaa242a	-0.08307679
25	0xbdbb25b3	-0.0913805
26	0xbdc8ea6f	-0.0981034
27	0xbd89f02a	-0.06735261
28	0xbdec6a52	-0.115437165
29	0x3c41163a	0.011785084
30	0xbc91c1ae	-0.017792549
31	0xbe3e7453	-0.18599062
32	0xbdca52a9	-0.098790474
33	0xbd7e240d	-0.0620461
34	0xba6b3d33	-0.0008973658
35	0xbe0dfe7f	-0.13866614
36	0x3c7ceaa0	0.015436798
37	0xbd4fb61e	-0.05071079
38	0xbe24ff21	-0.16112949
39	0xbdc6f90f	-0.09715473
40	0xbd46a6fc	-0.048499092
41	0x3d87de8d	0.06634245
42	0x3b79f186	0.0038138344
43	0xbe16bbeb	-0.14720123
44	0xbe01a110	-0.12659097
45	0x3ce2510d	0.027626539
46	0xbe46060f	-0.19338249
47	0xbe34418b	-0.17603128
48	0xbe02e859	-0.12783946
49	0xbe13d46a	-0.14436498
50	0xbdeedbf3	-0.11663046
51	0xbd811b7d	-0.06304071
52	0xbda54eef	-0.08071696
53	0xbd8df1b1	-0.069308646
54	0xbe318331	-0.17335202
55	0xbd87cc96	-0.066308185
56	0xbdc52686	-0.096264884
57	0xbdcc9d43	-0.09990933
58	0xbe1913d1	-0.14948966
59	0xbe0a41d6	-0.13501677
60	0xbe61a7db	-0.22036688
61	0xbd997144	-0.07492307
62	0xbe13bb8e	-0.14427015
63	0xbe0e9fc3	-0.13928132
64	0xbe0ce3ef	-0.13758825
65	0xbdf70b4b	-0.12062701
66	0xbe17b907	-0.14816676
67	0xbdf10b6e	-0.11769758
68	0xbc70e016	-0.014701864
69	0xbe0808de	-0.13284633
70	0xbcdb509c	-0.026771836
71	0xbdd9eff1	-0.10641468
72	0xbe12e95d	-0.14346834
73	0xbdd29256	-0.102818176
74	0xbd9d6328	-0.07684928
75	0xbe0472aa	-0.12934366
76	0xbe1d9c12	-0.15391567
77	0xbdb39dbc	-0.0877032
78	0xbd7b9def	-0.061429914
79	0xbe1de562	-0.15419534
80	0xbd99da22	-0.07512309
81	0xbda0f602	-0.07859422
82	0xbe2e6698	-0.17031324
83	0xbe33382c	-0.17501897
84	0xbdfaf211	-0.12253202
85	0xbe2b1552	-0.16707352
86	0xbde565c5	-0.112010516
87	0xbd98dea8	-0.07464343
88	0xbd72d979	-0.05928943
89	0xbe17bc8f	-0.14818023
90	0xbe1eb309	-0.15497984
91	0xbd8be1da	-0.06830187
92	0xbe10e73e	-0.14150712
93	0xbcf6c629	-0.030123787
94	0xbccf0661	-0.025271596
95	0xbdeb4959	-0.11488599
96	0xbd3375b9	-0.04381344
97	0xbe1488f1	-0.14505364
98	0xbdd61624	-0.10453442
99	0x3d9a1b1e	0.075247034
100	0xbd0abb22	-0.03386987
101	0xbe387aeb	-0.1801564
102	0x3d807c0a	0.062736586
103	0xbdb12516	-0.08649652
104	0xbd2384b6	-0.039921485
105	0xbe4e94dc	-0.20173973
106	0xbe13849a	-0.14406052
107	0xbe14c471	-0.14528061
108	0xbde99047	-0.11404472
109	0xbdba93a2	-0.0911019
110	0xbdde4e2f	-0.10854756
111	0xbdb40030	-0.08789098
112	0x39a58e32	0.00031577196
113	0xbdb0f9f5	-0.086414255
114	0xbd279484	-0.04091312
115	0xbe0cd8fa	-0.13754645
116	0xbdaa852b	-0.08326181
117	0xbdf9433a	-0.121710256
118	0x3ddbf80f	0.10740673
119	0xbdd6d244	-0.10489324
120	0xbe4fa9cc	-0.20279616
121	0xbdb77cb6	-0.089593336
122	0xbc92a85a	-0.017902542
123	0xbe4819fb	-0.19541161
124	0xbe1f6193	-0.15564565
125	0xbe1acfb7	-0.151183
126	0xbdb23964	-0.08702353
127	0xbdb2f509	-0.08738143

network_body._body_endoder.seq_layers.2.weight f4 [128, 128]
0	0xbdda126e	-0.106480464
1	0xbe62c34a	-0.2214481
2	0x3dbd7830	0.092514396
3	0xbde9fa0a	-0.11424644
4	0xbe36e175	-0.17859443
5	0x3d4daf35	0.05021592
6	0xbd64275c	-0.0557016
7	0xbe41e297	-0.18934093
8	0xbe5fa703	-0.21841054
9	0xbdb86dbe	-0.09005307
10	0x3cc3cb56	0.023900669
11	0xbd959234	-0.07303277
12	0x3dcca3d1	0.09992183
13	0xbdc30cef	-0.09523951
14	0x3d563f27	0.05230632
15	0xbd5fddc8	-0.054654866
16	0xbc4ed5f2	-0.012624251
17	0xbb655435	-0.0034992818
18	0xbd1fbd7e	-0.038999073
19	0xbdcbbf08	-0.09948546
20	0x3e0fb1a7	0.14032613
21	0xbdf3e049	-0.119080134
22	0xbd2b01d5	-0.041749794
23	0x3e18464e	0.14870569
24	0xbd97b4e0	-0.07407546
25	0xbcd32ebb	-0.025779119
26	0x3d582c4a	0.052776612
27	0x3d722a17	0.05912217
28	0xbd88aa79	-0.0667314
29	0xbdcb103c	-0.09915206
30	0xbd257e2e	-0.040403537
31	0xbe71a9c0	-0.2359991
32	0x3e10504c	0.14093131
33	0x3cdc1f3e	0.026870366
34	0xbd32798b	-0.043572944
35	0xbd1b4395	-0.037906248
36	0xbe6b21c5	-0.22962101
37	0xbe5d3d04	-0.21605307
38	0x3c1a2755	0.009408792
39	0xbc57c0a1	-0.013168485
40	0x3ca079d8	0.01958935
41	0x3a56c1af	0.0008192313
42	0xbce1d73e	-0.027568456
43	0x3d4c0438	0.04980871
44	0xbe3062d9	-0.17225207
45	0xbe3d6a24	-0.1849752
46	0xbdce91bb	-0.1008639
47	0x3da3a77b	0.07990929
48	0xbd3816d3	-0.044943642
49	0xbbbe6afd	-0.005811094
50	0xbd762ff4	-0.060104325
51	0x3deebc47	0.11657005
52	0x3c937240	0.017998815
53	0x3ddf436c	0.109015316
54	0xbe416250	-0.1888516
55	0x3da618fe	0.08110236
56	0x3cf1c070	0.029510707
57	0x3d091692	0.03346879
58	0x3c08c18a	0.008346925
59	0x3b71c01a	0.0036888183
60	0x3cd970db	0.026543071
61	0xbe583246	-0.21112928
62	0xbda07436	-0.078346655
63	0x3dc3cc55	0.095604576
64	0x3df979ec	0.12181458
65	0x3c4f60c7	0.012657351
66	0x3d266e74	0.04063268
67	0xbd60af45	-0.05485465
68	0xbe340528	-0.17580092
69	0xbd027d07	-0.031857517
70	0xbd8f67be	-0.07002209
71	0xbdc4cd0b	-0.09609421
72	0xbc05afbc	-0.008159574
73	0x3d010687	0.031500366
74	0xbdf9f8a3	-0.12205627
75	0xbd9123bb	-0.07086893
76	0x3d4f23c7	0.05057123
77	0x3e1d5a6f	0.15366529
78	0xbd78a0ff	-0.060700413
79	0xbca6b48f	-0.020349769
80	0xbe614bee	-0.22001621
81	0x3c223a38	0.009901576
82	0x3db9f5ff	0.09080123
83	0xbddf914f	-0.10916387
84	0xbe8ca991	-0.2747312
85	0xbc072e36	-0.008250764
86	0x3de408b7	0.11134475
87	0x3e174289	0.14771475
88	0xbcbd9239	-0.023141013
89	0x3da3bf4b	0.079954706
90	0x3d315121	0.04329026
91	0x3d0b0962	0.033944495
92	0x3e038b1f	0.12846039
93	0xbe2db322	-0.16962865
94	0x3da3118c	0.07962331
95	0xbd2367ee	-0.039894037
96	0xbd45da53	-0.048303913
97	0xbd6a7e2e	-0.05724924
98	0xbdb48b15	-0.0881559
99	0x3de7c781	0.11317349
100	0x3d7b7a6e	0.061396055
101	0x3db0a3da	0.08625002
102	0x3dd63673	0.10459604
103	0x3cf63eea	0.030059297
104	0xbce476fc	-0.027888767
105	0x3db307fc	0.08741757
106	0xbd318939	-0.043343756
107	0x3cb1c180	0.021698713
108	0x3d13605a	0.03598056
109	0xbe5e7446	-0.21724042
110	0x3e0828ea	0.13296857
111	0xbe3e1460	-0.1856246
112	0x3e3e46d2	0.18581703
113	0xbdd713c9	-0.105018206
114	0x3dd8d534	0.1058754
115	0x3e29b1a9	0.16571678
116	0x3d31535d	0.043292392
117	0xbd150ae8	-0.036387354
118	0xbd1c3f8f	-0.03814655
119	0x3ddf549b	0.10904809
120	0xbd111a1a	-0.035425283
121	0x3da25f0b	0.07928284
122	0xbe707555	-0.23482259
123	0xbd3ed925	-0.046593804
124	0xbca193b9	-0.01972376
125	0xbea9f317	-0.33193275
126	0x3dce9c42	0.100883976
127	0xbe398879	-0.18118466
128	0xbe06adae	-0.13152191
129	0xb9731210	-0.00023181015
130	0xbe2425cc	-0.16030043
131	0xbe0c622a	-0.13709322
132	0xbbf847dd	-0.007576926
133	0xbd01c121	-0.031678323
134	0xbd9c9ce6	-0.076471135
135	0x3d63645d	0.055515636
136	0xbc355b41	-0.01106912
137	0xbccd8bf5	-0.02509115
138	0x39ca4f7d	0.00038587666
139	0xbe62ae16	-0.22136721
140	0xbe3c254d	-0.18373604
141	0x3ea04b16	0.31307286
142	0xbe93941c	-0.28823936
143	0xbc7bc42f	-0.015366598
144	0xbe25f612	-0.1620715
145	0x3c603627	0.013684786
146	0xbd7bbb10	-0.061457694
147	0xbddeb615	-0.10874573
148	0xbd0160d5	-0.031586487
149	0xbcbf0ff9	-0.023323046
150	0xbe6b4a2d	-0.22977515
151	0x3d8be0ae	0.068299636
152	0xbe5133d7	-0.20429932
153	0x3d9e8841	0.07740832
154	0x3c21e19b	0.009880449
155	0xbda89391	-0.08231271
156	0xbe5066bd	-0.20351692
157	0xbd5fc622	-0.054632314
158	0x3db6cec9	0.0892616
159	0xbdb26be2	-0.08711983
160	0x3d885401	0.066566475
161	0xbda7e422	-0.0819781
162	0xbd3c067a	-0.045904614
163	0xbe47a29e	-0.19495627
164	0xbd08cd6e	-0.033399038
165	0xbde5ce4f	-0.11220991
166	0xbd9eb916	-0.07750146
167	0xbea86232	-0.32887417
168	0x3e082863	0.13296656
169	0x3d5114de	0.05104529
170	0xbed2bfc4	-0.4116193
171	0xbe3f4b34	-0.18681031
172	0x3cc2b537	0.02376805
173	0xbdd624dc	-0.10456249
174	0xbe259c88	-0.16172993
175	0x3d331452	0.04372055
176	0xbd97d43d	-0.07413528
177	0xbe0a411f	-0.13501404
178	0xbdadfcff	-0.08495521
179	0x3a9f6cc2	0.001216315
180	0x3cf8994e	0.030346539
181	0x3e323acb	0.1740524
182	0xbdacac69	-0.08431322
183	0xbdaebc6e	-0.08532034
184	0x3cc6938b	0.024240276
185	0x3d40cbc8	0.04706934
186	0xbd962c31	-0.073326476
187	0xbe3d9f5d	-0.18517824
188	0xbca5d21a	-0.020241786
189	0x3d250e59	0.040296886
190	0xbd10ed0e	-0.035382323
191	0xbd9e5f64	-0.07733038
192	0x3d970e3e	0.07375763
193	0xbe0a5cf5	-0.13512023
194	0xbe6420f0	-0.2227819
195	0xbe00cb59	-0.12577571
196	0xbbef7b26	-0.0073083816
197	0xbd8e2c11	-0.06941999
198	0x3e651309	0.22370543
199	0xbc58f107	-0.013241059
200	0xbdee8434	-0.116463095
201	0x3e281230	0.16413188
202	0xbe28b768	-0.16476214
203	0xbd193bb8	-0.037410468
204	0xbe11e452	-0.14247254
205	0x3d96b8e4	0.07359484
206	0xbbb90a92	-0.005647012
207	0xbda3e6e4	-0.08003023
208	0x3c848dc6	0.016180884
209	0xbe8c2a8f	-0.2737622
210	0xbbb75877	-0.0055952626
211	0xbd907bab	-0.07054838
212	0xbd7e7e97	-0.062132444
213	0x3dc685a3	0.09693458
214	0xbca03b4e	-0.019559529
215	0xbd32fb85	-0.0436969
216	0x3dec4960	0.11537433
217	0xbea6e8e3	-0.32599553
218	0xbd92625e	-0.07147668
219	0xbe0b7cc0	-0.13621807
220	0xbdde584b	-0.10856684
221	0x3d04d6d5	0.032431442
222	0x3dd76c14	0.10518661
223	0xbdf92057	-0.121643715
224	0xbe738c15	-0.23783906
225	0x3d1696b1	0.036764804
226	0xbe0cf158	-0.1376394
227	0x3e883873	0.26605567
228	0x3d70f8ff	0.05883121
229	0x3d9d373c	0.07676551
230	0xbbe54a97	-0.006997417
231	0xbe7931d5	-0.24335416
232	0xbd340cf0	-0.04395765
233	0xbdc738f9	-0.097276635
234	0xbd8ddfc6	-0.06927447
235	0xbe0093e0	-0.1255641
236	0x3d5dd59a	0.054158784
237	0x3cab4867	0.020908548
238	0xbd008ee3	-0.031386267
239	0xbe01ffed	-0.12695284
240	0x3e1ef993	0.15524893
241	0xbda94229	-0.08264572
242	0xbde9b8af	-0.11412179
243	0x3c877bf1	0.016538592
244	0x3d1ec919	0.038766
245	0xbd31130a	-0.043231048
246	0xbde53e34	-0.11193505
247	0x3d0cbc06	0.034359
248	0x3d69422a	0.056947865
249	0xbdc6cacb	-0.097066484
250	0xbd5fd5f6	-0.05464741
251	0xbdde0149	-0.10840089
252	0xbe3f47e0	-0.18679762
253	0xbc6f40bc	-0.014602836
254	0x3cb220e5	0.021744201
255	0xbe13cd60	-0.14433813

network_body._body_endoder.seq_layers.2.bias f4 [128]
0	0x3c82fb77	0.015989048
1	0x3d96495a	0.073382095
2	0xbdab1e9a	-0.08355446
3	0xbd338ba7	-0.043834355
4	0xbce4a6d7	-0.027911587
5	0xbd404933	-0.04694481
6	0x3c6e073f	0.014528095
7	0xbe25b185	-0.16181
8	0xbd2cbb61	-0.042170886
9	0x3bfe747b	0.0077653504
10	0x3da483e9	0.08032972
11	0xbbd25f16	-0.0064200265
12	0x3959cbbe	0.00020770633
13	0x3d06d8fa	0.03292177
14	0x3d2e1bb3	0.042506885
15	0xbce66a8b	-0.028126976
16	0x3d9b9596	0.07596891
17	0xbdb9b0d0	-0.090669274
18	0xbdcad414	-0.09903732
19	0x39e82859	0.0004428055
20	0xbc827843	-0.015926486
21	0xbbaa29c8	-0.005192969
22	0x3daf3f5c	0.08557007
23	0x3b4bbd55	0.0031088192
24	0x3ca5b856	0.0202295
25	0xbda52411	-0.0806352
26	0xbb09e2c3	-0.0021039702
27	0x3c489a9a	0.012243891
28	0x3d5d4b0e	0.054026656
29	0xbda1ebe2	-0.07906319
30	0x3b5cd1b7	0.0033694336
31	0x3c33ccde	0.010974137
32	0x3d6b2dcf	0.057416733
33	0xbdde82c4	-0.10864785
34	0x3db702b0	0.089360595
35	0x3da283eb	0.079353176
36	0x3c2d34a3	0.010571632
37	0xbdc22fe9	-0.094817944
38	0x3db284e1	0.08716751
39	0xbe25ffcf	-0.16210864
40	0x3dfcc328	0.123419106
41	0x3c8b5b49	0.017011302
42	0xbc0e5199	-0.008686447
43	0xbca58e49	-0.020209448
44	0xbdf8d0e2	-0.12149216
45	0x3c4b8afe	0.012423275
46	0x3d03d41d	0.03218471
47	0xbc01d2b5	-0.007923772
48	0x3d732721	0.059363488
49	0xbc056634	-0.008142043
50	0x3d11becd	0.035582352
51	0x3cec4a49	0.028844016
52	0xbc569302	-0.013096573
53	0x3cb62d89	0.02223851
54	0xbce180b3	-0.027527189
55	0xbd010cfe	-0.03150653
56	0x3c182982	0.00928724
57	0xbd988196	-0.074465916
58	0x3dc4887e	0.09596346
59	0xbe467c63	-0.19383387
60	0xbe19c91b	-0.15018122
61	0x3d19924c	0.037493035
62	0xbc53eceb	-0.012934904
63	0xbd6c433b	-0.057681303
64	0xbd559cc7	-0.052151468
65	0x3bd4c831	0.0064935912
66	0xbcd7af46	-0.026328694
67	0xbdbbedd5	-0.09176222
68	0x3cdf4ee2	0.027259294
69	0xbd2b2601	-0.04178429
70	0x3d04fcc4	0.03246762
71	0x3b3cb908	0.002879681
72	0x3dd458b3	0.103684805
73	0xbbe91257	-0.007112782
74	0xbd1afc41	-0.037838224
75	0xbd19d0e3	-0.037552726
76	0x3dbdcbe2	0.09267403
77	0xbde1d81e	-0.11027549
78	0x3cda9d10	0.026686221
79	0x3d4c116f	0.049821313
80	0x3c2ef13c	0.010677632
81	0xbca5be97	-0.020232482
82	0x3db09100	0.086214066
83	0x3d07f2e3	0.03319062
84	0xbd8e4e7d	-0.06948564
85	0xbb9bcc6b	-0.004754593
86	0x3d123c22	0.03570188
87	0xbdc0832a	-0.094000176
88	0xbdafeb14	-0.085897595
89	0x3c2152a2	0.009846361
90	0x39aa1a91	0.0003244472
91	0x3e058b63	0.13041453
92	0x3cc770c4	0.024345763
93	0xbba08e88	-0.0048998035
94	0x3d28bd61	0.04119623
95	0xbc162afd	-0.009165523
96	0xbce7e898	-0.028309152
97	0xbd3e45f0	-0.046453416
98	0xbcc15531	-0.023600193
99	0xbc39fa78	-0.01135122
100	0xbbc7f2e3	-0.0061019524
101	0x3d9c93fb	0.076454125
102	0xbb20e39a	-0.0024549724
103	0x3c964be6	0.018346738
104	0x3c62d3b5	0.01384442
105	0x3d887935	0.066637434
106	0x3d2b0d72	0.04176087
107	0xbcc759d4	-0.024334826
108	0x3d39ce17	0.04536256
109	0xbc315c71	-0.010825262
110	0x3be4e7e1	0.00698565
111	0x3c353f3a	0.011062438
112	0x3d9ac589	0.07557208
113	0xbc431aaf	-0.011908217
114	0x3ca8dc9f	0.020613013
115	0xbcc6e0a6	-0.024277043
116	0x3cb64415	0.02224926
117	0xbd64b6ec	-0.05583851
118	0xb9d6a2bf	-0.00040938516
119	0xbd3b921d	-0.04579364
120	0xbb1f3214	-0.0024291323
121	0x3c0a69e8	0.008448102
122	0x3c9c3e43	0.019072657
123	0xbd54d386	-0.051959537
124	0x3d5806ad	0.05274074
125	0x3b2f2c59	0.0026729314
126	0x3d54b7ce	0.051933102
127	0xbd3db599	-0.046315763

action_model._continuous_distribution.log_sigma f4 [1, 2]
0	0xbecc7536	-0.39933175
1	0xbeef8418	-0.46780467

action_model._continuous_distribution.mu.weight f4 [2, 128]
0	0xbdc287d6	-0.09498565
1	0x3d261c7d	0.040554512
2	0xbd469067	-0.048477557
3	0xbd10346f	-0.035206255
4	0xbc759f1f	-0.014991551
5	0xbcd36121	-0.02580315
6	0x3d1e20f3	0.03860564
7	0x3d8b5312	0.06802954
8	0xbbb52e0f	-0.0055291723
9	0x3cc92a97	0.024556441
10	0x3ddf882e	0.10914646
11	0xbda2ac72	-0.079430476
12	0xbe3f42af	-0.18677782
13	0xbc89de50	-0.01682964
14	0x3e29a7d4	0.16567928
15	0xbd554aab	-0.052073162
16	0xbdb9cfed	-0.09072862
17	0x3cc0c778	0.023532614
18	0x3c4b475a	0.012407148
19	0xbdd1ccdf	-0.10244154
20	0x3caac26d	0.020844663
21	0x3d6e9cc5	0.058254976
22	0xbce5a70e	-0.02803376
23	0x3d9ecf2a	0.07754357
24	0x3d67e0d1	0.056610886
25	0xbcbd3d08	-0.023100391
26	0xbd9365c4	-0.07197145
27	0xbdd3b6e1	-0.10337616
28	0xbe26acd1	-0.16276862
29	0x3d9b84eb	0.075937115
30	0xbda543dd	-0.080695845
31	0x3a74f60c	0.0009344525
32	0xbe6175b3	-0.22017555
33	0xbd204d56	-0.039136253
34	0xbe4bf7b5	-0.19918711
35	0xbe002028	-0.12512267
36	0xbc4915cd	-0.012273264
37	0x3d3a0d91	0.045423094
38	0xbe3b3261	-0.18280937
39	0x3d80f03a	0.062958196
40	0xbd9e3365	-0.077246465
41	0xbd9d3e9c	-0.076779574
42	0xbd0ea12d	-0.034821678
43	0x3d613f6f	0.054992136
44	0x3c96b172	0.01839516
45	0xbd3f72df	-0.04674041
46	0xbdf69310	-0.12039769
47	0xbd733ccb	-0.05938415
48	0xbac79e84	-0.0015229736
49	0xbdb92633	-0.09040489
50	0x3dc5643e	0.0963826
51	0xbe1a3aa8	-0.15061438
52	0xbd68c4ff	-0.056828495
53	0xbc6203a8	-0.013794817
54	0x3c74af01	0.014934302
55	0xbd377fcc	-0.04479961
56	0xbad5e62b	-0.0016319206
57	0x3d88dca6	0.0668271
58	0x3d3c91f8	0.046037644
59	0x3d50cf7c	0.050979123
60	0x3d854277	0.06506818
61	0xbd592fe8	-0.053024203
62	0xbd996ddb	-0.074916564
63	0x3cb0247b	0.02150177
64	0x3c82684e	0.015918877
65	0x3d69190f	0.056908663
66	0x3ddbe4d7	0.10737007
67	0xbda6fcef	-0.08153712
68	0x3d68d3bf	0.05684256
69	0xbd666bd9	-0.056255195
70	0x3deeb45e	0.11655496
71	0x3dd61699	0.10453529
72	0xbd089543	-0.033345472
73	0x3db35c70	0.087578654
74	0xbdcbea1e	-0.09956764
75	0xbce3cb42	-0.027806882
76	0xbd88a6ed	-0.066724636
77	0x39a4c47b	0.00031426907
78	0xbdff6fc0	-0.124724865
79	0xbd11147d	-0.03541993
80	0xbc40db1a	-0.011770988
81	0x3caa32fd	0.020776266
82	0x3d87ecd6	0.0663697
83	0x3da822bc	0.0820975
84	0xbd507ea4	-0.050902024
85	0xbc294d8f	-0.010333433
86	0x3d872c7e	0.06600283
87	0x3deb7ac2	0.114980236
88	0x3d86f71d	0.06590102
89	0x3d90ddbe	0.07073544
90	0x3d231fbe	0.039825194
91	0xbe2cfda1	-0.16893627
92	0x3d0ba6c2	0.03409458
93	0xbd171124	-0.03688158
94	0xbd983f57	-0.07433956
95	0x3d321552	0.043477364
96	0x3dc07e16	0.09399049
97	0x3de08e8f	0.10964691
98	0x3bd1a4c2	0.0063978145
99	0xbcdbe08e	-0.026840474
100	0xbcc5927b	-0.024117699
101	0xbe0e714d	-0.13910408
102	0x3c4bb991	0.012434379
103	0x3d04f0db	0.03245626
104	0x3cccfcf3	0.02502296
105	0x3d494d53	0.049146008
106	0xbd9e7392	-0.07736887
107	0xbc0041ab	-0.007828156
108	0xbc9921aa	-0.01869281
109	0xbcd2a079	-0.025711285
110	0x3d899a69	0.067189045
111	0xbe071bcf	-0.13194202
112	0x3d5de629	0.054174576
113	0x3df3630a	0.118841246
114	0x3dcb19b1	0.099170096
115	0x3da85af1	0.08220471
116	0x3c50853d	0.012727079
117	0x3b9f5cd7	0.0048633623
118	0x3e3267ed	0.17422457
119	0x3dee844b	0.11646327
120	0x3d7837f0	0.06060022
121	0x3e0809e0	0.13285017
122	0x3dc209f3	0.09474554
123	0xbe0e4e4f	-0.1389706
124	0x3d2b6f96	0.041854464
125	0xbc3634bc	-0.011120971
126	0xbd3f5620	-0.046712995
127	0x3db92929	0.09041054
128	0x3d106755	0.035254795
129	0xbdf1ad4a	-0.118006304
130	0x3d6a1223	0.057146203
131	0x3d390810	0.045173705
132	0xbdc92ddf	-0.09823202
133	0xbccff081	-0.025383236
134	0x3db6f914	0.08934227
135	0x3e204fa7	0.15655385
136	0x3d98e63f	0.07465791
137	0x3e010834	0.12600785
138	0xbdc1c4b3	-0.094613455
139	0x3d835957	0.064135246
140	0x3d9cc8c6	0.07655482
141	0xbe075a10	-0.1321795
142	0x3d9b2cf7	0.07576936
143	0x3dc75dc2	0.0973468
144	0xbcec8382	-0.028871302
145	0x3b8f939f	0.0043816115
146	0xbe1d920a	-0.1538774
147	0x3e6c4adf	0.23075436
148	0xbd2f75b9	-0.04283688
149	0xbd6cd2ca	-0.05781821
150	0xbddbb037	-0.1072697
151	0x3cd63416	0.026147883
152	0xbd0920b4	-0.033478454
153	0x3e030899	0.12796248
154	0xbd5a5d57	-0.053311672
155	0xbd2b34bb	-0.041798335
156	0xbe1bcc43	-0.15214638
157	0xbdb7b285	-0.08969597
158	0xbd45a7b6	-0.048255645
159	0x3cc583cd	0.0241107
160	0xbd4899de	-0.048974864
161	0xbbafff5c	-0.0053710174
162	0xbb8a3ac9	-0.0042184335
163	0xbd830843	-0.0639806
164	0xbdc39a90	-0.09550965
165	0x3c7fe137	0.01561766
166	0xba179ae2	-0.0005783272
167	0x3c824161	0.015900316
168	0xbdd9a2fe	-0.106267914
169	0x3cbc1af5	0.022962073
170	0xbba0ffbc	-0.0049132984
171	0x3cc57724	0.024104662
172	0xbcd2b4fe	-0.02572107
173	0xbdf1e63d	-0.118114926
174	0xbdd6ea77	-0.10493939
175	0x3d0c1ec6	0.034209035
176	0xbe3877ec	-0.18014497
177	0x3de27eb0	0.1105932
178	0xbd6a23fb	-0.05716322
179	0x3ca77ba3	0.020444697
180	0x3decdcaa	0.11565526
181	0x3dabcb8e	0.08388434
182	0x3c94e372	0.01817486
183	0x3d97363a	0.0738339
184	0xbdfa04e5	-0.12207965
185	0x3d9d90b9	0.07693619
186	0xbe16491a	-0.14676324
187	0x3d7364db	0.059422355
188	0x3cfdd7e4	0.030986734
189	0xbdb890e7	-0.09012013
190	0xbd5540d5	-0.05206378
191	0xbd86a3f2	-0.06574239
192	0x3dc265f0	0.09492099
193	0x3d939bec	0.07207474
194	0x3dd2868c	0.10279569
195	0x3d4d3eb1	0.050108615
196	0xbd2df343	-0.04246832
197	0xbc2f5ae8	-0.010702826
198	0x3c1aba41	0.00944382
199	0xbd5e7f66	-0.054320715
200	0xbe4a261b	-0.19741099
201	0x3d9c15eb	0.07621368
202	0xbda416da	-0.08012171
203	0xbd7e413d	-0.062073935
204	0xbe2ca9d4	-0.1686166
205	0x3db94a24	0.09047344
206	0x3dcf164d	0.101116754
207	0x3e136397	0.1439346
208	0xbd8c4102	-0.06848337
209	0x3d93f740	0.072248936
210	0xbe2e5b26	-0.17026958
211	0xbe07716b	-0.1322686
212	0x3d982938	0.07429737
213	0x3d60ff4e	0.054930978
214	0x3ca26bd9	0.019826816
215	0x3af69bc5	0.0018814733
216	0xbc57478d	-0.013139618
217	0x3d81babf	0.06334447
218	0x3d700978	0.05860278
219	0x3d8fe231	0.070255645
220	0xbe0bcc26	-0.13652095
221	0x3def15ea	0.11674102
222	0xbe316081	-0.1732197
223	0x3e91fcc1	0.28513148
224	0x3d1cef65	0.038314242
225	0x3cc2a646	0.023760926
226	0xbcbd2a20	-0.023091376
227	0xbdbd381d	-0.092392184
228	0x3d4485f2	0.047979303
229	0x3bd54775	0.0065087625
230	0xbab7fb1e	-0.0014036631
231	0x3d692ebb	0.05692933
232	0x3c8209a1	0.015873732
233	0xbdd64046	-0.10461478
234	0x3d8657b1	0.065596946
235	0x3d33d3b3	0.043903064
236	0xbdc1ac68	-0.09456712
237	0xbd7b3959	-0.061333988
238	0xbd2900dc	-0.041260585
239	0x3bb5ce5f	0.005548283
240	0xbde4b4bd	-0.111672856
241	0xbc80cc15	-0.015722314
242	0x3e0bf086	0.13665971
243	0x3d16ffaf	0.036864933
244	0x3d40f89d	0.047112096
245	0x3dd3d29e	0.103429064
246	0xbd769d59	-0.060208652
247	0x3caf34de	0.021387514
248	0xbc0ba826	-0.008523976
249	0xbb5be313	-0.0033552095
250	0x3c8ca723	0.01716954
251	0xbc288ca8	-0.010287441
252	0xbd91a0aa	-0.07110722
253	0xbb2783c4	-0.0025560716
254	0x3d908f89	0.07058627
255	0x3da5d4e6	0.08097248

action_model._continuous_distribution.mu.bias f4 [2]
0	0xbc5a61d6	-0.01332899
1	0xbad24d39	-0.0016044743
