ML-Agents/Examples/results/PlaneBalancer/PlaneBalancerAgent/PlaneBalancerAgent-9499883.onnx (onnx, 76634 bytes, 7 tensors)

network_body._body_endoder.seq_layers.0.weight f4 [128, 9]
0	0x3f15155e	0.5823573
1	0xbec97d0c	-0.39353216
2	0xbf501be4	-0.8129256
3	0x3f61bf74	0.8818276
4	0xbe6202ef	-0.22071432
5	0x3dbfc5b4	0.09363881
6	0x3ec29a95	0.38008562
7	0x3e482c58	0.19548166
8	0xbe7c753e	-0.246541
9	0x3f45f228	0.77322626
10	0xbefa2973	-0.48859748
11	0x3e9c3c95	0.3051497
12	0xbf4812c1	-0.78153616
13	0xbdde39fe	-0.10850905
14	0xbe472b34	-0.19450074
15	0xbec6d0e4	-0.38831246
16	0x3d7a47a7	0.06110349
17	0xbeb9333d	-0.36171904
18	0xbe844da5	-0.25840488
19	0x3e4e86e0	0.20168638
20	0x3f3468fd	0.704727
21	0x3eabf300	0.33583832
22	0xbe9ba793	-0.30401286
23	0xbde46ef8	-0.11153978
24	0xbe0a593d	-0.13510604
25	0xbec9ca9f	-0.394124
26	0x3e022d32	0.12712553
27	0x3d75321a	0.059862234
28	0xbe841555	-0.25797525
29	0x3eee70a8	0.46570325
30	0xbe845fc3	-0.2585431
31	0x3e9d8622	0.30766398
32	0x3ee27a1a	0.4423378
33	0xbdb4e2bb	-0.08832308
34	0xbee5a26b	-0.44850478
35	0xbe90cc63	-0.28280935
36	0xbe310680	-0.17287636
37	0xbe56e812	-0.20986965
38	0xbdb37f5b	-0.087645255
39	0x3cadda5b	0.021222284
40	0xbcd032eb	-0.025414905
41	0xbf0e0ac6	-0.5548519
42	0x3ed57b98	0.41695857
43	0xbed331a6	-0.41248816
44	0x3e39b242	0.18134406
45	0x3ee818cf	0.45331427
46	0x3e0bd83d	0.13656707
47	0x3f09be42	0.53805935
48	0x3cc80995	0.024418632
49	0x3e0026fb	0.1251487
50	0xbebcd5d1	-0.3688188
51	0x3e0b3d32	0.13597563
52	0x3e33c04b	0.17553823
53	0x3f003e80	0.5009537
54	0x3ddde20a	0.10834129
55	0xbe15b333	-0.1461914
56	0x3d00d5ee	0.03145402
57	0x3f146e56	0.5798086
58	0x3d36bb23	0.04461206
59	0x3ec84290	0.39113283
60	0x3e06e8ae	0.13174698
61	0xbf0b9302	-0.5452119
62	0x3e05fbdd	0.1308436
63	0x3dc3ef99	0.09567184
64	0x3d76d607	0.060262706
65	0x3e26da51	0.16294219
66	0xbf2db067	-0.67847294
67	0xbe80fc4f	-0.25192496
68	0xbf181748	-0.59410524
69	0x3da3ee33	0.08004417
70	0x3eba7306	0.3641588
71	0xbf245818	-0.6419692
72	0xbe06ba79	-0.13157071
73	0x3da01b3b	0.07817694
74	0x3e7d2230	0.24720073
75	0x3ead44ca	0.33841544
76	0x3e20e056	0.15710577
77	0xbd6f923b	-0.058489066
78	0x3e160b67	0.14652787
79	0xbe0f8ed7	-0.14019333
80	0x3f0ccb1a	0.5499741
81	0xbf1b6943	-0.6070749
82	0xbd9c4d82	-0.07631971
83	0xbf6cc969	-0.9249483
84	0xbed0501c	-0.4068612
85	0x3e5df6b4	0.21676141
86	0xbe9e4c67	-0.30917665
87	0x3eef4e72	0.46739537
88	0x3db80f87	0.089873366
89	0x3b24fe56	0.002517601
90	0xbd8130d2	-0.0630814
91	0x3ebc427b	0.3676947
92	0x3e862545	0.2620031
93	0xbece9087	-0.4034464
94	0x3eb8d728	0.3610165
95	0x3eea18ce	0.4572205
96	0x3ef693fc	0.48159778
97	0x3de53b75	0.11192981
98	0xbe4fd937	-0.20297705
99	0x3f2aed41	0.6676827
100	0xbe00cbb9	-0.12577714
101	0xbe8b3dd2	-0.27195603
102	0xbfa29bb3	-1.2703766
103	0x3e22c05b	0.1589369
104	0x3e77cc29	0.24198975
105	0x3e0d2bbf	0.13786219
106	0xbe934ced	-0.28769627
107	0x3e93710d	0.28797188
108	0xbeb937c2	-0.36175352
109	0xbe32dee6	-0.17467842
110	0x3ea7f7c4	0.32806218
111	0x3f2289ba	0.63491404
112	0x3f23f702	0.6404878
113	0x3f51abeb	0.8190295
114	0x3ebed4d6	0.37271756
115	0xbb867fb2	-0.004104578
116	0xbe410c37	-0.18852316
117	0xbde50bb3	-0.11183872
118	0x3e14914c	0.14508551
119	0xbe913d37	-0.28367016
120	0xbf17307f	-0.59058374
121	0x3d26e2b6	0.040743552
122	0xbf7dfd85	-0.99214965
123	0xbea38dbd	-0.31944075
124	0xbe9ec9f7	-0.31013462
125	0xbdda9357	-0.10672634
126	0x3e9fd500	0.31217194
127	0xbea4dc50	-0.32199335
128	0xbe5ba490	-0.21449494
129	0x3ef9beb5	0.4877831
130	0x3e0e5dcd	0.1390297
131	0x3cd4558e	0.025919702
132	0x3e0f86b1	0.14016224
133	0xbe95708f	-0.29187438
134	0x3dad94c6	0.08475642
135	0x3e9142f8	0.28371406
136	0xbe02922c	-0.12751073
137	0xbec8f1ac	-0.3924688
138	0x3ee7c055	0.45263925
139	0xbe84b99c	-0.2592286
140	0xbec0fa83	-0.37691125
141	0x3e9d0e06	0.30674762
142	0xbe125070	-0.14288497
143	0xbd1aed94	-0.03782423
144	0x3d58b0ea	0.052903093
145	0x3baa0473	0.0051885187
146	0x3e29c845	0.16580303
147	0x3e85dbcd	0.26144257
148	0x3e4a2b82	0.1974316
149	0xbea50688	-0.32231545
150	0x3ebf57fa	0.37371808
151	0xbd9fd609	-0.07804496
152	0xbf32f00b	-0.69897527
153	0x3f516816	0.8179945
154	0xbee09ab7	-0.43868038
155	0x3e8ba1cd	0.27271882
156	0x3e8d0a33	0.27546844
157	0x3d93b3b8	0.07212013
158	0xbf14d2d1	-0.5813418
159	0x3f4c65fa	0.79843104
160	0xbe1dcd2d	-0.154103
161	0x3ef71cc0	0.48264122
162	0x3eaef352	0.34170014
163	0xbf0b4006	-0.54394567
164	0x3ccbd55a	0.024882007
165	0xbf8156b6	-1.0104587
166	0xbe9501d5	-0.2910296
167	0x3d7bbda1	0.06146014
168	0x3dd15868	0.1022194
169	0x3e41b7c2	0.18917754
170	0x3d6c426c	0.057680532
171	0x3e6f9606	0.23397073
172	0xbe74814e	-0.23877451
173	0x3d002fd1	0.0312956
174	0x3e207a76	0.15671715
175	0x3e4953b3	0.19660835
176	0xbea9a1c0	-0.33131218
177	0xbea95419	-0.33071974
178	0x3e47cd09	0.19511808
179	0xbb864056	-0.004097025
180	0x3f106a96	0.5641264
181	0x3f028ff6	0.51000917
182	0xbe65396f	-0.2238519
183	0xbe8dd8b7	-0.27704403
184	0x3e8653dd	0.26235858
185	0x3fa591fb	1.2935175
186	0xbe035c57	-0.12828194
187	0x3d522b09	0.051310573
188	0xbda919e4	-0.08256891
189	0xbdcfd710	-0.10148442
190	0x3ce46bd8	0.027883455
191	0xbe7329c7	-0.23746406
192	0x3f3887f8	0.7208247
193	0x3dc202e0	0.094732046
194	0xbed5d24d	-0.4176201
195	0xbd80d351	-0.062903054
196	0x3e9511d9	0.2911518
197	0x3e97d70d	0.29656258
198	0xbd96356e	-0.0733441
199	0x3d0ac283	0.033876907
200	0x3e3af5cf	0.18257831
201	0xbeabeefb	-0.33580765
202	0xbebb4d70	-0.36582518
203	0x3f73cec4	0.95237374
204	0xbde40331	-0.11133421
205	0xbe9a48cb	-0.30133662
206	0x3e4e6441	0.20155431
207	0x3ee469fb	0.44612107
208	0x3f82b857	1.0212506
209	0xbc098c7a	-0.008395309
210	0xbe37c1de	-0.17945048
211	0xbc96f04e	-0.018425133
212	0xbe33307d	-0.17498966
213	0xbeb0b049	-0.34509495
214	0x3e520961	0.2051139
215	0x3e77809a	0.24170151
216	0x3e44a7fe	0.19204709
217	0xbeacc18f	-0.33741423
218	0xbeeee9ba	-0.46662694
219	0x3f008e8d	0.50217515
220	0x3e28c2a9	0.16480507
221	0xbbcb50eb	-0.0062047145
222	0x3b4d14bd	0.0031292879
223	0xbef45fdb	-0.47729382
224	0x3e29baeb	0.1657521
225	0xbeb19efb	-0.34691605
226	0x3e771048	0.24127305
227	0x3ce1e990	0.027577192
228	0xbebcbbe2	-0.36862093
229	0x3ee3aafc	0.44466388
230	0x3e2d6c2a	0.16935793
231	0x3eeb85bc	0.4600047
232	0xbe279cf9	-0.16368474
233	0x3e740c19	0.2383274
234	0x3d8dc385	0.06922058
235	0xbf2afd33	-0.667926
236	0xbeb33fb3	-0.35009536
237	0x3f3a6e4a	0.7282454
238	0x3ed82b11	0.42220357
239	0xbe6e7560	-0.23286963
240	0x3f31d289	0.69461876
241	0xbe825899	-0.2545822
242	0x3f0e9727	0.5569939
243	0x3e4dbe74	0.20092183
244	0xbdf2c430	-0.11853826
245	0xbe8e1370	-0.27749205
246	0x3ef785e4	0.48344338
247	0xbe12d078	-0.14337337
248	0xbf29c57c	-0.6631696
249	0x3f161700	0.58628845
250	0xbed0c23a	-0.40773183
251	0xbee25de1	-0.4421225
252	0x3ed9c6bf	0.42534444
253	0xbf976ab0	-1.1829433
254	0x3d472ac1	0.048624758
255	0x3ed04f0d	0.4068531

network_body._body_endoder.seq_layers.0.bias f4 [128]
0	0xbdb24b78	-0.08705801
1	0xbdd3a162	-0.10333516
2	0xbdb41d58	-0.087946594
3	0xbd660364	-0.056155577
4	0xbd8c6510	-0.06855214
5	0xbdcb0d2e	-0.09914623
6	0xbde880ba	-0.11352678
7	0x3b672c61	0.0035274255
8	0xbe30059c	-0.1718964
9	0xbd9f7dfe	-0.07787703
10	0x3d283e39	0.041074965
11	0xbe0d0545	-0.13771541
12	0xbdb381ad	-0.08764968
13	0xbd63e85b	-0.055641513
14	0xbd5dac26	-0.05411925
15	0xbde2e4bd	-0.110787846
16	0xbe2cb52f	-0.16865991
17	0xbda56a35	-0.08076898
18	0xbe2517e3	-0.16122393
19	0xbe079f4b	-0.13244359
20	0x3dae6f95	0.08517376
21	0xbe035f1c	-0.1282925
22	0xbdf34f98	-0.11880416
23	0xbe597ee0	-0.21239805
24	0xbda0ae05	-0.078456916
25	0xbdc09a61	-0.094044454
26	0xbdc53f22	-0.09631182
27	0xbd7fd857	-0.062462177
28	0xbdee7f3c	-0.11645362
29	0x3bc26adb	0.0059331483
30	0xbc608095	-0.013702531
31	0xbe3d3b70	-0.18479705
32	0xbdd15810	-0.10221875
33	0xbd7d9884	-0.06191303
34	0xbb2af67a	-0.0026086853
35	0xbe119ce0	-0.1422
36	0x3b555231	0.003255021
37	0xbd74db1f	-0.059779283
38	0xbe2434d8	-0.16035783
39	0xbdc604f2	-0.09668912
40	0xbd43f75f	-0.047843333
41	0x3d7716c6	0.060324453
42	0x3bcc2c20	0.006230846
43	0xbe2080b3	-0.15674095
44	0xbe080111	-0.13281657
45	0x3cdd1918	0.026989505
46	0xbe4d559d	-0.2005219
47	0xbe30722f	-0.17231058
48	0xbe00bf8b	-0.12573068
49	0xbe114124	-0.14185005
50	0xbdf45198	-0.11929625
51	0xbd89671e	-0.06709121
52	0xbd9b6d75	-0.07589237
53	0xbd8f33a2	-0.0699227
54	0xbe2bade5	-0.16765554
55	0xbd84425e	-0.06457971
56	0xbddc1e65	-0.10747985
57	0xbdaec0fc	-0.085329026
58	0xbe19c1db	-0.15015356
59	0xbe0fef70	-0.14056182
60	0xbe6024f4	-0.21889096
61	0xbd9d8031	-0.07690466
62	0xbe15cfb2	-0.1463001
63	0xbe0bc00f	-0.13647483
64	0xbe1207be	-0.14260766
65	0xbe0018f3	-0.12509517
66	0xbe15082a	-0.14553896
67	0xbdef8b02	-0.116964355
68	0xbc9f0ad5	-0.019414345
69	0xbe106ddc	-0.14104408
70	0xbcd35640	-0.025797963
71	0xbdef806d	-0.11694417
72	0xbe132f01	-0.143734
73	0xbdd39221	-0.10330606
74	0xbd94f426	-0.0727313
75	0xbe0912c0	-0.13386059
76	0xbe28daa0	-0.16489649
77	0xbdad891c	-0.08473417
78	0xbd743b74	-0.05962701
79	0xbe177316	-0.14789996
80	0xbda0c51f	-0.07850098
81	0xbd9fad8b	-0.077967726
82	0xbe316893	-0.17325048
83	0xbe36b733	-0.17843322
84	0xbe106649	-0.14101519
85	0xbe2aa19f	-0.16663216
86	0xbde4e7b3	-0.111770056
87	0xbd890e2a	-0.06692155
88	0xbd75cbd2	-0.06000883
89	0xbe148c03	-0.14506535
90	0xbe1f0ded	-0.15532656
91	0xbd854a26	-0.06508283
92	0xbe112aba	-0.14176455
93	0xbd292cb2	-0.04130239
94	0xbcd87959	-0.02642505
95	0xbde694e3	-0.11258867
96	0xbd2dd0e8	-0.042435557
97	0xbe1c51c2	-0.15265563
98	0xbdda5eeb	-0.106626354
99	0x3d93fcee	0.07225977
100	0xbd023b33	-0.031794738
101	0xbe3970d8	-0.18109453
102	0x3d86edd9	0.065883346
103	0xbdc0a666	-0.09406738
104	0xbd3aaef1	-0.045576993
105	0xbe4ee834	-0.20205766
106	0xbe1547e9	-0.14578213
107	0xbe0dea3a	-0.13858882
108	0xbdee701e	-0.116424784
109	0xbdb885f6	-0.09009926
110	0xbde5f24d	-0.11227856
111	0xbdab60ad	-0.08368049
112	0xbb96bc02	-0.004600049
113	0xbda9747f	-0.08274173
114	0xbd19e11b	-0.037568193
115	0xbe17a3b4	-0.14808542
116	0xbda922e1	-0.08258606
117	0xbdf42a47	-0.11922126
118	0x3de06844	0.10957387
119	0xbdd8f9df	-0.10594534
120	0xbe4cae3b	-0.19988339
121	0xbdb7a579	-0.08967108
122	0xbc711bf5	-0.014716138
123	0xbe47d3d7	-0.19514404
124	0xbe1ec70e	-0.15505621
125	0xbe15ea85	-0.14640243
126	0xbdb769e6	-0.089557454
127	0xbdab2116	-0.0835592

network_body._body_endoder.seq_layers.2.weight f4 [128, 128]
0	0xbdeb0fc8	-0.114776194
1	0xbe6120bb	-0.21985142
2	0x3dba6e0a	0.091030195
3	0xbdeb8e07	-0.11501699
4	0xbe3d41bd	-0.18482108
5	0x3d4cbf5c	0.049987182
6	0xbd58bdeb	-0.052915495
7	0xbe47b7e5	-0.19503744
8	0xbe5e90de	-0.2173495
9	0xbdbfb298	-0.09360236
10	0x3cdaf071	0.02672598
11	0xbd8fe5b1	-0.07026232
12	0x3dcc0ea7	0.09963732
13	0xbdce6301	-0.10077477
14	0x3d5d22a9	0.053988133
15	0xbd84ed6f	-0.06490599
16	0xbbbee21f	-0.0058252956
17	0xbbdc006c	-0.0067139175
18	0xbd0ac106	-0.033875488
19	0xbdccc5df	-0.099986784
20	0x3e0cc624	0.1374746
21	0xbe025a62	-0.12729791
22	0xbd2d18dc	-0.042260036
23	0x3e136714	0.1439479
24	0xbd9a5315	-0.07535378
25	0xbca1f7ff	-0.019771574
26	0x3d617fd5	0.05505355
27	0x3d5ff84c	0.054680154
28	0xbd8c2af3	-0.068441294
29	0xbdc99c5c	-0.09844276
30	0xbd499405	-0.049213428
31	0xbe7531b2	-0.23944739
32	0x3e142107	0.14465724
33	0x3cc3680b	0.023853322
34	0xbd44f405	-0.048084278
35	0xbd221099	-0.03956661
36	0xbe63f2bd	-0.22260566
37	0xbe5b70d6	-0.21429762
38	0x3c4e3310	0.012585416
39	0xbc5444fc	-0.0129559
40	0x3c7607b0	0.015016481
41	0x3b500c58	0.0031745639
42	0xbce4c0ef	-0.02792403
43	0x3d56babc	0.052424178
44	0xbe284b08	-0.16434872
45	0xbe470c57	-0.19438301
46	0xbdd08212	-0.10181059
47	0x3d9eaede	0.07748197
48	0xbd5d610f	-0.05404764
49	0xbc160a45	-0.009157722
50	0xbd59848d	-0.053104926
51	0x3df0512e	0.11734234
52	0x3c1b4897	0.009477756
53	0x3de343f9	0.11096949
54	0xbe45f2ae	-0.19330856
55	0x3da05829	0.07829315
56	0x3cf6c5c3	0.030123597
57	0x3cb91ee3	0.022597736
58	0x3be07f50	0.0068511143
59	0xbb083d7f	-0.0020788608
60	0x3cb7c08e	0.022430684
61	0xbe514167	-0.20435105
62	0xbd9c0fb7	-0.07620185
63	0x3db8e2bd	0.09027622
64	0x3df0910a	0.11746414
65	0x3c8bd2ab	0.017068228
66	0x3d3e84ee	0.04651349
67	0xbd615efc	-0.055022225
68	0xbe32bf41	-0.1745577
69	0xbcc15b72	-0.023603175
70	0xbd9b8751	-0.07594169
71	0xbdc6a4de	-0.09699415
72	0xbbef747b	-0.0073075867
73	0x3cd9bea0	0.026580155
74	0xbe045e46	-0.12926587
75	0xbd857745	-0.065168895
76	0x3d51e51f	0.051243898
77	0x3e1828e9	0.14859356
78	0xbd7fdb2f	-0.06246489
79	0xbcc1ef0f	-0.023673562
80	0xbe5d8bd6	-0.21635374
81	0x3c01f015	0.007930775
82	0x3db4cda7	0.088282876
83	0xbddba54c	-0.10724887
84	0xbe8e1fa0	-0.27758503
85	0xbc612860	-0.013742536
86	0x3dda28ec	0.106523365
87	0x3e1b199e	0.15146491
88	0xbccfa0b7	-0.02534519
89	0x3da44dfa	0.08022685
90	0x3d2bf3a1	0.04198039
91	0x3d162a0d	0.036661197
92	0x3e0269ba	0.12735644
93	0xbe2cb6fd	-0.1686668
94	0x3da8a073	0.08233728
95	0xbd308daf	-0.04310387
96	0xbd42eba5	-0.04758801
97	0xbd785760	-0.060630202
98	0xbdb3b730	-0.087751746
99	0x3ddac7c1	0.10682631
100	0x3d62e95f	0.05539834
101	0x3dac3fa6	0.084105775
102	0x3dd1b8de	0.10240339
103	0x3cda5b6e	0.026654925
104	0xbcc0b9a0	-0.023526013
105	0x3da85ea1	0.08221174
106	0xbd11fae2	-0.03563965
107	0x3c9fd2a8	0.019509628
108	0x3d16d664	0.036825553
109	0xbe673a44	-0.2258082
110	0x3e040ca6	0.1289545
111	0xbe41d8fb	-0.18930428
112	0x3e42c8a6	0.19021854
113	0xbdf4c655	-0.11951891
114	0x3dd2644c	0.10273036
115	0x3e23a57d	0.15981098
116	0x3d16f64d	0.036855984
117	0xbd2b1db5	-0.041776378
118	0xbd243a7a	-0.04009483
119	0x3ddf232c	0.108953804
120	0xbd1dbd77	-0.038510766
121	0x3d997d8a	0.07494648
122	0xbe7c5b17	-0.24644123
123	0xbd1395cf	-0.03603154
124	0xbca27804	-0.019832619
125	0xbeacb330	-0.3373046
126	0x3dc9fbc1	0.09862471
127	0xbe394861	-0.18094017
128	0xbe07708f	-0.13226531
129	0xbbb256ab	-0.0054424605
130	0xbe1e3831	-0.15451123
131	0xbe10cef4	-0.14141446
132	0xbb3804b6	-0.002807898
133	0xbd048404	-0.032352462
134	0xbda95fd2	-0.082702294
135	0x3d65c2ca	0.05609397
136	0xbc629b06	-0.013830906
137	0xbca00b91	-0.019536765
138	0x38c5bbcd	9.428673e-05
139	0xbe61e7d5	-0.22061093
140	0xbe38f9e7	-0.1806408
141	0x3ea2ef87	0.3182337
142	0xbe9888ec	-0.29791963
143	0xbc72e8ce	-0.014826013
144	0xbe26fbcd	-0.16306992
145	0x3c81b305	0.015832433
146	0xbd810149	-0.06299073
147	0xbdda5dfd	-0.10662458
148	0xbcf7b24d	-0.030236388
149	0xbc89cbbd	-0.016820783
150	0xbe6efd32	-0.23338774
151	0x3d968c7d	0.07351015
152	0xbe5b694d	-0.21426888
153	0x3d9a737f	0.075415604
154	0x3c2fc698	0.010728501
155	0xbda0dc4f	-0.078545205
156	0xbe4e93f6	-0.2017363
157	0xbd4d721f	-0.050157662
158	0x3dd0bb64	0.10191992
159	0xbdaa7358	-0.08322781
160	0x3d891af7	0.06694596
161	0xbd9a37a4	-0.07530144
162	0xbd364124	-0.044495717
163	0xbe52e404	-0.20594794
164	0xbd230824	-0.039802685
165	0xbde9954d	-0.1140543
166	0xbd957476	-0.07297604
167	0xbea637e9	-0.3246453
168	0x3e084ffb	0.1331176
169	0x3d5554c4	0.052082792
170	0xbed97013	-0.42468318
171	0xbe4d1dee	-0.20030949
172	0x3c9fdb2a	0.019513685
173	0xbdd1b77b	-0.10240074
174	0xbe285f09	-0.16442503
175	0x3d35f1e3	0.044420134
176	0xbd74e323	-0.059786927
177	0xbe06f0af	-0.13177751
178	0xbdab58a6	-0.08366518
179	0x39b508ab	0.00034529468
180	0x3d1d26f1	0.038367216
181	0x3e306e2c	0.17229527
182	0xbda3f3b4	-0.08005467
183	0xbdb25c30	-0.087089896
184	0x3ccb4021	0.024810852
185	0x3d46a279	0.04849479
186	0xbd970738	-0.07374424
187	0xbe415928	-0.18881667
188	0xbca7ff6a	-0.020507533
189	0x3d237fc7	0.03991678
190	0xbd29d75c	-0.04146515
191	0xbd8e1f34	-0.06939545
192	0x3d8ee2c4	0.06976846
193	0xbe122860	-0.14273214
194	0xbe6fa040	-0.23400974
195	0xbe084394	-0.13307029
196	0xbc444a29	-0.011980572
197	0xbd8d59df	-0.06901907
198	0x3e67d095	0.22638161
199	0xbc4afc7a	-0.012389297
200	0xbe023cad	-0.12718458
201	0x3e285dea	0.16442075
202	0xbe1f0dea	-0.15532652
203	0xbd1d0f50	-0.03834468
204	0xbe17bcd4	-0.14818126
205	0x3da984c9	0.0827728
206	0xbb990981	-0.0046703224
207	0xbda606d7	-0.08106773
208	0x3c92725f	0.017876802
209	0xbe8fad1e	-0.28061765
210	0xbb7527a8	-0.003740767
211	0xbd8198b1	-0.06327952
212	0xbd7cd831	-0.061729614
213	0x3dcaef99	0.09908981
214	0xbc410185	-0.011780147
215	0xbd1795ce	-0.0370081
216	0x3dee039d	0.11621783
217	0xbead7105	-0.3387529
218	0xbd8ae7ab	-0.067824684
219	0xbe0dc0a0	-0.13843012
220	0xbde03c50	-0.10949004
221	0x3d0457de	0.03231036
222	0x3dd9bf67	0.1063221
223	0xbdf11477	-0.117714815
224	0xbe8062cf	-0.25075385
225	0x3d0f43be	0.034976713
226	0xbe12ec15	-0.1434787
227	0x3e8a4918	0.2700889
228	0x3d7a8c8f	0.061169203
229	0x3d9e7ac5	0.0773826
230	0xbc152089	-0.009101995
231	0xbe76cf33	-0.24102478
232	0xbd3cb06f	-0.046066698
233	0xbdb9be3b	-0.09069487
234	0xbd95ccff	-0.073144905
235	0xbe007aab	-0.12546794
236	0x3d76cf83	0.060256492
237	0x3cd9f67c	0.02660679
238	0xbcd4bb39	-0.025968181
239	0xbdf833d4	-0.121192604
240	0x3e1d7b92	0.1537917
241	0xbd9d7473	-0.076882266
242	0xbdef6951	-0.116900094
243	0x3c8cc944	0.017185815
244	0x3d34b4ba	0.044117667
245	0xbd169d52	-0.036771126
246	0xbde3737a	-0.1110601
247	0x3d1e62ef	0.03866857
248	0x3d6c5488	0.057697803
249	0xbdbaf946	-0.091295764
250	0xbd455e04	-0.048185363
251	0xbdde2c31	-0.108482726
252	0xbe4bb525	-0.1989332
253	0xbb51f713	-0.0032038137
254	0x3cba0199	0.02270584
255	0xbe10d62e	-0.14144203

network_body._body_endoder.seq_layers.2.bias f4 [128]
0	0x3c817630	0.015803427
1	0x3d9b1a0c	0.075733274
2	0xbda440f4	-0.08020201
3	0xbd32ab24	-0.043620244
4	0xbce79ed0	-0.02827397
5	0xbd4278c0	-0.047478437
6	0x3cb58eda	0.022162843
7	0xbe19c13c	-0.1501512
8	0xbd170b4c	-0.036876008
9	0x3c354ad2	0.011065202
10	0x3da6fc0e	0.08153544
11	0xbbe46bbb	-0.0069708503
12	0x3b9dd477	0.0048165875
13	0x3d0277d4	0.03185256
14	0x3d392836	0.045204364
15	0xbcc074a9	-0.023493128
16	0x3d9b76a3	0.075909875
17	0xbdb75d9e	-0.08953403
18	0xbdc09067	-0.094025426
19	0x3b1003ee	0.0021974999
20	0xbc85ba1b	-0.016324094
21	0xbb630cc2	-0.0034645055
22	0x3dad3a70	0.08458412
23	0x3bd1b528	0.0063997693
24	0x3ca2ddc3	0.019881135
25	0xbda0f060	-0.07858348
26	0xb967f006	-0.00022119292
27	0x3c63c4b4	0.013901878
28	0x3d3ca0dd	0.04605185
29	0xbd8d3619	-0.06895084
30	0x3b2ebc8c	0.0026662676
31	0x3c581be3	0.013190242
32	0x3d5d7630	0.05406779
33	0xbdeaa0d1	-0.114564545
34	0x3dad24a7	0.084542565
35	0x3da12dd0	0.07870066
36	0x3c2539d6	0.01008459
37	0xbdb4a12a	-0.08819802
38	0x3dada47a	0.08478637
39	0xbe28d71e	-0.1648831
40	0x3df72c0a	0.12068947
41	0x3c927a1a	0.017880488
42	0xbbece6b6	-0.0072296513
43	0xbc83c45d	-0.016084844
44	0xbdfdc333	-0.12390747
45	0x3c4564a1	0.012047918
46	0x3cf9f3eb	0.030511817
47	0xbbc710bb	-0.0060749925
48	0x3d6a806b	0.057251375
49	0xbc0bb936	-0.008528044
50	0x3d15ae93	0.03654344
51	0x3ce47722	0.027888838
52	0xbc2d7722	-0.0105874855
53	0x3ce45196	0.027870934
54	0xbcd873fb	-0.026422491
55	0xbce38a4a	-0.027775902
56	0x3c07d849	0.0082913125
57	0xbd94cf44	-0.07266095
58	0x3dc3d256	0.09561603
59	0xbe39b3b3	-0.18134956
60	0xbe114fe8	-0.14190638
61	0x3d0ee563	0.03488673
62	0xbc3cd2e8	-0.011524893
63	0xbd6f563f	-0.05843186
64	0xbd424e70	-0.047438085
65	0x3c3ff05b	0.01171502
66	0xbcb4a703	-0.022052294
67	0xbdbd0089	-0.09228618
68	0x3d0b086d	0.033943582
69	0xbd3fcd42	-0.04682661
70	0x3d115036	0.035476886
71	0x3b92324f	0.0044615637
72	0x3dcec02f	0.1009525
73	0xbb947845	-0.004530939
74	0xbd160317	-0.03662404
75	0xbd2de3a2	-0.042453416
76	0x3dbb6f45	0.09152082
77	0xbdd5f02e	-0.10446201
78	0x3ccf432b	0.025300583
79	0x3d59f47c	0.053211674
80	0x3c2e6e13	0.010646361
81	0xbc84704f	-0.016166834
82	0x3db28967	0.08717614
83	0x3d0ecd9c	0.034864053
84	0xbd9129b6	-0.07088034
85	0xb97a4382	-0.00023867007
86	0x3d2ab441	0.04167581
87	0xbdb5dcef	-0.0888003
88	0xbda1dc24	-0.079033166
89	0x3c77d635	0.0151267545
90	0x3b6d17ff	0.0036177633
91	0x3e094e7d	0.13408847
92	0x3cbc84ef	0.023012606
93	0xb962bbb5	-0.00021622966
94	0x3d2cc511	0.042180125
95	0xbbf4913d	-0.007463603
96	0xbcab7335	-0.020928958
97	0xbd33466a	-0.043768324
98	0xbccc785c	-0.024959736
99	0xbc439155	-0.011936505
100	0xbabeb08c	-0.0014548465
101	0x3d990a80	0.07472706
102	0xbb4ebcbd	-0.0031545602
103	0x3ccc0704	0.024905689
104	0x3caa1135	0.020760158
105	0x3d882bcb	0.06648978
106	0x3d2a4821	0.041572694
107	0xbcac3bd3	-0.02102462
108	0x3d31f1f7	0.043443646
109	0xbc2dcc8c	-0.01060785
110	0x3c09a59d	0.008401302
111	0x3c4aa44a	0.012368271
112	0x3d9cee31	0.07662619
113	0xbc2559f3	-0.010092246
114	0x3ce2a4d3	0.027666485
115	0xbcb7ff41	-0.022460582
116	0x3cbebab8	0.023282394
117	0xbd4b0519	-0.04956541
118	0x3b39fb61	0.0028378593
119	0xbd2859c4	-0.041101232
120	0xb9896e3a	-0.00026212801
121	0x3c5f59ce	0.013632251
122	0x3cdc000c	0.026855491
123	0xbd54cdaf	-0.051953968
124	0x3d54c789	0.051948104
125	0x3b55140f	0.0032513177
126	0x3d57540a	0.05257038
127	0xbd2855b0	-0.041097343

action_model._continuous_distribution.log_sigma f4 [1, 2]
0	0xbeeaa70c	-0.45830572
1	0xbf06129d	-0.5237215

action_model._continuous_distribution.mu.weight f4 [2, 128]
0	0xbdc26ef8	-0.09493822
1	0x3d32603b	0.043548804
2	0xbd615aeb	-0.055018347
3	0xbd21c675	-0.039495904
4	0xbc66ef60	-0.014095157
5	0xbd039b61	-0.032130603
6	0x3d4fab05	0.050700206
7	0x3da8a059	0.08233709
8	0x3bc4346b	0.005987694
9	0x3cafece6	0.021475267
10	0x3df1f645	0.1181455
11	0xbda3c642	-0.07996799
12	0xbe4aedf3	-0.19817333
13	0xbc9890fc	-0.018623821
14	0x3e324a38	0.17411125
15	0xbd56e940	-0.05246854
16	0xbdc35c7c	-0.09539124
17	0x3ccb9a9a	0.024853993
18	0x3c445926	0.011984145
19	0xbde12974	-0.10994235
20	0x3cfa7586	0.030573618
21	0x3d830649	0.06397683
22	0xbce89e3d	-0.028395766
23	0x3db23ca7	0.08702975
24	0x3d76d8a9	0.060265217
25	0xbc212bc6	-0.009837097
26	0xbd9e3620	-0.07725167
27	0xbdde4764	-0.108534604
28	0xbe21605d	-0.15759416
29	0x3daed2b7	0.085362844
30	0xbda45f75	-0.080260195
31	0xbac3d90d	-0.0014942006
32	0xbe65ec05	-0.22453316
33	0xbd1033b1	-0.035205547
34	0xbe4ee7f0	-0.20205665
35	0xbe012371	-0.12611176
36	0xbc6a8eba	-0.014316255
37	0x3d401d45	0.046902914
38	0xbe3c2410	-0.18373132
39	0x3d65834a	0.05603341
40	0xbda252c6	-0.07925944
41	0xbd9c2a73	-0.07625284
42	0xbd389ec0	-0.04507327
43	0x3d63857a	0.055547215
44	0x3c7a31e1	0.015270681
45	0xbd4ca88e	-0.049965434
46	0xbdf9f186	-0.1220427
47	0xbd7c3b01	-0.061579708
48	0xbbb9ef6d	-0.0056742937
49	0xbdb61b32	-0.08891906
50	0x3dd5105d	0.10403512
51	0xbe1fd309	-0.15607847
52	0xbd8bc35a	-0.0682437
53	0xbc186878	-0.009302251
54	0x3c4bac67	0.012431241
55	0xbd3bff88	-0.04589799
56	0xbb6520e2	-0.0034962227
57	0x3d8a7c10	0.06761944
58	0x3d456f2f	0.048201736
59	0x3d8c553c	0.06852195
60	0x3d89af96	0.067229435
61	0xbd4fe66e	-0.050756864
62	0xbda05650	-0.07828963
63	0x3cb397a8	0.021922901
64	0x3c9a18a2	0.018810574
65	0x3d79469d	0.060858358
66	0x3de0db3a	0.10979314
67	0xbdafe775	-0.08589069
68	0x3d75d43a	0.06001685
69	0xbd497c38	-0.04919073
70	0x3dfbbdcd	0.12292061
71	0x3de35fbf	0.111022465
72	0xbd000e43	-0.0312636
73	0x3db0f5cf	0.08640634
74	0xbdd859aa	-0.10563977
75	0xbc6c2760	-0.014413685
76	0xbd836f9a	-0.06417771
77	0x3ba9d29f	0.0051825787
78	0xbe06d64c	-0.13167685
79	0xbd19f4eb	-0.037587088
80	0xbc3664a3	-0.011132392
81	0x3cb2c423	0.02182204
82	0x3d962f29	0.07333214
83	0x3daf5a24	0.08562115
84	0xbd327d19	-0.043576334
85	0xbc3e6652	-0.011621075
86	0x3d90d574	0.07071963
87	0x3e023ffd	0.12719722
88	0x3d8c6518	0.068552196
89	0x3d996673	0.07490244
90	0x3d2513bd	0.040302027
91	0xbe33acf7	-0.1754645
92	0x3d1c7fa3	0.03820766
93	0xbd1998d9	-0.037499283
94	0xbd9c0100	-0.07617378
95	0x3d05c055	0.032654125
96	0x3de97619	0.113994785
97	0x3df1db9d	0.11809466
98	0x3b21a44f	0.0024664586
99	0xbcc595b8	-0.024119243
100	0xbcbc6922	-0.02299935
101	0xbe0f8d9f	-0.14018868
102	0x3c2facd7	0.010722361
103	0x3d242fd4	0.040084675
104	0x3d0851fc	0.03328131
105	0x3d3c671d	0.045996774
106	0xbda9f4cc	-0.082986444
107	0x3b43da71	0.002988484
108	0xbc605b87	-0.013693697
109	0xbcb8ae42	-0.02254403
110	0x3d95abd0	0.07308161
111	0xbe0a6231	-0.1351402
112	0x3d6ded54	0.05808766
113	0x3df66231	0.12030447
114	0x3dd03cfc	0.10167882
115	0x3daac52e	0.0833839
116	0x3c74a5c5	0.014932101
117	0x3c7c3565	0.01539359
118	0x3e3987b7	0.18118177
119	0x3df3a02a	0.11895783
120	0x3d8e4132	0.06946029
121	0x3e0dddb9	0.13854112
122	0x3dd95fc1	0.10613967
123	0xbe106d1c	-0.14104122
124	0x3d23c9d6	0.039987408
125	0xbcb1ea77	-0.021718247
126	0xbd1e8a3a	-0.038706042
127	0x3dcc0660	0.099621534
128	0x3d128ff2	0.03578181
129	0xbe008e45	-0.12554272
130	0x3d639a61	0.05556715
131	0x3d38a0ad	0.045075107
132	0xbdc4ddfd	-0.096126534
133	0xbd05fd92	-0.032712527
134	0x3dd6e725	0.10493306
135	0x3e2319ba	0.15927783
136	0x3db37ee5	0.087644376
137	0x3e0784a4	0.13234192
138	0xbdc240a5	-0.09484986
139	0x3d5cc6a1	0.053900365
140	0x3db0f404	0.08640292
141	0xbe0bb235	-0.136422
142	0x3da94fa0	0.082671404
143	0x3dce58ed	0.10075555
144	0xbd001d6f	-0.03127807
145	0x3bdcb7a7	0.0067357603
146	0xbe27d2b6	-0.16388974
147	0x3e705ce0	0.23472929
148	0xbd318e6a	-0.043348707
149	0xbd6e3545	-0.05815627
150	0xbddcdefc	-0.107847184
151	0x3cfe3f25	0.031035969
152	0xbcf3650f	-0.029711274
153	0x3e0646f1	0.13113
154	0xbd6af6ad	-0.057364155
155	0xbd2dfd19	-0.0424777
156	0xbe14a486	-0.14515886
157	0xbddb908f	-0.10720932
158	0xbd4c7b8b	-0.049922507
159	0x3ccacd85	0.024756202
160	0xbd40765f	-0.046987887
161	0xbc5a87ce	-0.013338042
162	0xba97325d	-0.0011535395
163	0xbd8a2f96	-0.067473575
164	0xbdd18e5c	-0.10232231
165	0x3ca23654	0.019801296
166	0xbb507dd6	-0.0031813285
167	0x3bcf5dc0	0.0063283145
168	0xbdd8c6f0	-0.10584819
169	0x3ca537d5	0.020168224
170	0x3717333e	9.012232e-06
171	0x3caf0833	0.021366214
172	0xbcac74e9	-0.02105184
173	0xbdf874b7	-0.121316366
174	0xbdd44020	-0.103637934
175	0x3d131cf1	0.035916273
176	0xbe3bf122	-0.18353704
177	0x3de50d41	0.111841686
178	0xbd70d073	-0.058792543
179	0x3c56a0a3	0.013099822
180	0x3dee4b37	0.1163544
181	0x3dadcc58	0.08486241
182	0x3c80e0a8	0.015732124
183	0x3d9b690a	0.07588394
184	0xbe025160	-0.12726355
185	0x3d9e3f7a	0.07726951
186	0xbe193ec2	-0.14965346
187	0x3d7f562f	0.06233805
188	0x3d25618c	0.04037623
189	0xbdbc3ec9	-0.09191663
190	0xbd6c5961	-0.057702426
191	0xbd8af2dd	-0.06784604
192	0x3dc58b81	0.09645749
193	0x3d9838d1	0.07432712
194	0x3de0c4ed	0.109750606
195	0x3d575959	0.052575443
196	0xbd334369	-0.04376546
197	0xbc58529b	-0.013203288
198	0x3c49f90d	0.012327445
199	0xbd63d51f	-0.05562317
200	0xbe4b5a4d	-0.19858666
201	0x3da2a9c8	0.079425395
202	0xbda5f896	-0.08104055
203	0xbd8b8e4e	-0.06814252
204	0xbe378205	-0.17920692
205	0x3dcb8784	0.09937957
206	0x3dcb7e6f	0.09936225
207	0x3e1889e9	0.14896359
208	0xbd91568c	-0.07096586
209	0x3d99e335	0.075140394
210	0xbe335231	-0.17511822
211	0xbe0f1573	-0.13973026
212	0x3da55fc8	0.080749094
213	0x3d5f5e32	0.05453319
214	0x3ce67ce6	0.028135728
215	0x3bc0b3e2	0.0058808187
216	0xbbb88945	-0.005631598
217	0x3d99dc9b	0.0751278
218	0x3d776bf5	0.06040569
219	0x3d93196d	0.07182584
220	0xbe0b8d87	-0.13628207
221	0x3dfc3d01	0.12316323
222	0xbe3ba93c	-0.18326277
223	0x3e974211	0.29542592
224	0x3d0f9b13	0.03506
225	0x3cefce90	0.029273301
226	0xbcd8a72b	-0.0264469
227	0xbdc026a8	-0.09382373
228	0x3d4a2ee3	0.04936112
229	0x3bf769ac	0.007550439
230	0xbb8d8d93	-0.0043198555
231	0x3d7cebab	0.061748188
232	0x3c94c61f	0.018160878
233	0xbde9fa48	-0.114246905
234	0x3d887fe6	0.0666502
235	0x3d39d52f	0.045369323
236	0xbdbcc374	-0.09216967
237	0xbd8316ee	-0.06400858
238	0xbd1a55e1	-0.037679557
239	0x3c17542f	0.0092363795
240	0xbdef5001	-0.116851814
241	0xbc898170	-0.016785353
242	0x3e12a52a	0.14320818
243	0x3d0bd5c0	0.034139395
244	0x3d456896	0.048195444
245	0x3ddc2ab0	0.107503295
246	0xbd6c2c33	-0.05765934
247	0x3ce07475	0.027399281
248	0xbc58759a	-0.013211632
249	0xbb84b3c6	-0.004049751
250	0x3cae4825	0.021274636
251	0xbc6d7b1d	-0.0144946845
252	0xbd936a7b	-0.07198044
253	0x3aaf13d3	0.0013357349
254	0x3da06ab0	0.07832849
255	0x3dace6b4	0.08442441

action_model._continuous_distribution.mu.bias f4 [2]
0	0xbc4b4c89	-0.012408384
1	0x3af9b691	0.0019051601
