ML-Agents/Examples/results/PlaneBalancer/PlaneBalancerAgent/PlaneBalancerAgent-8799761.pt (torch, 451730 bytes, 36 tensors)

network_body._body_endoder.seq_layers.0.weight f4 [128, 9]
0	0x3f103d54	0.5634358
1	0xbec783dc	-0.38967788
2	0xbf4f0b3f	-0.80876535
3	0x3f6297b5	0.88512737
4	0xbe601629	-0.21883453
5	0x3db864d7	0.09003609
6	0x3ec2dd77	0.3805959
7	0x3e4865e7	0.19570123
8	0xbe7c85d4	-0.24660426
9	0x3f4690a9	0.77564484
10	0xbefbbba2	-0.4916659
11	0x3e9d513a	0.30726033
12	0xbf485ef8	-0.7826991
13	0xbdd11bd2	-0.102103844
14	0xbe47c826	-0.19509944
15	0xbec1f07a	-0.37878782
16	0x3d817132	0.063204184
17	0xbec087a2	-0.3760348
18	0xbe87af3b	-0.26500878
19	0x3e484e31	0.19561078
20	0x3f33e513	0.70271415
21	0x3eae6452	0.34060913
22	0xbe9d3bd6	-0.30709714
23	0xbdf7f1a4	-0.12106636
24	0xbe0bc3bb	-0.13648884
25	0xbecde380	-0.4021263
26	0x3e0173c0	0.12641811
27	0x3d86badc	0.06578609
28	0xbe8184ad	-0.25296536
29	0x3ede82dd	0.43459216
30	0xbe81345d	-0.25235263
31	0x3e9a9ac1	0.30196193
32	0x3ede325e	0.43397802
33	0xbdc28ecb	-0.09499892
34	0xbee975bb	-0.45597634
35	0xbe9663e2	-0.2937308
36	0xbe319831	-0.17343213
37	0xbe5b7fb1	-0.21435429
38	0xbd80324b	-0.062595926
39	0x3cd3fd44	0.025877602
40	0xbcda0e38	-0.026618108
41	0xbf0b5941	-0.54433066
42	0x3ed5cc1c	0.41757286
43	0xbed2cec0	-0.41173363
44	0x3e38cde7	0.18047296
45	0x3ee627cf	0.44952247
46	0x3e0f8c99	0.14018477
47	0x3f097bbf	0.53704447
48	0x3ce28894	0.027653016
49	0x3e029b2d	0.12754507
50	0xbeb8ec88	-0.3611796
51	0x3e11a2f0	0.14222312
52	0x3e33f634	0.17574388
53	0x3f008326	0.50200117
54	0x3dc55b13	0.09636512
55	0xbe19a969	-0.15006031
56	0x3ce50ff9	0.027961718
57	0x3f13bd5e	0.57710826
58	0x3d338f82	0.04383803
59	0x3eca3962	0.39496905
60	0x3e02f80f	0.1278994
61	0xbf0bd7d2	-0.5462619
62	0x3e01f7e9	0.12692226
63	0x3dc47bba	0.095939115
64	0x3d50ccd3	0.050976586
65	0x3e334909	0.1750833
66	0xbf2d970c	-0.67808604
67	0xbe7cb396	-0.24677882
68	0xbf181fae	-0.5942334
69	0x3da3e523	0.08002689
70	0x3eba75f0	0.36418104
71	0xbf252d36	-0.6452211
72	0xbe04a4e4	-0.12953526
73	0x3da317e2	0.0796354
74	0x3e7d56e0	0.24740171
75	0x3eac6d62	0.33677202
76	0x3e240aa0	0.16019678
77	0xbd65bc89	-0.056088004
78	0x3e143b27	0.1447569
79	0xbe10c4f0	-0.14137626
80	0x3f0c8a9e	0.54899013
81	0xbf17c76d	-0.59288675
82	0xbda26f0c	-0.07931337
83	0xbf694128	-0.91115046
84	0xbecc5568	-0.3990891
85	0x3e53e2ca	0.20691982
86	0xbe9be7a7	-0.30450174
87	0x3eef98a2	0.46796137
88	0x3dbdf685	0.092755355
89	0x3b7ba00f	0.0038394963
90	0xbd4c27cb	-0.049842637
91	0x3ebe14e3	0.3712531
92	0x3e8230cb	0.2542785
93	0xbeccc07c	-0.39990604
94	0x3eb715f3	0.35758933
95	0x3ee684fb	0.4502333
96	0x3ef75dcf	0.48313758
97	0x3de8f26a	0.11374362
98	0xbe51b9c9	-0.20481028
99	0x3f2dd8cc	0.6790893
100	0xbdf7cdf6	-0.12099831
101	0xbe8d95d3	-0.2765337
102	0xbfa1410a	-1.2597973
103	0x3e22affb	0.15887444
104	0x3e74b2e9	0.23896374
105	0x3e0b36fe	0.13595197
106	0xbe912cf9	-0.28354624
107	0x3e9116b2	0.28337628
108	0xbebbda3d	-0.3668994
109	0xbe42509f	-0.18976067
110	0x3e99a756	0.3001048
111	0x3f226cbd	0.6344717
112	0x3f243df0	0.6415701
113	0x3f52d84a	0.8236128
114	0x3ebef405	0.37295547
115	0xbb81386c	-0.0039434936
116	0xbe449c66	-0.19200286
117	0xbdbb5d45	-0.09148649
118	0x3e13a7cb	0.14419477
119	0xbe89fbc0	-0.26949883
120	0xbf15ab63	-0.5846464
121	0x3cbb9e70	0.022902697
122	0xbf7b9075	-0.982673
123	0xbea23dfc	-0.31687915
124	0xbe984048	-0.29736543
125	0xbde96a3d	-0.113972165
126	0x3e97f860	0.29681683
127	0xbea63dfa	-0.3246916
128	0xbe4c6c11	-0.19963099
129	0x3ef9c505	0.48783126
130	0x3e1018d6	0.14071974
131	0x3ca178e0	0.019710958
132	0x3e0f2735	0.139798
133	0xbe95d35c	-0.29262817
134	0x3dabf626	0.083965585
135	0x3e92ef5c	0.28698242
136	0xbe01d3b3	-0.12678413
137	0xbec49d7d	-0.38401404
138	0x3ee9a274	0.45631754
139	0xbe81d706	-0.25359362
140	0xbebe3b8b	-0.37154803
141	0x3e9d4e20	0.30723667
142	0xbe1172f8	-0.14204013
143	0xbd25cbef	-0.04047769
144	0x3d49abfd	0.049236286
145	0x3c26e8b6	0.010187319
146	0x3e379aee	0.17930195
147	0x3e851ff6	0.26000947
148	0x3e3b9b79	0.18321027
149	0xbea48f60	-0.32140636
150	0x3ebea3ac	0.37234247
151	0xbd9d21e7	-0.07672482
152	0xbf2cad7b	-0.6745221
153	0x3f4e79b2	0.8065444
154	0xbedfa262	-0.43678576
155	0x3e934543	0.2876378
156	0x3e8df0dd	0.27722827
157	0x3d9c64e7	0.07636433
158	0xbf1399fd	-0.5765684
159	0x3f4c7b6e	0.7987584
160	0xbe1e6816	-0.15469393
161	0x3ef7cbba	0.4839762
162	0x3eb3f8d6	0.35150784
163	0xbf0cd42a	-0.55011237
164	0x3ca879b6	0.020565849
165	0xbf80343b	-1.001594
166	0xbe93f292	-0.28896004
167	0x3d7e1970	0.062035978
168	0x3dd3081b	0.1030428
169	0x3e43aff2	0.19110087
170	0x3d577422	0.052600987
171	0x3e639abc	0.22226995
172	0xbe746a98	-0.23868787
173	0x3d4d238b	0.050082725
174	0x3e213e3c	0.15746397
175	0x3e39cae5	0.18143804
176	0xbeab8829	-0.3350232
177	0xbeaa872c	-0.33306253
178	0x3e48c374	0.1960581
179	0xbb5ec711	-0.0033993165
180	0x3f0f7a13	0.56045645
181	0x3f019a6c	0.50626254
182	0xbe747baf	-0.23875307
183	0xbe946b97	-0.28988335
184	0x3e8cc0c8	0.2749083
185	0x3fa3635d	1.2764698
186	0xbe023cfc	-0.12718576
187	0x3d5478a5	0.051872868
188	0xbda6c4f8	-0.081430376
189	0xbddea0d1	-0.10870517
190	0x3caa3080	0.02077508
191	0xbe66bfbb	-0.22534077
192	0x3f37ddde	0.7182292
193	0x3dcdca5c	0.100483626
194	0xbed34c2a	-0.41269046
195	0xbd7b2d10	-0.06132227
196	0x3e954fc6	0.29162425
197	0x3e96f622	0.2948466
198	0xbd95be21	-0.07311655
199	0x3d10b578	0.035329312
200	0x3e249068	0.16070712
201	0xbead7931	-0.33881524
202	0xbebb3257	-0.36561844
203	0x3f705965	0.93886405
204	0xbdef83f0	-0.11695087
205	0xbe9e3124	-0.30896866
206	0x3e4d6d22	0.20061162
207	0x3ee58ab1	0.44832376
208	0x3f828f5c	1.02
209	0xbbc0aeab	-0.005880197
210	0xbe39453d	-0.18092819
211	0xbc32f9f9	-0.010923856
212	0xbe2d73d6	-0.16938719
213	0xbeb1bf81	-0.34716418
214	0x3e505d92	0.20348194
215	0x3e70c8e2	0.2351413
216	0x3e3c65fa	0.18398276
217	0xbeaec0a9	-0.34131363
218	0xbedec127	-0.4350674
219	0x3f0353cb	0.5129973
220	0x3e26922e	0.162667
221	0x3aa5ffeb	0.001266477
222	0x3be1b277	0.0068877297
223	0xbef5b022	-0.4798594
224	0x3e275ac3	0.16343217
225	0xbeacace2	-0.3372565
226	0x3e775ac1	0.24155714
227	0x3cc18248	0.023621693
228	0xbeb8eee6	-0.36119765
229	0x3ee17c8a	0.44040328
230	0x3e2b8cd8	0.16752946
231	0x3eeb6024	0.45971787
232	0xbe275fc7	-0.1634513
233	0x3e72c434	0.23707658
234	0x3d852907	0.06501966
235	0xbf2c65d9	-0.6734291
236	0xbeaa10b4	-0.33215868
237	0x3f3c048f	0.73444456
238	0x3ed73bbe	0.42037767
239	0xbe62b31d	-0.22138639
240	0x3f321aa0	0.69571877
241	0xbe813476	-0.25235337
242	0x3f0e5d13	0.5561077
243	0x3e5219b1	0.20517613
244	0xbdf2a55a	-0.118479446
245	0xbe86275c	-0.26201904
246	0x3ef9ead5	0.48811975
247	0xbe0d1c99	-0.1378044
248	0xbf264941	-0.64955527
249	0x3f160b8d	0.58611375
250	0xbed0b4c4	-0.40762913
251	0xbee2ce13	-0.44297847
252	0x3ecbc18d	0.39796105
253	0xbf983898	-1.1892271
254	0x3d569794	0.05239065
255	0x3ece9dfe	0.40354913

network_body._body_endoder.seq_layers.0.bias f4 [128]
0	0xbdbb8b25	-0.09157399
1	0xbdb56b5c	-0.08858368
2	0xbdb3d6d7	-0.08781212
3	0xbd43340c	-0.047657058
4	0xbd8eda3a	-0.06975217
5	0xbdc080ef	-0.09399592
6	0xbdebd866	-0.11515884
7	0x3bcec041	0.0063095395
8	0xbe2b11e6	-0.16706046
9	0xbda343f4	-0.079719454
10	0x3d398cd7	0.04530033
11	0xbe049d5c	-0.12950653
12	0xbdaf95a9	-0.08573467
13	0xbd6dcc1a	-0.058055975
14	0xbd6ad0ac	-0.05732791
15	0xbde94534	-0.113901526
16	0xbe3292c9	-0.17438807
17	0xbda52a51	-0.08064712
18	0xbe1d0221	-0.15332843
19	0xbe0a97c9	-0.13534464
20	0x3dbade8f	0.09124481
21	0xbe05fb26	-0.13084087
22	0xbde767d1	-0.11299098
23	0xbe5bdd75	-0.21471198
24	0xbdaaa713	-0.08332648
25	0xbdbc8714	-0.092054516
26	0xbdca0a1a	-0.09865208
27	0xbd894201	-0.06702042
28	0xbdedc9c7	-0.116107516
29	0x3c3c5b64	0.011496399
30	0xbc90c36f	-0.017671315
31	0xbe3e8b7b	-0.18607895
32	0xbdcaa2f2	-0.098943606
33	0xbd7e1568	-0.062032133
34	0xbb11605d	-0.002218268
35	0xbe0dc8c4	-0.13846117
36	0x3c512e60	0.012767404
37	0xbd554534	-0.05206795
38	0xbe24c61e	-0.160912
39	0xbdc73570	-0.09726989
40	0xbd462536	-0.04837533
41	0x3d865aec	0.06560311
42	0x3b8aea06	0.0042393235
43	0xbe17797b	-0.14792435
44	0xbe02f4d0	-0.12788701
45	0x3cdcb78e	0.026942994
46	0xbe474c85	-0.19462784
47	0xbe343b00	-0.17600632
48	0xbe036da6	-0.12834796
49	0xbe13f493	-0.14448766
50	0xbdf16d7a	-0.11788459
51	0xbd81eb64	-0.06343725
52	0xbda587bd	-0.08082531
53	0xbd8c2968	-0.06843835
54	0xbe30a1a2	-0.17249158
55	0xbd877790	-0.066146016
56	0xbdc7ad34	-0.09749833
57	0xbdcb4dc1	-0.0992694
58	0xbe190f11	-0.14947154
59	0xbe0add7e	-0.13561055
60	0xbe61a13d	-0.22034164
61	0xbd9bee38	-0.07613796
62	0xbe14891c	-0.14505428
63	0xbe0ee1f9	-0.13953389
64	0xbe0d74b3	-0.13814048
65	0xbdf811fa	-0.12112804
66	0xbe17090a	-0.14749542
67	0xbdf27e2e	-0.11840473
68	0xbc7b3d07	-0.015334374
69	0xbe08c164	-0.13355023
70	0xbcdddfcd	-0.027084256
71	0xbddeb774	-0.10874835
72	0xbe12cccd	-0.14335938
73	0xbdd29715	-0.10282723
74	0xbd9cdbd4	-0.076591164
75	0xbe05b953	-0.13058977
76	0xbe200df3	-0.15630321
77	0xbdb3fa0c	-0.08787927
78	0xbd7e5ac2	-0.062098272
79	0xbe1cfb40	-0.1533022
80	0xbd9ca618	-0.07648867
81	0xbda01873	-0.07817163
82	0xbe2f925c	-0.17145675
83	0xbe3498d4	-0.17636424
84	0xbe0130ad	-0.12616225
85	0xbe2c9f80	-0.1685772
86	0xbde66285	-0.1124926
87	0xbd9930be	-0.0748
88	0xbd75e5e4	-0.060033694
89	0xbe1749af	-0.14774202
90	0xbe1f7466	-0.15571746
91	0xbd8ba609	-0.06818778
92	0xbe12030a	-0.14258972
93	0xbd0023e6	-0.031284235
94	0xbcd4f856	-0.025997322
95	0xbdeae8d0	-0.11470187
96	0xbd33b21c	-0.04387103
97	0xbe15fbea	-0.14646879
98	0xbdd5dfe5	-0.10443095
99	0x3d99110f	0.07473957
100	0xbd0a4b02	-0.03376294
101	0xbe38f2d3	-0.1806138
102	0x3d81b513	0.06333365
103	0xbdb35682	-0.087567344
104	0xbd2700b9	-0.040772174
105	0xbe4f59de	-0.20249125
106	0xbe14269d	-0.14467855
107	0xbe13cb4f	-0.14433025
108	0xbde9fb06	-0.11424832
109	0xbdbb8bfe	-0.09157561
110	0xbdded095	-0.108796276
111	0xbdb59608	-0.08866507
112	0xb967d983	-0.00022110906
113	0xbdb1e5e1	-0.08686424
114	0xbd243139	-0.040086005
115	0xbe0da982	-0.13834193
116	0xbdabaf96	-0.083831
117	0xbdf9cee3	-0.12197664
118	0x3ddd3cae	0.10802589
119	0xbdd8a7f8	-0.105789125
120	0xbe507084	-0.20355421
121	0xbdb83295	-0.08994023
122	0xbc915cd1	-0.017744454
123	0xbe48a36f	-0.19593595
124	0xbe1fa6a3	-0.1559091
125	0xbe1af205	-0.15131386
126	0xbdb3da3f	-0.087818615
127	0xbdb3e33e	-0.087835774

network_body._body_endoder.seq_layers.2.weight f4 [128, 128]
0	0xbdde0d1d	-0.10842345
1	0xbe621cc3	-0.22081284
2	0x3dbafe82	0.09130575
3	0xbde91855	-0.11381594
4	0xbe36a4a0	-0.17836237
5	0x3d4eee60	0.0505203
6	0xbd645663	-0.055746447
7	0xbe40cb0b	-0.18827455
8	0xbe604412	-0.21900967
9	0xbdbb7598	-0.091532886
10	0x3cc360ba	0.023849834
11	0xbd95af5e	-0.07308839
12	0x3dce2c51	0.100670464
13	0xbdc82584	-0.097727805
14	0x3d523aa5	0.05132546
15	0xbd63188f	-0.055443343
16	0xbc382588	-0.011239417
17	0xbb2f5eb3	-0.0026759326
18	0xbd19ce78	-0.03755042
19	0xbdc9a9b7	-0.09846824
20	0x3e0f6a4a	0.1400539
21	0xbdf3e746	-0.11909346
22	0xbd29d609	-0.041463885
23	0x3e160803	0.14651494
24	0xbd9b431b	-0.07581159
25	0xbcd7f958	-0.026364014
26	0x3d5aa19b	0.053376775
27	0x3d712216	0.058870398
28	0xbd869e37	-0.06573146
29	0xbdc8d027	-0.09805327
30	0xbd2e5fad	-0.042571712
31	0xbe7280e3	-0.23681979
32	0x3e1091a8	0.14118063
33	0x3cd99c6d	0.026563847
34	0xbd355d4c	-0.044278428
35	0xbd201e0f	-0.039091166
36	0xbe6a7cc5	-0.22899158
37	0xbe5d74e2	-0.21626619
38	0x3c0a980f	0.008459105
39	0xbc44ab42	-0.012003722
40	0x3c953698	0.018214509
41	0x3aa9f8fe	0.0012967882
42	0xbcd9fb0e	-0.02660897
43	0x3d4c6a7a	0.04990623
44	0xbe302ae9	-0.17203869
45	0xbe3e5e71	-0.18590714
46	0xbdcedf4f	-0.101011865
47	0x3d9f1ec3	0.07769539
48	0xbd39cdcb	-0.045362275
49	0xbbc3fd24	-0.0059811044
50	0xbd748855	-0.05970033
51	0x3def1a1c	0.11674902
52	0x3c8ec258	0.017426655
53	0x3ddf6e1c	0.109096736
54	0xbe41d84b	-0.18930165
55	0x3da48d59	0.080347724
56	0x3ce84c89	0.028356807
57	0x3d02d5d7	0.031942215
58	0x3c174edb	0.009235109
59	0x3b82aa8b	0.0039876155
60	0x3cd079fa	0.025448788
61	0xbe5861d1	-0.21131064
62	0xbda1e25c	-0.07904503
63	0x3dc0fcb3	0.094231986
64	0x3df8e6d1	0.121534
65	0x3c4fb31d	0.012676981
66	0x3d26160a	0.04054836
67	0xbd5f9359	-0.05458388
68	0xbe31b802	-0.1735535
69	0xbcff6bc9	-0.031179326
70	0xbd930fde	-0.07180761
71	0xbdc6b9aa	-0.09703381
72	0xbbe5f9b4	-0.0070182923
73	0x3cf6a9b2	0.030110214
74	0xbdfc535a	-0.123205855
75	0xbd8b3ca3	-0.06798675
76	0x3d4d5a5b	0.050134998
77	0x3e1b74ad	0.15181227
78	0xbd7e833f	-0.062136885
79	0xbca2237b	-0.019792309
80	0xbe61f189	-0.22064795
81	0x3c25a839	0.010110908
82	0x3db6d18c	0.08926687
83	0xbde073a1	-0.109595545
84	0xbe8c8629	-0.27446106
85	0xbc173c12	-0.0092306305
86	0x3de48acf	0.11159288
87	0x3e1901fe	0.14942166
88	0xbcbdea95	-0.023183146
89	0x3da43845	0.08018545
90	0x3d271791	0.04079396
91	0x3d0b7286	0.034044765
92	0x3e0254a9	0.12727608
93	0xbe2b8b10	-0.16752267
94	0x3da2f571	0.079569705
95	0xbd20029d	-0.039064992
96	0xbd479711	-0.048728053
97	0xbd6b3eba	-0.057432868
98	0xbdb3b419	-0.08774585
99	0x3de55971	0.111987
100	0x3d771759	0.060325
101	0x3db036f6	0.08604233
102	0x3dd413af	0.10355317
103	0x3cebd899	0.028789805
104	0xbce0c13d	-0.027435893
105	0x3db5ac41	0.088707455
106	0xbd375d62	-0.04476679
107	0x3caf8bb7	0.021428926
108	0x3d155f85	0.036468048
109	0xbe61fb90	-0.2206862
110	0x3e07850b	0.13234346
111	0xbe3f4e52	-0.1868222
112	0x3e3fd22f	0.18732522
113	0xbddc04c0	-0.107430935
114	0x3dd71d40	0.10503626
115	0x3e2a0e94	0.16607124
116	0x3d2d1dbe	0.042264692
117	0xbd1a834a	-0.037722863
118	0xbd1db2f9	-0.03850076
119	0x3ddca186	0.10772996
120	0xbd10eb53	-0.035380673
121	0x3da28092	0.07934679
122	0xbe73e6d1	-0.23818518
123	0xbd42741c	-0.04747401
124	0xbca6e6a4	-0.02037365
125	0xbeab50b4	-0.3346001
126	0x3dccebc8	0.10005909
127	0xbe3855f2	-0.18001536
128	0xbe07500b	-0.13214128
129	0xb9b362a5	-0.00034215036
130	0xbe2345fe	-0.15944669
131	0xbe0d4504	-0.13795859
132	0xbc09654a	-0.008385966
133	0xbd0625fb	-0.032751065
134	0xbd9da154	-0.076967865
135	0x3d617686	0.055044673
136	0xbc3a9a6f	-0.011389359
137	0xbcd2bd63	-0.025725072
138	0xb9b65d44	-0.00034783233
139	0xbe62cb4f	-0.22147869
140	0xbe3de01a	-0.18542519
141	0x3e9fffc3	0.31249818
142	0xbe93bbc6	-0.28854197
143	0xbc848739	-0.01617776
144	0xbe2578ad	-0.16159315
145	0x3c56f5ba	0.013120109
146	0xbd7cfb67	-0.061763193
147	0xbde0b8df	-0.10972761
148	0xbd0729ef	-0.032998975
149	0xbcc6eaab	-0.02428182
150	0xbe6b10ad	-0.2295558
151	0x3d8aaf7f	0.067717545
152	0xbe518417	-0.20460545
153	0x3d9d52aa	0.076817825
154	0x3c212499	0.009835386
155	0xbda8a1f4	-0.08234015
156	0xbe5119b5	-0.20419963
157	0xbd5e3a7a	-0.054254986
158	0x3db696bd	0.0891547
159	0xbdb4069f	-0.087903254
160	0x3d892137	0.06695788
161	0xbda8d12d	-0.08243022
162	0xbd3d422c	-0.046205685
163	0xbe48d8ae	-0.19613907
164	0xbd06a79c	-0.03287469
165	0xbde40630	-0.11133993
166	0xbd9e702b	-0.07736238
167	0xbea8bff2	-0.32958943
168	0x3e08a5c1	0.1334448
169	0x3d4f9b0e	0.05068498
170	0xbed3795b	-0.41303524
171	0xbe40a972	-0.18814638
172	0x3cc5489c	0.024082474
173	0xbdd80021	-0.105468996
174	0xbe25f408	-0.16206372
175	0x3d35791c	0.044304952
176	0xbd989f8a	-0.07452305
177	0xbe0a29c1	-0.1349249
178	0xbdaebf3e	-0.0853257
179	0x3ad8bff6	0.0016536701
180	0x3cf40e11	0.029791864
181	0x3e31f00c	0.17376727
182	0xbdae6725	-0.08515767
183	0xbdb0295c	-0.08601639
184	0x3cca6123	0.024704522
185	0x3d403e7d	0.046934593
186	0xbd97ad2e	-0.07406078
187	0xbe3cfcd5	-0.18455823
188	0xbca74ec3	-0.020423299
189	0x3d22cec0	0.039747953
190	0xbd0f1208	-0.034929305
191	0xbd9dad4c	-0.076990694
192	0x3d9771f4	0.07394782
193	0xbe0af3e3	-0.13569598
194	0xbe652281	-0.22376443
195	0xbe000bae	-0.12504455
196	0xbc07035a	-0.008240545
197	0xbd8dbdfe	-0.06921004
198	0x3e649fc2	0.22326568
199	0xbc56780b	-0.013090144
200	0xbdf172a6	-0.117894456
201	0x3e2899cd	0.1646492
202	0xbe29d858	-0.16586435
203	0xbd1a0d58	-0.03761038
204	0xbe13c949	-0.14432253
205	0x3d979810	0.074020505
206	0xbbb44e6f	-0.005502514
207	0xbda86eb5	-0.08224241
208	0x3c82489b	0.015903762
209	0xbe8cf88e	-0.27533382
210	0xbbb5d172	-0.0055486495
211	0xbd921599	-0.07133026
212	0xbd7fd668	-0.062460333
213	0x3dc74dba	0.09731622
214	0xbcab87a0	-0.020938694
215	0xbd395440	-0.045246363
216	0x3deb16af	0.11478936
217	0xbea825c0	-0.328413
218	0xbd92fc7f	-0.07177066
219	0xbe0b9a33	-0.13633041
220	0xbddf5b17	-0.10906046
221	0x3d053863	0.032524478
222	0x3dd63362	0.10459019
223	0xbdfb2fcd	-0.12264977
224	0xbe74b1c7	-0.23895942
225	0x3d152f25	0.036421914
226	0xbe0d7fcb	-0.1381828
227	0x3e8828d7	0.26593658
228	0x3d6fab57	0.05851301
229	0x3d9c62c6	0.07636027
230	0xbbe6fbd5	-0.0070490637
231	0xbe79b465	-0.24385221
232	0xbd35d082	-0.0443883
233	0xbdc8bf6a	-0.09802134
234	0xbd8c21cb	-0.06842383
235	0xbe009507	-0.1255685
236	0x3d5f7898	0.054558367
237	0x3ca75c7b	0.02042984
238	0xbd002d93	-0.031293463
239	0xbe01e26f	-0.12684034
240	0x3e1f10a9	0.15533699
241	0xbdab1554	-0.083536774
242	0xbdeb34c7	-0.11484676
243	0x3c82d2e1	0.015969696
244	0x3d1d5e53	0.038420033
245	0xbd31cd45	-0.04340865
246	0xbde5f920	-0.112291574
247	0x3d0edbe3	0.03487767
248	0x3d68b118	0.056809515
249	0xbdc377d3	-0.09544339
250	0xbd62b0de	-0.055344455
251	0xbddd7b89	-0.10814578
252	0xbe3fff0b	-0.18749635
253	0xbc690040	-0.014221251
254	0x3cb05d03	0.021528726
255	0xbe155cc5	-0.1458617

network_body._body_endoder.seq_layers.2.bias f4 [128]
0	0x3c85e85e	0.016346153
1	0x3d962a94	0.0733234
2	0xbda828a9	-0.0821088
3	0xbd3162ee	-0.043307237
4	0xbce84443	-0.028352862
5	0xbd3f8fb5	-0.04676791
6	0x3c7c6956	0.015405973
7	0xbe241549	-0.16023745
8	0xbd27544c	-0.040851876
9	0x3c0eb7fb	0.008710857
10	0x3da44835	0.08021585
11	0xbbc82d45	-0.006108912
12	0x3ab2405c	0.0013599503
13	0x3d097e55	0.033567745
14	0x3d30347b	0.0430188
15	0xbcdf74ad	-0.027277315
16	0x3d9c8f2a	0.07644494
17	0xbdb95e46	-0.09051184
18	0xbdc977b0	-0.09837282
19	0x3a90203d	0.0010995936
20	0xbc8101f2	-0.015747998
21	0xbbaa7800	-0.0052022934
22	0x3daf2480	0.08551884
23	0x3b67d6f5	0.0035375927
24	0x3ca255e2	0.019816343
25	0xbda2b507	-0.079446845
26	0xbadbe0a0	-0.0016775317
27	0x3c4fbce8	0.012679316
28	0x3d5b50d0	0.053543866
29	0xbda08e9f	-0.07839703
30	0x3b64f95c	0.0034938669
31	0x3c3d7185	0.01156271
32	0x3d6cf2c9	0.057848725
33	0xbddf9442	-0.1091695
34	0x3db753b6	0.089515135
35	0x3da32664	0.07966307
36	0x3c347d55	0.01101621
37	0xbdbfdb51	-0.09368003
38	0x3db2808f	0.08715927
39	0xbe256f15	-0.16155656
40	0x3dfd58e7	0.123704724
41	0x3c908691	0.017642291
42	0xbc07f568	-0.0082982555
43	0xbc9aab37	-0.01888047
44	0xbdfa7245	-0.122288264
45	0x3c5967c6	0.01326937
46	0x3d0590b7	0.032608714
47	0xbbf5c8ac	-0.0075007286
48	0x3d7263c7	0.059177186
49	0xbbf5a84c	-0.007496869
50	0x3d131ed0	0.035918057
51	0x3cf12a1e	0.029439028
52	0xbc3f52ee	-0.011677487
53	0x3cbe228b	0.02320983
54	0xbcdcb9a8	-0.026943997
55	0xbcfcb3bf	-0.030847428
56	0x3c17df15	0.0092694955
57	0xbd972bbb	-0.07381388
58	0x3dc46dc6	0.0959125
59	0xbe43fed3	-0.19140176
60	0xbe1a7f00	-0.15087509
61	0x3d1a1340	0.037616014
62	0xbc4b3312	-0.012402313
63	0xbd6c6e5c	-0.057722434
64	0xbd50fe29	-0.051023636
65	0x3bedf6ca	0.0072620856
66	0xbcd35463	-0.025797075
67	0xbdb9f1c8	-0.09079319
68	0x3cdfebde	0.02733415
69	0xbd2d830b	-0.0423613
70	0x3d06c9c9	0.03290728
71	0x3b4f9034	0.0031671645
72	0x3dd4c542	0.103891864
73	0xbbd8c96f	-0.0066158096
74	0xbd1aef64	-0.037825957
75	0xbd1dba53	-0.03850777
76	0x3dbea8f8	0.09309572
77	0xbddf5222	-0.109043375
78	0x3cdec348	0.027192727
79	0x3d512c98	0.05106792
80	0x3c313840	0.010816634
81	0xbc9dd760	-0.019267738
82	0x3db0a84a	0.086258486
83	0x3d08b56b	0.03337614
84	0xbd8cfa2d	-0.06883655
85	0xbb6da7bb	-0.0036263305
86	0x3d162912	0.03666026
87	0xbdbffdbf	-0.0937457
88	0xbdaeb060	-0.085297346
89	0x3c31c809	0.010850915
90	0x3a8e210b	0.0010843588
91	0x3e0691bc	0.13141531
92	0x3cc60b67	0.024175359
93	0xbb8169b4	-0.0039493684
94	0x3d2aa564	0.041661635
95	0xbc0d998c	-0.008642565
96	0xbcddeae8	-0.027089551
97	0xbd3b3586	-0.04570534
98	0xbcc27de6	-0.023741674
99	0xbc35d13c	-0.011097249
100	0xbba91acf	-0.0051606665
101	0x3d9da560	0.076975584
102	0xbb3236ae	-0.0027193236
103	0x3c9f2832	0.019428346
104	0x3c717166	0.014736509
105	0x3d887c94	0.066643864
106	0x3d2d8ffe	0.04237365
107	0xbcbe4e28	-0.023230627
108	0x3d39cf49	0.0453637
109	0xbc2b3dc1	-0.010451735
110	0x3bdd78f7	0.006758805
111	0x3c405db6	0.011741092
112	0x3d9a77ac	0.07542357
113	0xbc3ad2bb	-0.011402781
114	0x3cb06f0f	0.021537332
115	0xbcbf08a0	-0.023319542
116	0x3cbdb1ae	0.023156013
117	0xbd6211c7	-0.055192735
118	0xb9b44a1e	-0.00034387497
119	0xbd391a6b	-0.04519121
120	0xbb090674	-0.0020908387
121	0x3c10be90	0.008834496
122	0x3ca160cc	0.019699477
123	0xbd532880	-0.051552296
124	0x3d58156c	0.052754804
125	0x3b43e049	0.0029888323
126	0x3d56f189	0.05247644
127	0xbd3b4b64	-0.045726195

action_model._continuous_distribution.log_sigma f4 [1, 2]
0	0xbed25bba	-0.41085607
1	0xbef5245a	-0.47879297

action_model._continuous_distribution.mu.weight f4 [2, 128]
0	0xbdc2c4fa	-0.095102265
1	0x3d2adbc5	0.041713495
2	0xbd503e8f	-0.05084091
3	0xbd12260e	-0.035680823
4	0xbc6336c7	-0.01386804
5	0xbce606af	-0.028079359
6	0x3d20f9b9	0.039300654
7	0x3d8e17a9	0.069381066
8	0xbb9c0bf8	-0.004762169
9	0x3cc4632e	0.023973074
10	0x3de19d63	0.11016347
11	0xbda4e49a	-0.08051415
12	0xbe41966b	-0.18905036
13	0xbc8c74a6	-0.017145466
14	0x3e2b6a59	0.16739787
15	0xbd53d03d	-0.051712263
16	0xbdbbf11d	-0.09176848
17	0x3cc791af	0.02436146
18	0x3c51cbc8	0.012804933
19	0xbdd394bd	-0.10331104
20	0x3cb26889	0.021778362
21	0x3d7b66c3	0.061377298
22	0xbcef84b8	-0.02923809
23	0x3da4495f	0.08021807
24	0x3d6e4ad3	0.058176827
25	0xbcaeabb9	-0.021322118
26	0xbd982a56	-0.0742995
27	0xbdd70069	-0.10498125
28	0xbe2630b8	-0.16229522
29	0x3d9b1af5	0.07573501
30	0xbda71dd3	-0.081599854
31	0x3ab23eed	0.0013599076
32	0xbe645d2c	-0.22301167
33	0xbd1eb534	-0.038747028
34	0xbe4d147f	-0.2002735
35	0xbe01c2de	-0.12671992
36	0xbc4d6759	-0.012536847
37	0x3d3e12d3	0.04640467
38	0xbe3cd51e	-0.18440673
39	0x3d8389ca	0.064227656
40	0xbd9e6237	-0.07733577
41	0xbd9f6203	-0.07782366
42	0xbd165c53	-0.03670914
43	0x3d6ac4b4	0.057316497
44	0x3c967416	0.018365901
45	0xbd412878	-0.047157735
46	0xbdf775b0	-0.12082994
47	0xbd731629	-0.059347305
48	0xbabd9f8f	-0.0014467108
49	0xbdbca9ea	-0.09212096
50	0x3dcad9a4	0.09904793
51	0xbe1c34b8	-0.15254486
52	0xbd7414a4	-0.059589997
53	0xbc4fb91f	-0.012678414
54	0x3c6f9d6d	0.014624936
55	0xbd3614e1	-0.044453505
56	0xbaa01cf0	-0.0012215655
57	0x3d874efa	0.066068605
58	0x3d41a5e7	0.047277357
59	0x3d590db4	0.052991584
60	0x3d8124bb	0.06305834
61	0xbd58d1e0	-0.052934527
62	0xbd994305	-0.07483486
63	0x3ca4ee84	0.020133264
64	0x3c879410	0.016550094
65	0x3d6cf0e9	0.057846937
66	0x3dddde33	0.10833397
67	0xbda9b671	-0.08286751
68	0x3d676c58	0.05649981
69	0xbd60a98b	-0.05484919
70	0x3df2cc0e	0.118553266
71	0x3ddb39ee	0.107044086
72	0xbd04b7c3	-0.03240181
73	0x3db3a86f	0.087723605
74	0xbdcc3e67	-0.0997284
75	0xbcd0b793	-0.02547816
76	0xbd8875a8	-0.06663066
77	0x38c73bf8	9.5002295e-05
78	0xbe00b905	-0.1257058
79	0xbd10387a	-0.03521011
80	0xbc461cb2	-0.012091802
81	0x3ca1421a	0.01968484
82	0x3d8c2b23	0.06844165
83	0x3dacdbc6	0.08440356
84	0xbd4ea7b8	-0.050452918
85	0xbc21912f	-0.009861275
86	0x3d8b437d	0.06799982
87	0x3def3481	0.11679936
88	0x3d8beadc	0.06831905
89	0x3d9202ae	0.07129417
90	0x3d220b82	0.039561756
91	0xbe2f229b	-0.17103045
92	0x3d1215f4	0.035665467
93	0xbd1a7369	-0.03770772
94	0xbd9a19c0	-0.07524443
95	0x3d2dff50	0.042479813
96	0x3dc80802	0.09767152
97	0x3de5078b	0.11183079
98	0x3bae88fe	0.0053263893
99	0xbcd58ff8	-0.026069626
100	0xbcc62d89	-0.024191635
101	0xbe11961e	-0.14217421
102	0x3c49bc6e	0.012312992
103	0x3d0b85cf	0.034063157
104	0x3cd36b55	0.025808016
105	0x3d51512b	0.0511028
106	0xbda15442	-0.07877399
107	0xbbdb5c77	-0.0066943723
108	0xbc8f6f1f	-0.017509041
109	0xbcd42e59	-0.025901007
110	0x3d8992d1	0.06717456
111	0xbe097e6a	-0.1342713
112	0x3d5fa0f8	0.05459687
113	0x3df7170c	0.12064943
114	0x3dccf4b3	0.1000761
115	0x3daad729	0.0834182
116	0x3c5368d0	0.012903407
117	0x3ba7fe9e	0.0051267883
118	0x3e34275a	0.17593136
119	0x3df1d87c	0.11808869
120	0x3d77b876	0.06047865
121	0x3e0a3970	0.13498473
122	0x3dc72f01	0.09725762
123	0xbe1000ce	-0.14062807
124	0x3d2a0a45	0.0415137
125	0xbc674d76	-0.014117589
126	0xbd3f558c	-0.046712443
127	0x3dbc16d5	0.09184042
128	0x3d0e515c	0.03474556
129	0xbdf42f94	-0.11923137
130	0x3d6deccd	0.05808716
131	0x3d3aabda	0.045574047
132	0xbdc95fd0	-0.09832728
133	0xbcd83a1c	-0.026394896
134	0x3db9b091	0.090668805
135	0x3e214693	0.15749578
136	0x3d9e715b	0.077364646
137	0x3e023f83	0.1271954
138	0xbdc4f5be	-0.09617184
139	0x3d83a7b8	0.06428474
140	0x3da0957b	0.07841011
141	0xbe08f307	-0.13373958
142	0x3d9aa126	0.07550268
143	0x3dcb2173	0.09918489
144	0xbcf819fa	-0.030285824
145	0x3b6a3efb	0.0035743106
146	0xbe1f4f67	-0.15557633
147	0x3e6d8d43	0.23198418
148	0xbd338a0e	-0.04383283
149	0xbd6e2064	-0.05813636
150	0xbddd4693	-0.108044766
151	0x3cd3e1fe	0.025864597
152	0xbd059ae0	-0.032618403
153	0x3e051237	0.1299523
154	0xbd5746da	-0.052557804
155	0xbd27a537	-0.040929046
156	0xbe1b5689	-0.1516973
157	0xbdbb8656	-0.09156482
158	0xbd4930e0	-0.049118876
159	0x3cc58f55	0.024116198
160	0xbd4a1a00	-0.0493412
161	0xbbce293b	-0.006291536
162	0xbb602a35	-0.0034204845
163	0xbd84e012	-0.064880505
164	0xbdc631c8	-0.09677464
165	0x3c89541b	0.016763737
166	0xbb24eb13	-0.002516453
167	0x3c78ac84	0.01517785
168	0xbddbc792	-0.107314244
169	0x3cb7c203	0.02243138
170	0xbb938241	-0.0045016115
171	0x3cc638dd	0.024197036
172	0xbcd33d41	-0.025786044
173	0xbdf456be	-0.11930607
174	0xbdd8ad2d	-0.10579906
175	0x3d0af4ed	0.033924986
176	0xbe39080a	-0.18069473
177	0x3de1e560	0.11030078
178	0xbd6c6b9d	-0.057719816
179	0x3c96b933	0.018398857
180	0x3df03a97	0.11729925
181	0x3daca9a5	0.084307946
182	0x3c9b197a	0.018933047
183	0x3d97fc58	0.074211776
184	0xbdfc3a20	-0.12315774
185	0x3d9f604e	0.077820405
186	0xbe1731d0	-0.14765096
187	0x3d7a4981	0.061105255
188	0x3d032717	0.0320197
189	0xbdb9e48a	-0.090767935
190	0xbd5b0d1e	-0.053479306
191	0xbd87e4a7	-0.06635409
192	0x3dc40fbb	0.09573313
193	0x3d956408	0.0729447
194	0x3dd54bae	0.104148254
195	0x3d511ffa	0.051055886
196	0xbd2c6348	-0.04208687
197	0xbc265cf5	-0.010153999
198	0x3c2c9fda	0.010536158
199	0xbd5dd26d	-0.054155756
200	0xbe4bd4b5	-0.1990536
201	0x3d9b58b2	0.07585277
202	0xbda7fc61	-0.08202434
203	0xbd7f49df	-0.06232631
204	0xbe2e7661	-0.17037345
205	0x3dbd4645	0.092419185
206	0x3dd11fbc	0.10211131
207	0x3e14ecde	0.14543483
208	0xbd8ce427	-0.06879454
209	0x3d958a56	0.07301776
210	0xbe2fe029	-0.17175354
211	0xbe08922a	-0.13337007
212	0x3d9c2ec4	0.07626107
213	0x3d6154ee	0.055012636
214	0x3ca845cf	0.0205411
215	0x3a6f6122	0.00091316004
216	0xbc530056	-0.012878498
217	0x3d851790	0.06498635
218	0x3d6f361d	0.058401216
219	0x3d8fbf7d	0.07018945
220	0xbe0cef44	-0.13763148
221	0x3df116d5	0.11771933
222	0xbe33a65c	-0.1754393
223	0x3e9283ff	0.2861633
224	0x3d23580e	0.039878897
225	0x3cc60a6c	0.024174891
226	0xbcc7d4f4	-0.024393536
227	0xbdc017a1	-0.09379507
228	0x3d462dad	0.048383404
229	0x3bc63dc1	0.006049842
230	0xba9aebb2	-0.001181951
231	0x3d6cdace	0.057825856
232	0x3c897d2f	0.016783325
233	0xbdd76b71	-0.1051854
234	0x3d86aa14	0.065754086
235	0x3d36c239	0.04461882
236	0xbdc26d67	-0.09493523
237	0xbd7edcdd	-0.06222235
238	0xbd270100	-0.040772438
239	0x3bbe35ab	0.0058047376
240	0xbde741ac	-0.11291823
241	0xbc82b735	-0.0159565
242	0x3e0de531	0.13856961
243	0x3d1c6676	0.038183652
244	0x3d451d39	0.048123572
245	0x3dd64478	0.10462278
246	0xbd7703e5	-0.06030645
247	0x3cb62abc	0.022237174
248	0xbc068b9b	-0.0082119955
249	0xbb5e2208	-0.0033894796
250	0x3c940af1	0.018071624
251	0xbc54ee24	-0.01299623
252	0xbd93dcac	-0.07219824
253	0xbb4ce2c9	-0.0031263104
254	0x3d939620	0.072063684
255	0x3da6711f	0.08127045

action_model._continuous_distribution.mu.bias f4 [2]
0	0xbc5c0109	-0.013427981
1	0xba7b2dcf	-0.0009581716

exp_avg f4 [128, 9]
0	0x3ab17140	0.001353778
1	0x3ab1257c	0.00135152
2	0xb9a54379	-0.00031521523
3	0xb8e6d2b7	-0.00011006503
4	0xbad25bdd	-0.0016049106
5	0x39066002	0.00012815002
6	0x3b79c8b9	0.0038114025
7	0x3b24296a	0.0025049099
8	0x3b555234	0.0032550218
9	0xba1d21b6	-0.0005994098
10	0xb96fe1ff	-0.00022877006
11	0x3948f0a1	0.00019163128
12	0x381ee14d	3.7879963e-05
13	0x3a3e9399	0.00072699186
14	0x39885053	0.00025999788
15	0x394f9fb8	0.00019800558
16	0x3a9bcf71	0.0011887384
17	0x39b90c95	0.00035295324
18	0xba38db50	-0.0007051723
19	0x394e6c93	0.00019686138
20	0x39c638bf	0.00037807782
21	0x39ffd4b5	0.0004879587
22	0xba26de54	-0.0006365527
23	0xba94c633	-0.0011350572
24	0x388da781	6.754604e-05
25	0x39d5160a	0.00040642946
26	0xb8a336d0	-7.782655e-05
27	0xb8998520	-7.320405e-05
28	0xb89b76ff	-7.413141e-05
29	0xb9b73a4f	-0.00034947923
30	0xba730d58	-0.0009271703
31	0xb8c50e57	-9.396363e-05
32	0x386bddda	5.623498e-05
33	0x38ee0824	0.00011350241
34	0x39a8d48a	0.0003220181
35	0xb9ba7ddd	-0.0003557046
36	0x389ea05a	7.563895e-05
37	0xb9822859	-0.00024825594
38	0x390b5937	0.00013289308
39	0x3998f8cf	0.00029177076
40	0xb7ca5462	-2.411957e-05
41	0xb9ed841a	-0.00045302586
42	0xbb08dc6d	-0.0020883337
43	0xba0b527b	-0.000531472
44	0xba2a66ab	-0.0006500284
45	0xb971ff90	-0.00023078755
46	0x3a2913e2	0.0006449801
47	0xb8a86e1e	-8.031375e-05
48	0xba4b614a	-0.00077583326
49	0xb9c00b27	-0.00036629403
50	0x3a100ecc	0.0005495369
51	0x3ae9e472	0.0017844571
52	0x3a8b7c34	0.0010641874
53	0x3afd193d	0.001930989
54	0xb9f498a6	-0.0004665304
55	0x3a19d18f	0.00058677135
56	0xb8f1280f	-0.00011499237
57	0x39b5d4ec	0.0003468165
58	0xb92c1fd1	-0.00016415051
59	0xb6b674a8	-5.4376032e-06
60	0x3a9d2a4c	0.0011990755
61	0x39ed6236	0.00045277335
62	0x3adb798c	0.0016744598
63	0x38dc0ed2	0.00010493178
64	0x3998473a	0.00029044767
65	0x398ae744	0.00026493717
66	0xb8b262e1	-8.506119e-05
67	0x395610cb	0.00020414886
68	0x38c4af33	9.378642e-05
69	0xba01d3eb	-0.0004952538
70	0x3b304942	0.0026899134
71	0xb9adff29	-0.0003318724
72	0xb8fb77c7	-0.00011990923
73	0xb98071d3	-0.00024498868
74	0x38b3254b	8.5423315e-05
75	0xb929eb2a	-0.00016204701
76	0x37a6e2d3	1.9894365e-05
77	0xba0277db	-0.00049769663
78	0xba934131	-0.0011234639
79	0x3984ad03	0.00025305906
80	0xb9e6a343	-0.00043990658
81	0x3a8f03e9	0.00109112
82	0xba928930	-0.0011179801
83	0x3a3987a0	0.00070773996
84	0x38907ba1	6.889483e-05
85	0x3aeb2383	0.001793966
86	0xba939732	-0.001126027
87	0xbc0de301	-0.008660079
88	0xbab68cef	-0.00139275
89	0xbbd25fa9	-0.006420095
90	0xba28e094	-0.0006442156
91	0xba46d29e	-0.0007584485
92	0xb5eb86af	-1.7548062e-06
93	0xb9e3dc5a	-0.0004346099
94	0x39ac16f6	0.00032823504
95	0x39442555	0.00018705924
96	0xbab38581	-0.0013696403
97	0xbaaab481	-0.0013023765
98	0xba8dc8b5	-0.0010817262
99	0xb9014bce	-0.00012330638
100	0xba02a271	-0.0004983312
101	0xb777a82b	-1.4761502e-05
102	0xba809b62	-0.0009811933
103	0x3a14f559	0.00056823116
104	0x392bb1f8	0.0001637413
105	0xbb11f73a	-0.0022272603
106	0xba5696b0	-0.00081859063
107	0xbb554432	-0.0032541868
108	0xba0e989a	-0.00054396095
109	0x39cd8a46	0.0003920367
110	0x380e2f48	3.3899472e-05
111	0xb92e4b89	-0.00016622072
112	0xb99dfd12	-0.00030133926
113	0x38995df5	7.3131094e-05
114	0x3ad78543	0.0016442913
115	0xba0a11ee	-0.0005266954
116	0x3b0bb307	0.0021316425
117	0xb918f63f	-0.00014587583
118	0xb984144f	-0.00025192133
119	0x3803c75c	3.14185e-05
120	0x39d22439	0.0004008131
121	0x39234af4	0.00015572814
122	0xb9f4a098	-0.00046658958
123	0x39048613	0.00012638448
124	0x3a72b261	0.0009258148
125	0x3a0003e7	0.0004883394
126	0xb9b3c062	-0.00034284877
127	0x3a599a4f	0.0008300887
128	0xb97ca514	-0.00024094089
129	0x3a0d3e47	0.0005388003
130	0xb9f234a0	-0.00046197046
131	0xb7f7aed4	-2.9526105e-05
132	0x3b0cc251	0.0021478126
133	0x3a1b2487	0.0005918224
134	0x3b6dd015	0.0036287357
135	0x3a8793a6	0.0010343685
136	0x3a808098	0.0009803949
137	0xba4868f6	-0.0007645035
138	0xba05de07	-0.0005106632
139	0xb9e23272	-0.00043143664
140	0x390da04e	0.00013506526
141	0x3aa3763c	0.001247115
142	0x3ab2b16f	0.0013633202
143	0x3b1acff1	0.0023622478
144	0x39d3947a	0.0004035568
145	0x393b8014	0.00017881423
146	0x37f4085f	2.9090965e-05
147	0x38fefd5c	0.00012158856
148	0x3857dd8a	5.146632e-05
149	0x38ee1a26	0.00011353595
150	0x3a62050a	0.00086219667
151	0x39fd964c	0.000483679
152	0xb9bc1004	-0.00035870087
153	0x3a68eac8	0.0008885083
154	0x3a474c43	0.00076026114
155	0xb9595d6f	-0.0002072954
156	0xb9e6017d	-0.00043870127
157	0x38ad63a0	8.2678394e-05
158	0x3a3e8ec4	0.00072691985
159	0x3a869d97	0.0010270354
160	0x3a8b4072	0.0010624065
161	0x3af08c24	0.0018352312
162	0xb9325e68	-0.00017010572
163	0xb948940f	-0.00019128642
164	0xb991fb74	-0.00027843902
165	0xba9094d7	-0.0011030686
166	0x39974406	0.00028851646
167	0x39b7ddfc	0.0003506987
168	0xba86d966	-0.0010288178
169	0x39f1a3c3	0.00046089114
170	0xba9882af	-0.0011635626
171	0x39d9ea8e	0.00041564222
172	0x398b0756	0.00026517612
173	0xb84a54c8	-4.823951e-05
174	0xb8bec81b	-9.0971786e-05
175	0xb969f413	-0.00022311536
176	0x3867d3e1	5.527202e-05
177	0x38cb9f59	9.709475e-05
178	0x39d11412	0.0003987854
179	0x3a66c93f	0.0008803792
180	0xb9fae2f1	-0.000478528
181	0xb9b01475	-0.00033584578
182	0x39de7d0c	0.00042436307
183	0x38da9592	0.0001042291
184	0x3a7b1cc6	0.0009579178
185	0x39c91608	0.00038354122
186	0x39d5d5c5	0.00040785797
187	0xbb8b4e05	-0.004251244
188	0xbab270dc	-0.0013613957
189	0x39c559ca	0.00037641666
190	0x3a409cf8	0.0007347609
191	0xb9b98dd0	-0.00035391608
192	0xb91c02bd	-0.0001487834
193	0xb98d9747	-0.00027006326
194	0x399287c5	0.00027948446
195	0x3acc6262	0.0015593285
196	0x3aa990b9	0.0012936807
197	0x3b469dee	0.0030306536
198	0xb746c87d	-1.18483995e-05
199	0xba334e68	-0.00068399915
200	0xb9061948	-0.00012788654
201	0xba29bce0	-0.0006474983
202	0x39ba2e9a	0.00035511405
203	0x3986c504	0.0002570526
204	0xb90e9501	-0.00013597684
205	0xb9536a07	-0.00020162026
206	0xbb326c68	-0.002722526
207	0x39a1433b	0.00030758404
208	0x3ac04c44	0.0014671166
209	0xba2453e5	-0.0006268605
210	0xba7e599d	-0.00097026845
211	0xba7e4982	-0.00097002846
212	0x39ad2d2f	0.00033030796
213	0x3a3fdadf	0.0007318686
214	0x3aa05209	0.001223148
215	0x3b16ca9c	0.0023008948
216	0xba1a3dae	-0.0005883825
217	0x3a58bbd2	0.00082677335
218	0xb9aff721	-0.00033562726
219	0xb88e8e05	-6.797541e-05
220	0xb9fd8bf8	-0.00048360205
221	0x39665056	0.00021964437
222	0x3a12d5c3	0.0005601311
223	0x370a1c66	8.232053e-06
224	0x3b708bec	0.0036704494
225	0x396b34a9	0.00022430964
226	0xba846162	-0.0010099823
227	0xb907b3f3	-0.0001294164
228	0xbab45196	-0.0013757225
229	0x39aa640b	0.00032499465
230	0xb924c6e6	-0.00015714354
231	0xbb172c4a	-0.002306717
232	0xb7adc971	-2.071701e-05
233	0xbb65bd79	-0.0035055561
234	0xba15db81	-0.00057166076
235	0x3a76dd8a	0.0009417167
236	0xb952d224	-0.00020105444
237	0x38098c4c	3.2794007e-05
238	0xb717c9a1	-9.047247e-06
239	0x395605fd	0.00020410861
240	0x3b2a4019	0.0025978147
241	0x3af0ee32	0.0018381535
242	0x3b8c4ae6	0.0042813895
243	0x3a286031	0.0006423025
244	0x3907e2d4	0.00012959103
245	0xb999c13e	-0.0002932641
246	0xb965adeb	-0.00021903931
247	0x390f602b	0.00013673368
248	0x3a279eec	0.00063942256
249	0x3acf536b	0.0015817707
250	0x39b4c768	0.00034480845
251	0xb8899e03	-6.562101e-05
252	0xb93c88da	-0.00017980058
253	0x3a567523	0.0008180907
254	0x37639288	1.3564371e-05
255	0x399ac954	0.0002952317

exp_avg_sq f4 [128, 9]
0	0x36d40bbe	6.3194593e-06
1	0x37291f81	1.008052e-05
2	0x36b40bdf	5.3658e-06
3	0x36c54b92	5.879855e-06
4	0x38149224	3.5422054e-05
5	0x370c589d	8.365282e-06
6	0x397aa71d	0.00023904112
7	0x3957db74	0.0002058575
8	0x3898ce9b	7.286408e-05
9	0x35b93c15	1.380106e-06
10	0x3593dfc2	1.1017476e-06
11	0x35291acd	6.2996406e-07
12	0x35e5a27c	1.7109119e-06
13	0x3600aee8	1.9175295e-06
14	0x362161f3	2.4047883e-06
15	0x3682e4ae	3.9009237e-06
16	0x3798a4c4	1.8196537e-05
17	0x36600b6c	3.338525e-06
18	0x371959c7	9.140414e-06
19	0x373136b4	1.0562759e-05
20	0x369f5828	4.748832e-06
21	0x37006809	7.653617e-06
22	0x37dc1e6b	2.6240208e-05
23	0x371372dc	8.788626e-06
24	0x37c758d5	2.3764014e-05
25	0x37293971	1.0086559e-05
26	0x3802256e	3.1029274e-05
27	0x35890b71	1.0210625e-06
28	0x35646d4b	8.509566e-07
29	0x351d7e3e	5.8670764e-07
30	0x36592b1c	3.2360613e-06
31	0x350f9555	5.348896e-07
32	0x35e1afaa	1.6814931e-06
33	0x36f1aaf1	7.20226e-06
34	0x352d62f8	6.459154e-07
35	0x35c0c7a8	1.4363222e-06
36	0x3626427c	2.4774627e-06
37	0x366e9933	3.5553937e-06
38	0x35fefa7b	1.8997374e-06
39	0x36611905	3.3542176e-06
40	0x368d05e9	4.2028155e-06
41	0x3692115d	4.3531604e-06
42	0x385b2908	5.2251882e-05
43	0x37a48e20	1.9616506e-05
44	0x3823ce90	3.9054605e-05
45	0x3625dddb	2.4716053e-06
46	0x3634a4aa	2.6917937e-06
47	0x35720d0b	9.0171005e-07
48	0x363a2191	2.7735698e-06
49	0x364ce391	3.053083e-06
50	0x361ac08a	2.305986e-06
51	0x3717778b	9.028135e-06
52	0x3737f8cc	1.09655775e-05
53	0x3737cd8c	1.0955508e-05
54	0x35d9ac77	1.6217954e-06
55	0x363116c4	2.6388307e-06
56	0x35951600	1.1107768e-06
57	0x35bf1cda	1.4239006e-06
58	0x368fdf8f	4.2877577e-06
59	0x35cafdd7	1.512405e-06
60	0x385878dd	5.1610976e-05
61	0x35f44d9a	1.8202002e-06
62	0x3822f995	3.885625e-05
63	0x35e470ee	1.7020191e-06
64	0x361796df	2.2588572e-06
65	0x35abe29f	1.2806448e-06
66	0x360bf1e6	2.0853417e-06
67	0x365be746	3.2768162e-06
68	0x35f7333b	1.8417844e-06
69	0x37f47368	2.9140807e-05
70	0x382e3b44	4.1540028e-05
71	0x368f01f5	4.26196e-06
72	0x361e135d	2.3555106e-06
73	0x363b7a73	2.7936446e-06
74	0x360a8897	2.0643108e-06
75	0x3694831b	4.4260064e-06
76	0x36348438	2.6899052e-06
77	0x36c4a059	5.859922e-06
78	0x37215c7f	9.617884e-06
79	0x370c3c9f	8.358765e-06
80	0x3757ff05	1.2874375e-05
81	0x37215531	9.616183e-06
82	0x377b0405	1.4961702e-05
83	0x370b84bc	8.31595e-06
84	0x376c5d42	1.4088409e-05
85	0x37953b3c	1.7789767e-05
86	0x37979692	1.8070717e-05
87	0x39b6e845	0.000348868
88	0x398e262a	0.00027112785
89	0x3985b47b	0.00025502205
90	0x36a26bb4	4.8405145e-06
91	0x36e9fdb4	6.973476e-06
92	0x366a54fc	3.4918185e-06
93	0x36b140f3	5.282572e-06
94	0x36dcb243	6.5772633e-06
95	0x36a960d0	5.047863e-06
96	0x3927e2e7	0.00016010889
97	0x38eaad3b	0.00011190256
98	0x3896ddbd	7.193859e-05
99	0x366f8940	3.5693665e-06
100	0x368010a8	3.8166363e-06
101	0x360da9b0	2.1109408e-06
102	0x3690303b	4.297149e-06
103	0x3688de09	4.078964e-06
104	0x369c2d84	4.654461e-06
105	0x38b028c5	8.399928e-05
106	0x3835ff6d	4.3391647e-05
107	0x38da1c8e	0.00010400369
108	0x369103bd	4.321772e-06
109	0x36a46545	4.89937e-06
110	0x35edf155	1.7728113e-06
111	0x368adcd8	4.13843e-06
112	0x360e1a2b	2.117488e-06
113	0x362c298b	2.5654178e-06
114	0x390dac07	0.00013510893
115	0x38ba678c	8.888458e-05
116	0x385fc9a6	5.3355143e-05
117	0x361aff6c	2.3096463e-06
118	0x3665b894	3.4231098e-06
119	0x363c0dfa	2.8022318e-06
120	0x366b4b34	3.5061503e-06
121	0x361cc2cd	2.33592e-06
122	0x36b3a123	5.3533745e-06
123	0x35fd4f63	1.8873073e-06
124	0x369e62ce	4.7202693e-06
125	0x36e49d1e	6.8132204e-06
126	0x36313361	2.6404962e-06
127	0x36756c4d	3.6570884e-06
128	0x35fb0b9c	1.8704336e-06
129	0x36239377	2.4374729e-06
130	0x368eab06	4.2518395e-06
131	0x364685fe	2.9582293e-06
132	0x38b5e486	8.6733184e-05
133	0x37b9d2d6	2.2151897e-05
134	0x3866c85c	5.5022872e-05
135	0x36ea15d7	6.976286e-06
136	0x3736a8d1	1.0887351e-05
137	0x36bbd2e3	5.5975847e-06
138	0x36ae65b6	5.197445e-06
139	0x380d2ae1	3.3656954e-05
140	0x36f2488e	7.2206085e-06
141	0x3929f99e	0.00016210086
142	0x38b6bc73	8.713538e-05
143	0x38c745cc	9.50206e-05
144	0x351b68f6	5.789474e-07
145	0x352369a1	6.087594e-07
146	0x34ed5e7d	4.421344e-07
147	0x35dc189e	1.6398442e-06
148	0x351387d5	5.495943e-07
149	0x3608fd71	2.0413102e-06
150	0x3776b8bf	1.4705757e-05
151	0x371d311d	9.369364e-06
152	0x34bfb6f4	3.5709638e-07
153	0x36985093	4.539333e-06
154	0x36ffe78f	7.626549e-06
155	0x36a24ba8	4.836784e-06
156	0x36b6d27a	5.4485254e-06
157	0x37880148	1.621306e-05
158	0x371999ae	9.155292e-06
159	0x3917e1bc	0.00014484575
160	0x38c74438	9.501766e-05
161	0x38e5d7c4	0.000109597604
162	0x36047ae2	1.974106e-06
163	0x35d25aee	1.5672683e-06
164	0x358fc6b6	1.0712163e-06
165	0x364b599f	3.0301524e-06
166	0x3690671e	4.303539e-06
167	0x364b0f30	3.0258198e-06
168	0x37de1ba0	2.6477326e-05
169	0x3815a8f2	3.568171e-05
170	0x3800e3a4	3.0729585e-05
171	0x350dd0df	5.283054e-07
172	0x35252085	6.151461e-07
173	0x34ca5fcf	3.7695142e-07
174	0x354fb683	7.73791e-07
175	0x35400e72	7.1546594e-07
176	0x35959f1b	1.1147671e-06
177	0x36515e67	3.1198376e-06
178	0x3764760d	1.3617345e-05
179	0x36eb2919	7.00833e-06
180	0x36eec288	7.115599e-06
181	0x3740cfc5	1.1492467e-05
182	0x370214ad	7.753418e-06
183	0x371ba3eb	9.276885e-06
184	0x36deadea	6.636362e-06
185	0x36baa8ee	5.562898e-06
186	0x38ba189b	8.873754e-05
187	0x38dcb009	0.000105232066
188	0x38b34991	8.549088e-05
189	0x3684401c	3.94137e-06
190	0x36b8922b	5.5006435e-06
191	0x3625de34	2.4716255e-06
192	0x363437cc	2.6854568e-06
193	0x36cbddc9	6.0756906e-06
194	0x3664fc99	3.4121679e-06
195	0x3833f0d1	4.2901203e-05
196	0x38a14280	7.689465e-05
197	0x384b782d	4.8510894e-05
198	0x365c1e6e	3.2800267e-06
199	0x36984bde	4.538785e-06
200	0x363e7cea	2.8384916e-06
201	0x368387eb	3.919927e-06
202	0x37344873	1.07457045e-05
203	0x36998bfc	4.5760517e-06
204	0x3822978f	3.876496e-05
205	0x377f4e2c	1.5217385e-05
206	0x387762e7	5.89815e-05
207	0x378cfa9a	1.6805996e-05
208	0x37a646b5	1.9821668e-05
209	0x36dc9a09	6.574443e-06
210	0x36a30355	4.8581664e-06
211	0x379f0b37	1.89595e-05
212	0x3684ce22	3.9579036e-06
213	0x375b31a4	1.3064975e-05
214	0x37987712	1.8175258e-05
215	0x37baab8c	2.225281e-05
216	0x362cfaa8	2.5775898e-06
217	0x365f162c	3.3242495e-06
218	0x360f11ff	2.1319136e-06
219	0x3674ade8	3.646006e-06
220	0x365c51de	3.2830208e-06
221	0x367ec2a8	3.7962254e-06
222	0x3807b16d	3.235175e-05
223	0x364b3ccd	3.0284748e-06
224	0x3831002e	4.2200256e-05
225	0x36905d2b	4.3023806e-06
226	0x369f3a22	4.745337e-06
227	0x362e9b94	2.601858e-06
228	0x36b5bac9	5.415965e-06
229	0x363f61b1	2.8518082e-06
230	0x36920e12	4.352777e-06
231	0x38c3be5c	9.333782e-05
232	0x382ef58b	4.1713512e-05
233	0x388961ca	6.550884e-05
234	0x365a0da1	3.2492464e-06
235	0x36906b04	4.3039927e-06
236	0x360c0b6e	2.0868279e-06
237	0x3666a1b6	3.43668e-06
238	0x367dc867	3.7816587e-06
239	0x365c393f	3.2815876e-06
240	0x38d7459c	0.00010264965
241	0x386e07c3	5.675085e-05
242	0x38980a8b	7.2498886e-05
243	0x36552b59	3.1764705e-06
244	0x36968111	4.4853737e-06
245	0x3622160d	2.4152716e-06
246	0x3672be18	3.617146e-06
247	0x371d2c64	9.368265e-06
248	0x369a3624	4.5958604e-06
249	0x3903a6a5	0.00012555213
250	0x38041376	3.1489377e-05
251	0x379464d8	1.7689934e-05
252	0x36350dad	2.6979062e-06
253	0x367f4629	3.80388e-06
254	0x3623be16	2.4399537e-06
255	0x368b78f9	4.156606e-06

exp_avg f4 [128]
0	0x3b5c3a01	0.003360391
1	0x39c0c74e	0.00036769587
2	0xba237a67	-0.0006236196
3	0xb9e49101	-0.00043595585
4	0x38b39221	8.562604e-05
5	0x3a89d8d3	0.0010516889
6	0x3a5e79e0	0.0008486789
7	0x3aaef8f7	0.0013349344
8	0xb8f036ab	-0.000114542745
9	0xbae9a6a1	-0.0017826149
10	0xbb103d6f	-0.0022009274
11	0xbaecb3ea	-0.001805899
12	0xba3d157d	-0.000721298
13	0x3a390868	0.00070584426
14	0x3b142ee6	0.0022610961
15	0x3b4e1bb6	0.0031449622
16	0x3a2665e5	0.0006347581
17	0x3b2bc502	0.0026209955
18	0xb997d155	-0.0002895693
19	0x3a6135bf	0.00085910776
20	0xbb5b04e1	-0.0033419656
21	0x3b07f16f	0.002074327
22	0xbb0481b6	-0.0020218915
23	0x3b00ab26	0.0019633262
24	0x3b111ad1	0.0022141228
25	0xbafab723	-0.0019128065
26	0x3b3e4401	0.0029032233
27	0x3abd9d62	0.0014466459
28	0x3b3f8aba	0.0029226975
29	0xba951393	-0.0011373631
30	0x3ac4bece	0.0015010478
31	0x3a85d981	0.0010211916
32	0x381e1af2	3.769523e-05
33	0xba5db1df	-0.0008456986
34	0x3a2baed2	0.00065491826
35	0x38052477	3.174363e-05
36	0xb53ccbfd	-7.03323e-07
37	0xb7249e1a	-9.811973e-06
38	0xb80fe2ca	-3.430507e-05
39	0xba425bc4	-0.0007414187
40	0xbb357846	-0.0027690097
41	0xbb140554	-0.0022586184
42	0xb9846b42	-0.00025256915
43	0xb8601d99	-5.3433327e-05
44	0xba19f5a1	-0.00058730884
45	0x3a1f18eb	0.0006069082
46	0xb919c89c	-0.0001466595
47	0x379d55c8	1.8755803e-05
48	0x39797ea7	0.00023793672
49	0x3a6b8563	0.0008984415
50	0x3a909c64	0.0011032936
51	0xbac3bcf2	-0.001493363
52	0x3b3a0a39	0.002838744
53	0x3940d65e	0.00018390405
54	0x39c624e6	0.00037792994
55	0x3a32aec0	0.0006816201
56	0xba3ccce2	-0.0007202161
57	0x3a097779	0.0005243938
58	0xbab61bef	-0.0013893823
59	0xba63f92b	-0.0008696492
60	0x39257e17	0.00015782598
61	0x3aa384f6	0.0012475539
62	0xb9bb1342	-0.00035681768
63	0xba4a6108	-0.0007720147
64	0xba1411f1	-0.00056484254
65	0xba4a4c89	-0.0007717093
66	0x38d00f1b	9.9210265e-05
67	0x399df260	0.00030125957
68	0xba9eb882	-0.0012109431
69	0xba3e4601	-0.0007258356
70	0xba8d0d66	-0.0010761439
71	0x38c89dd3	9.56614e-05
72	0xbaa7bd5e	-0.0012797525
73	0xbadef8f0	-0.0017011445
74	0x3b6fbaf5	0.003657994
75	0xba33e04b	-0.00068617304
76	0xba227f3a	-0.0006198768
77	0x3a3a9229	0.00071171165
78	0xb9edf152	-0.0004538396
79	0x3a75d57b	0.00093778194
80	0x39f361c6	0.0004642142
81	0xba91116d	-0.0011067815
82	0xb993e858	-0.00028211134
83	0x3a515f98	0.0007986962
84	0x38c4d653	9.385929e-05
85	0xba02b57a	-0.00049861486
86	0x3af14bb4	0.0018409402
87	0x3a49dc92	0.0007700409
88	0x39ff764c	0.00048725528
89	0x3ae86cbe	0.0017732603
90	0xb9d77eeb	-0.00041102557
91	0xb762b57b	-1.3512904e-05
92	0x3abb5d9b	0.0014294864
93	0xba4da842	-0.0007845202
94	0xba057f55	-0.00050925213
95	0x3b22e9e3	0.0024858646
96	0x3b3013a1	0.0026867168
97	0x3a8fe176	0.0010977227
98	0xba549151	-0.0008108812
99	0x3895442e	7.117573e-05
100	0x3b31f362	0.0027153124
101	0xbaa3d552	-0.0012499487
102	0xbb6756a2	-0.003529944
103	0xb8e79f3f	-0.000110446
104	0xbb15a8bd	-0.0022836172
105	0x3afe5af9	0.0019405774
106	0xba20b4d5	-0.00061304617
107	0xba45ef6f	-0.0007550632
108	0xbaca286f	-0.0015423427
109	0x3aa04769	0.0012228313
110	0xba1e03d0	-0.000602779
111	0x3985d2c1	0.0002552476
112	0x35b881fe	1.3746901e-06
113	0x3b13cd45	0.002255277
114	0x3ae5b646	0.0017525635
115	0xba6a2acb	-0.0008932768
116	0x3b0b286d	0.0021233812
117	0xba9941dc	-0.0011692601
118	0x391534b7	0.00014229385
119	0x3999e831	0.0002935543
120	0x3a580e21	0.00082418515
121	0x39c25b5a	0.00037070626
122	0x3b6917c9	0.0035567156
123	0x3a1a2bbc	0.0005881151
124	0x3a79f310	0.00095348153
125	0x3a5a9ca3	0.0008339381
126	0xbab3af34	-0.0013708831
127	0x3b207582	0.0024484103

exp_avg_sq f4 [128]
0	0x38d000b7	9.918346e-05
1	0x379c84be	1.8658462e-05
2	0x37807b44	1.531619e-05
3	0x36ca885e	6.0359444e-06
4	0x37cc918a	2.4386467e-05
5	0x3690afc0	4.3119944e-06
6	0x37d0301f	2.481794e-05
7	0x37de37c8	2.6490437e-05
8	0x36cc68b7	6.091864e-06
9	0x391e0b63	0.00015072296
10	0x387d174a	6.034159e-05
11	0x3837d06f	4.382472e-05
12	0x383b9101	4.471932e-05
13	0x37013e40	7.703493e-06
14	0x38560548	5.1026494e-05
15	0x38936d77	7.029896e-05
16	0x36ffb5c6	7.6207534e-06
17	0x3860964c	5.3545737e-05
18	0x3791fd93	1.7403427e-05
19	0x3712fe5d	8.761502e-06
20	0x3877357a	5.8939193e-05
21	0x38004286	3.0579533e-05
22	0x37ce5521	2.4596755e-05
23	0x373eeb6e	1.1379698e-05
24	0x37d9b499	2.5952513e-05
25	0x38179cb5	3.614715e-05
26	0x382225f1	3.8659146e-05
27	0x3848e8d8	4.790057e-05
28	0x388c2343	6.682288e-05
29	0x382720b0	3.9846345e-05
30	0x3782ea1d	1.5606225e-05
31	0x3847f7d3	4.76761e-05
32	0x370235ba	7.761113e-06
33	0x378f80d9	1.7106928e-05
34	0x37825ced	1.554048e-05
35	0x369b512f	4.628811e-06
36	0x372ac470	1.0178526e-05
37	0x36c3e933	5.838601e-06
38	0x3744c9c8	1.1729491e-05
39	0x3836fb76	4.3626373e-05
40	0x3860dbcf	5.3610474e-05
41	0x3859dfba	5.1945193e-05
42	0x38d7fc05	0.00010298941
43	0x365a91f1	3.256948e-06
44	0x376d60bb	1.4148823e-05
45	0x38ab688d	8.1733895e-05
46	0x36243b80	2.4472538e-06
47	0x37f0d835	2.8710909e-05
48	0x371c5b85	9.319633e-06
49	0x38195446	3.655653e-05
50	0x3860b7ee	5.357706e-05
51	0x386daae6	5.6664365e-05
52	0x38155aac	3.5608813e-05
53	0x36aab13b	5.087027e-06
54	0x37117461	8.66977e-06
55	0x381ae541	3.692997e-05
56	0x3705727e	7.954075e-06
57	0x36aa6544	5.0781837e-06
58	0x37f00705	2.8613498e-05
59	0x3736d5b0	1.0897798e-05
60	0x35763d0e	9.173099e-07
61	0x380d0b80	3.362773e-05
62	0x37cbc32b	2.4290368e-05
63	0x37fe0f57	3.0286303e-05
64	0x36d2fbc1	6.2877957e-06
65	0x3746c735	1.1848101e-05
66	0x371af727	9.23666e-06
67	0x3742bfad	1.1607929e-05
68	0x37c7fa5a	2.3839228e-05
69	0x373870a3	1.099348e-05
70	0x3903fff4	0.00012588484
71	0x35ad7bdf	1.2925556e-06
72	0x383806ab	4.387523e-05
73	0x37d5491d	2.5425625e-05
74	0x38941ab2	7.062162e-05
75	0x36becc00	5.68619e-06
76	0x36a4495e	4.896122e-06
77	0x37b85955	2.1976108e-05
78	0x36558382	3.181602e-06
79	0x3884f65c	6.3401385e-05
80	0x371de073	9.410188e-06
81	0x380fe52d	3.4307293e-05
82	0x372cebee	1.0306931e-05
83	0x36a877f6	5.0207555e-06
84	0x3532b0bb	6.6567344e-07
85	0x3736764c	1.08755885e-05
86	0x37d1de8a	2.501837e-05
87	0x37114e17	8.660855e-06
88	0x3858b9eb	5.1671563e-05
89	0x3877474a	5.8955782e-05
90	0x384ecd98	4.93057e-05
91	0x3748d65f	1.1970841e-05
92	0x3789f028	1.6443504e-05
93	0x376f2d3a	1.425604e-05
94	0x38174580	3.6065932e-05
95	0x388d1fed	6.7293506e-05
96	0x38a37db1	7.7958575e-05
97	0x37025a69	7.769654e-06
98	0x37da703a	2.6039885e-05
99	0x38002a7b	3.055714e-05
100	0x38911aaf	6.919109e-05
101	0x37b8d251	2.2032445e-05
102	0x3913ee6b	0.0001410783
103	0x3718088d	9.061897e-06
104	0x3898c961	7.2854345e-05
105	0x38861772	6.393985e-05
106	0x3718e5d8	9.113421e-06
107	0x382d5b72	4.133158e-05
108	0x381eddf7	3.7876856e-05
109	0x3735a3ef	1.08266095e-05
110	0x36727825	3.6130743e-06
111	0x3763ad89	1.3570659e-05
112	0x371eba94	9.460975e-06
113	0x37cd5bb6	2.448061e-05
114	0x38115137	3.464633e-05
115	0x36e7440e	6.892259e-06
116	0x37d4ec9b	2.5382547e-05
117	0x37e54c51	2.7334465e-05
118	0x381cda47	3.7396585e-05
119	0x37143636	8.834109e-06
120	0x36d0da9b	6.224332e-06
121	0x373be046	1.1198286e-05
122	0x391bd943	0.00014862888
123	0x381555a1	3.5604116e-05
124	0x3745b56d	1.17843565e-05
125	0x38120c59	3.4820612e-05
126	0x379e4766	1.8868315e-05
127	0x37e0b290	2.678603e-05
