ML-Agents/Examples/results/PlaneBalancer/PlaneBalancerAgent/PlaneBalancerAgent-8999975.pt (torch, 451730 bytes, 36 tensors)

network_body._body_endoder.seq_layers.0.weight f4 [128, 9]
00000000: c9c2 123f dd79 c7be 7793 4fbf 27ea 613f
00000010: 8efc 5ebe 9949 bc3d cfa6 c23e 80d3 483e
00000020: 08dc 7cbe 6bd8 463f b18e fbbe 1fd1 a13e
00000030: 3a89 47bf 8f24 d4bd b692 49be d796 c2be
00000040: 3bd3 7c3d 5b7d bdbe 5502 86be 1b98 473e
00000050: 5de2 323f 1a9e ac3e 6b7c 9ebe 9099 f1bd
00000060: a223 0bbe 378b ccbe 50bc fd3d 52c6 8d3d
00000070: 4676 84be f9a2 e23e 9b0c 81be a25a 973e
00000080: d3b3 dd3e d949 c3bd 3495 eabe 9dc0 95be
00000090: 4425 2dbe d72d 5bbe 7bfe 94bd 8e71 e03c
000000a0: e3eb d0bc 8b45 0cbf 6a48 d53e fe46 d2be
000000b0: 1f34 373e 15a4 e63e 1a7a 0b3e a15c 083f
000000c0: e534 da3c 7ea2 033e 710c b9be 2fd8 0f3e
000000d0: 20d4 2f3e e1d8 ff3e da9b cc3d eabb 1cbe
000000e0: 26da bf3c f897 133f fbf2 343d 83ae cc3e
000000f0: c586 033e 42f5 0bbf 0b66 013e 8821 ca3d
00000100: 4a29 573d c6a6 313e dcce 2dbf 2b95 7cbe
00000110: 69e9 17bf c4e4 a23d 4fd7 ba3e 9ba6 24bf
00000120: a26a 05be da35 a43d bdf1 7a3e 7bfe ab3e
00000130: d701 253e 37a3 5dbd bba1 133e d955 0fbe
00000140: 5161 0c3f 784a 18bf e0c4 9cbd dc46 6abf
00000150: a39e cebe 5e80 583e 51a6 9bbe f4f7 ef3e
00000160: 03da bf3d 2384 7a3b 8002 62bd 9d1a bf3e
00000170: bb2b 823e 0183 cdbe 5994 b83e a2fa e73e
00000180: 5eea f63e 464d e63d f245 52be b7ac 2d3f
00000190: 215f fabd fc23 8dbe 2eb0 a1bf 589d 223e
000001a0: 8127 723e 1206 0c3e ee37 91be 9ae6 913e
000001b0: e5ea bbbe 1f72 3ebe 6792 9a3e fe8d 233f
000001c0: aadc 253f 5da5 523f b3ab be3e ff21 0fbb
000001d0: 491d 45be 7fe6 c6bd 055c 113e 2ebf 8bbe
000001e0: 7af9 15bf 51f5 ea3c c676 7cbf 1baf a2be
000001f0: 6418 99be 95d2 eabd 4e75 9d3e 5ab3 a3be
00000200: ace4 54be ddaf f83e 2b38 0d3e d46e b23c
00000210: 6ee7 0f3e d9de 95be 9a42 aa3d d2a0 943e
00000220: 7032 fdbd dea6 c4be 8c37 e73e 11fd 81be
00000230: b78e bfbe e1c1 9d3e 0339 11be 3a42 24bd
00000240: 1d45 423d 24ea ea3b d56f 303e 8fbd 853e
00000250: d518 433e ceed a4be ecd4 bd3e 4b9e 9fbd
00000260: f650 2ebf bdaa 4f3f 664d dfbe 5f89 8f3e
00000270: 2d00 8e3e 1f85 963d 1119 14bf 5a56 4c3f
00000280: 661d 1ebe dd46 f73e 9838 b53e ca81 0cbf
00000290: dac1 ca3c 6bad 80bf 8f82 96be 295b 6d3d
000002a0: bc09 d83d 02da 433e a114 5f3d d93f 643e
000002b0: 1914 74be ee1a 243d e2a5 1b3e bffb 3c3e
000002c0: 5cae a9be daba a9be 6e86 473e e7e1 d3bb
000002d0: 5456 0f3f a1e5 003f b34f 6ebe 830b 92be
000002e0: 177b 8c3e 8c33 a43f fc48 02be 9602 5c3d
000002f0: 5888 a9bd 8ea8 e0bd 380d c83c e9ec 67be
00000300: ef5d 373f b153 cc3d bbeb d3be c25e 77bd
00000310: 653d 963e 0c28 973e 8f35 93bd e649 083d
00000320: ab20 283e 97ca aebe fd4c bdbe bfbe 703f
00000330: b2cb edbd 4379 9cbe a531 4e3e bacf e33e
00000340: c57b 823f 89b1 e9bb cd5a 38be 861b 4ebc
00000350: ddb2 30be a465 b0be 95d3 503e f06a 723e
00000360: 9f33 3a3e 9c5e aebe 79c4 e3be 1b8b 023f
00000370: bc7d 263e ba36 4b3a d1e3 ad3b 50b0 f5be
00000380: ab3c 263e 41a6 acbe ae49 7a3e 3598 a03c
00000390: 5a81 bbbe 7ad2 e13e 109c 2b3e e39c eb3e
000003a0: e5fd 26be 8f6c 733e cacb 883d 0fee 2bbf
000003b0: af40 adbe 8175 3b3f 041b d73e ad91 68be
000003c0: 1d0a 323f a610 81be ae52 0e3f 168a 553e
000003d0: 8509 f0bd 1ace 88be dba3 f83e ce39 0cbe
000003e0: e728 27bf 4311 163f a31f d1be 648b e2be
000003f0: 23b2 cf3e 7950 97bf 4ff0 523d fba9 ce3e
0.5732847 -0.38960162 -0.8108439 0.88247913 -0.2177603 0.09193725 0.3801789 0.19611931
-0.2469331 0.7767398 -0.49132302 0.3160486 -0.77943766 -0.103585355 -0.19684872 -0.38005707
0.061724883 -0.370097 -0.26173654 0.19491617 0.6987665 0.33714372 -0.30954298 -0.11796868
-0.13587812 -0.39949962 0.123894334 0.06922592 -0.25871485 0.44264963 -0.2520493 0.29561335
0.43301257 -0.0953557 -0.45816958 -0.29248515 -0.16908747 -0.21404205 -0.07275101 0.027397897
-0.025503105 -0.54793614 0.4165681 -0.41069788 0.17890976 0.4504706 0.13620797 0.5326634
0.02663655 0.12854955 -0.36142305 0.14047311 0.17170763 0.49970153 0.09990664 -0.15306059
0.023419451 0.5765376 0.044177037 0.39976892 0.12844379 -0.5467111 0.12636583 0.09869677
0.05252961 0.17348775 -0.6789377 -0.24666278 -0.5934053 0.0795379 0.36492392 -0.6431672
-0.13028958 0.08018084 0.24506278 0.3359259 0.16113983 -0.054110732 0.14417164 -0.13997592
0.54835993 -0.5948863 -0.076547384 -0.9151437 -0.40355405 0.21142718 -0.30400327 0.4686886
0.09367754 0.0038225732 -0.055178165 0.37324992 0.2542399 -0.4013901 0.3605068 0.45308405
0.48225683 0.112452075 -0.20534495 0.67841667 -0.12225176 -0.27566516 -1.2631891 0.15880334
0.23647882 0.1367419 -0.28362983 0.28496248 -0.36702648 -0.18598221 0.3018982 0.6388854
0.6478983 0.82283574 0.3724037 -0.0021840332 -0.19249453 -0.097119324 0.14195259 -0.27294296
-0.58583796 0.02868143 -0.98618734 -0.3177422 -0.2990142 -0.114659466 0.3075356 -0.31972772
-0.20790356 0.48571673 0.13790958 0.021781363 0.14053127 -0.29271582 0.083134845 0.29028946
-0.12363136 -0.3840856 0.45159566 -0.25388387 -0.3741357 0.3081198 -0.14181904 -0.04010222
0.047429193 0.007169025 0.1723016 0.26121184 0.19052441 -0.3221268 0.3707651 -0.07793864
-0.68092287 0.811199 -0.43613738 0.28034493 0.2773451 0.073496096 -0.5785075 0.7981926
-0.15440902 0.48296252 0.3539474 -0.5488554 0.024750639 -1.0052923 -0.29396483 0.057948265
0.10548732 0.19126132 0.054463033 0.22289981 -0.23835792 0.040064745 0.15199998 0.18455409
-0.33140838 -0.3315037 0.19484875 -0.0064661386 0.559911 0.50350386 -0.2327259 -0.28524408
0.2743766 1.2828231 -0.12723154 0.053713404 -0.08277959 -0.10969649 0.024420366 -0.22648968
0.71627706 0.099769 -0.41390786 -0.060393102 0.29343715 0.2952274 -0.0718795 0.0332736
0.16418712 -0.3413894 -0.369728 0.94041055 -0.116111174 -0.30561265 0.20136125 0.4449442
1.0194021 -0.0071317595 -0.18003388 -0.012579804 -0.17255731 -0.34452546 0.20393212 0.23673606
0.18183754 -0.34056556 -0.44485834 0.5099351 0.16258901 0.00077519903 0.005306699 -0.47986078
0.1623408 -0.33720592 0.24442169 0.019603828 -0.36622125 0.44105893 0.16758752 0.46018133
-0.1630779 0.2377188 0.06679495 -0.67160124 -0.33838412 0.7322617 0.420128 -0.22711821
0.6954668 -0.25208014 0.5559491 0.20853457 -0.11720566 -0.26719743 0.48562512 -0.13693926
-0.6529679 0.5862009 -0.4084445 -0.44246972 0.40565595 -1.1821433 0.051498707 0.4036406

network_body._body_endoder.seq_layers.0.bias f4 [128]
00000000: 40f1 b9bd 2b18 bbbd 9873 b5bd 52e7 4fbd
00000010: 7229 91bd bfc5 c7bd 4180 ecbd 2786 bc3b
00000020: 4e2f 2cbe 30d3 a0bd 09b7 373d 45af 05be
00000030: 5b63 afbd ed6b 71bd d5ca 69bd c79f e8bd
00000040: 79b4 32be 52e3 a6bd 59a9 1dbe fe89 0bbe
00000050: a5e8 b93d 87c9 05be 0f2b e8bd 42e0 5cbe
00000060: def3 abbd c241 bbbd 96cb cbbd 40e2 88bd
00000070: f1ff eebd 54b2 223c e573 8bbc 8467 3ebe
00000080: 8588 cdbd 0449 7ebd 4bcb cfba 9555 0fbe
00000090: e7db 373c 53ed 5cbd f91a 25be 259d c6bd
000000a0: 9709 41bd bbc9 853d 3123 863b 475b 1abe
000000b0: 3813 04be 902e da3c 24cc 47be 79da 32be
000000c0: 565a 07be 465e 13be 50b2 f1bd 790e 81bd
000000d0: b4ce a7bd 4e26 90bd 9bbe 31be 27ba 86bd
000000e0: 730a cdbd 80ad c4bd eed0 18be 016e 0bbe
000000f0: 8060 62be 809c 9bbd 8408 14be 656e 0dbe
00000100: 294f 0dbe f8b9 fbbd f0f8 17be a6c4 f3bd
00000110: 9d2e 80bc 8d70 0abe b740 d9bc 7ec0 e5bd
00000120: 45bf 13be 80c0 d1bd 3067 9ebd 6a2a 08be
00000130: 10aa 23be fc58 b2bd c75c 7bbd 48ec 1bbe
00000140: 1c54 9cbd 24d9 a0bd eeb4 2fbe abf5 3bbe
00000150: 7640 07be 0d28 2cbe 418a e7bd 96ad 9bbd
00000160: d4ed 73bd 1bc2 16be 29c9 1ebe 37b0 8abd
00000170: a6a9 12be 8bf2 febc 33e6 d5bc 109c ebbd
00000180: 9ba2 31bd 18a3 18be 2aad d6bd fa98 973d
00000190: 169b 0abd 7493 38be 6ca1 833d b0d9 b6bd
000001a0: 1607 2bbd 6a7c 51be 8a59 14be 71ea 10be
000001b0: da1d e7bd 5e8f bcbd a365 debd cef1 b3bd
000001c0: d704 d4ba 600f b2bd bf81 26bd f0fd 10be
000001d0: 1f6c abbd 6253 f7bd a1b3 dc3d 7219 dcbd
000001e0: b1fc 51be a816 b6bd 3afc 8cbc 1d17 48be
000001f0: 4ae4 1fbe d5e5 19be 7977 b1bd 0cfc b3bd
-0.09079218 -0.09135469 -0.088599384 -0.050757714 -0.07087983 -0.09754514 -0.115479 0.005753297
-0.1681492 -0.07852781 0.04485229 -0.13055141 -0.085638724 -0.058940817 -0.0570782 -0.113586
-0.17451657 -0.08148827 -0.15396632 -0.13626859 0.090775765 -0.13065158 -0.11336338 -0.21569923
-0.08396123 -0.09143402 -0.0995094 -0.06683779 -0.11669911 0.009930212 -0.017023036 -0.18594176
-0.10035805 -0.062081352 -0.0015853433 -0.1399749 0.011221862 -0.053937268 -0.1612357 -0.09697942
-0.047128286 0.06532618 0.0040935506 -0.15073882 -0.12897956 0.02663353 -0.19511467 -0.17466153
-0.13218054 -0.14391431 -0.118015885 -0.063015886 -0.08193722 -0.07038556 -0.17357866 -0.065784745
-0.10011759 -0.09603405 -0.1492345 -0.13616182 -0.22107124 -0.075982094 -0.14456373 -0.13811643
-0.13799728 -0.1229133 -0.14841056 -0.11902742 -0.015647227 -0.13519497 -0.026520116 -0.112183556
-0.14428432 -0.102417946 -0.07734525 -0.1329743 -0.15982842 -0.08708379 -0.061367776 -0.15226853
-0.0763323 -0.07853916 -0.17158863 -0.18355434 -0.13208184 -0.16812153 -0.11305667 -0.07601468
-0.059552982 -0.14722483 -0.15506424 -0.067718916 -0.14322528 -0.031121513 -0.026110744 -0.11504376
-0.043367963 -0.14905965 -0.10482247 0.07402225 -0.033839308 -0.18024999 0.06427273 -0.08928239
-0.041754805 -0.20457616 -0.14487281 -0.14151932 -0.112849906 -0.092070326 -0.108592294 -0.08786355
-0.0016175759 -0.08694339 -0.04065108 -0.1415937 -0.08370232 -0.12076451 0.10776449 -0.10747041
-0.2050655 -0.0889104 -0.017210115 -0.19540067 -0.15614429 -0.1502908 -0.08665366 -0.087883085

network_body._body_endoder.seq_layers.2.weight f4 [128, 128]
00000000: ccce dcbd 73b3 63be 9348 bb3d ad85 e9bd
00000010: ef22 37be 0ab9 4d3d 245e 5ebd 35fe 42be
00000020: 5076 60be e5dd babd ef51 d83c 2c91 8dbd
00000030: db5a ce3d 1b33 cbbd 0d57 653d f82a 5abd
00000040: b6a1 06bc 7d7b dbba 4592 15bd 38ed d2bd
00000050: 756e 0f3e 8b5a fabd 993e 2dbd e4e0 143e
00000060: 3ae8 8fbd 5ab0 bebc 325b 5d3d 06c3 803d
00000070: f880 86bd 1534 cabd ca10 3cbd 354a 73be
00000080: e7f6 0d3e 8102 d23c 0815 32bd 8d53 17bd
00000090: 3d11 69be df31 5cbe 8e41 3b3c 7a5c 54bc
000000a0: 8d5e 8c3c 4ca2 8e3b 069d e6bc 37cf 5b3d
000000b0: 563b 2bbe fdb4 3dbe 6447 cdbd 743d 9e3d
000000c0: ed9b 5abd fd11 eabb d22f 65bd 4910 f33d
000000d0: a2df 783c a559 e13d 029c 44be 3d57 a23d
000000e0: 79f6 e93c eece f33c 8b54 2e3c 403a 5f3b
000000f0: dcbb c73c ba3c 54be 82fb 97bd 5126 bc3d
00000100: f812 013e f45b 643c 33d7 323d 5a83 5fbd
00000110: 8a49 31be 1210 ebbc 947b 8ebd b545 c6bd
00000120: bb6d 14bc 57bf e73c e4f6 fcbd 34a8 8fbd
00000130: 644b 553d 830b 1a3e b99c 7dbd e2ac a3bc
00000140: d2c0 61be 94dd 0d3c cfc1 b83d 67ec e4bd
00000150: 4711 8ebe 4031 0ebc 9c9e df3d dcc1 143e
00000160: 4bcf b6bc ffa6 a53d df89 2b3d 5063 0e3d
00000170: f8fa 023e 86a7 2bbe 9a02 a23d 4e0a 2fbd
00000180: f626 40bd b401 78bd de5f b6bd 371b e33d
00000190: 9da5 6d3d 44f2 b03d f4bd d03d c151 f43c
000001a0: ac8e c7bc a24c b63d f74e 37bd 38e8 b23c
000001b0: 6b13 163d 1f36 61be 8c46 033e bf9b 3fbe
000001c0: de4e 433e 0a79 dcbd e45c d83d f9a6 253e
000001d0: 0e2f 293d 31cb 0fbd bdad 1dbd a0ba dd3d
000001e0: ab76 18bd a8be 973d 9a87 79be 190c 32bd
000001f0: 2c2f 91bc 42d9 abbe ddf7 cf3d 2b70 38be
00000200: 9103 09be 345e 2cbb 34e2 22be 80a8 0ebe
00000210: 740d 0cbc a2f4 05bd fb41 a1bd 448b 5e3d
00000220: fd46 4fbc f72f d2bc 6b51 353a 58e7 62be
00000230: a3d2 3ebe f54d a03e be69 95be 5613 9ebc
00000240: 4ffa 25be 3215 3e3c 0647 80bd c727 debd
00000250: 1661 f1bc 12d2 d1bc 0d29 67be f295 8f3d
00000260: e45b 55be 6500 9d3d 39b0 283c 47b8 a9bd
00000270: 2090 4ebe f38d 57bd 5c45 b93d 1819 b5bd
00000280: 177e 8a3d 9737 a7bd dda4 3ebd 43fb 4bbe
00000290: 5664 16bd cc8c e6bd aa70 99bd 08e5 a9be
000002a0: c9e0 083e 148f 573d 5525 d6be cc2f 41be
000002b0: 22ba b83c d859 dabd e71d 26be 9ef3 253d
000002c0: cc3a 95bd 8e9a 0abe 373a afbd aea8 29ba
000002d0: a5db ed3c c74f 2f3e e057 acbd 8bbf b0bd
000002e0: 4659 bb3c 4e1c 3a3d 4ceb 9cbd 5263 3cbe
000002f0: c279 b5bc 7e0f 1d3d f69e 12bd 4d82 a3bd
00000300: 7799 9b3d b08a 0cbe f3a5 67be ecf8 00be
00000310: 2e74 f9bb dba0 8dbd b6de 643e 50af 6fbc
00000320: a371 f5bd ac5a 283e 00be 26be af0b 1bbd
00000330: c1b8 14be 1a21 933d deba adbb 142a aabd
00000340: d69b 713c 4c9e 8ebe 2f55 68bb b755 8cbd
00000350: 1341 84bd 4d2d c73d 6743 99bc 8838 2cbd
00000360: 9d27 e93d b1e0 a9be 23d9 93bd 03fe 0cbe
00000370: aa43 e1bd de42 133d 2dd6 d53d e516 f9bd
00000380: ffbf 79be b723 093d dbc3 0fbe 3002 893e
00000390: 60d8 6d3d 11f4 9d3d a95c c7bb fee1 76be
000003a0: e048 35bd ca4d c6bd 708d 8dbd 69c3 00be
000003b0: c426 6b3d e346 9c3c da35 fcbc 665f 03be
000003c0: a730 1d3e ae77 a8bd 4d0a ebbd 7d4e 7e3c
000003d0: 9c42 253d 722a 2bbd d647 e1bd 7284 1a3d
000003e0: fe73 5e3d 7e2f c6bd b7a1 64bd c07c debd
000003f0: 7ead 43be 808e 3fbc edc8 af3c 2b64 15be
-0.10781631 -0.22236423 0.09144702 -0.1140245 -0.1788442 0.050225295 -0.054289 -0.19042285
-0.21920133 -0.09124354 0.026406256 -0.06912455 0.10075923 -0.09921857 0.05599122 -0.053263634
-0.008217266 -0.0016745176 -0.036516447 -0.10299152 0.1400698 -0.12224301 -0.042296026 0.14538914
-0.070267156 -0.02327745 0.05404205 0.06287198 -0.065675676 -0.09873215 -0.04591445 -0.23758776
0.13863717 0.02563596 -0.04347709 -0.036944915 -0.22760482 -0.215034 0.011429204 -0.012961501
0.01713493 0.0043528434 -0.028151046 0.053664412 -0.16721854 -0.18526073 -0.10023382 0.07726565
-0.05337136 -0.0071432577 -0.055953808 0.118683405 0.015190037 0.110034265 -0.19200137 0.07926796
0.02855991 0.029761758 0.010640274 0.003406182 0.02438157 -0.2072629 -0.07421018 0.09186996
0.12604892 0.013937939 0.04366226 -0.054568626 -0.17313209 -0.028694186 -0.069571644 -0.09681264
-0.009059365 0.02828948 -0.12351778 -0.07014504 0.05207385 0.15043454 -0.06191704 -0.019979898
-0.22046211 0.008658785 0.09021341 -0.11177903 -0.27747557 -0.008678734 0.10918924 0.14527076
-0.022315642 0.080884926 0.04187953 0.03476268 0.1279105 -0.16763124 0.079106525 -0.042734437
-0.046912156 -0.0605485 -0.08905004 0.11089175 0.05801927 0.086399585 0.10192481 0.02982414
-0.024360023 0.08901335 -0.04475304 0.021839246 0.036639612 -0.21993302 0.1281988 -0.18711756
0.19073054 -0.10765274 0.105645925 0.16176976 0.04130464 -0.035105888 -0.038495768 0.108266115
-0.037222546 0.07409412 -0.24368134 -0.04346857 -0.017722689 -0.33564192 0.10154698 -0.18011539
-0.13380267 -0.0026301267 -0.15906602 -0.13931465 -0.008548129 -0.032704003 -0.07873913 0.054332033
-0.012651202 -0.025657637 0.0006916734 -0.22158563 -0.18635039 0.31309476 -0.29182237 -0.01929633
-0.16208766 0.011601733 -0.06263547 -0.10847431 -0.02946524 -0.025612865 -0.22574253 0.07011022
-0.20835835 0.07666091 0.010295921 -0.08287101 -0.20172167 -0.052625608 0.090464324 -0.08842677
0.06762331 -0.081649 -0.046543945 -0.19920067 -0.03671678 -0.112573236 -0.07492192 -0.3318255
0.13366999 0.052626684 -0.41825357 -0.1886589 0.022549693 -0.106616676 -0.16222344 0.040515535
-0.07286605 -0.1353552 -0.085560255 -0.00064719736 0.029035399 0.17120276 -0.08415198 -0.08630284
0.022869717 0.04543715 -0.07662067 -0.18397263 -0.022152785 0.038344853 -0.03579613 -0.07983837
0.075976305 -0.1372478 -0.22621898 -0.12594956 -0.0076127267 -0.06915446 0.22350582 -0.0146292
-0.11984565 0.16440839 -0.16283417 -0.03785294 -0.14523603 0.07184048 -0.0053018173 -0.08308807
0.014746627 -0.27855146 -0.0035451164 -0.06852286 -0.064577244 0.09725437 -0.018708898 -0.0420461
0.11384509 -0.33179238 -0.0721915 -0.13768773 -0.10999234 0.03595244 0.104412414 -0.1216257
-0.24389647 0.033481326 -0.14039557 0.2675948 0.05806768 0.077125676 -0.006084044 -0.24109647
-0.044258952 -0.09682806 -0.06911743 -0.12574543 0.057410017 0.01907677 -0.030787397 -0.1282936
0.1535059 -0.08225952 -0.11476574 0.015521643 0.040346727 -0.041788526 -0.1100003 0.037723966
0.054309838 -0.09677027 -0.055818286 -0.10863638 -0.19109151 -0.0116916895 0.021458114 -0.14588992

network_body._body_endoder.seq_layers.2.bias f4 [128]
00000000: 3305 853c 17b7 983d f0ff a6bd 9a98 34bd
00000010: 0eb6 e3bc a5ae 3cbd cf87 873c c878 21be
00000020: 7778 25bd 7397 003c 49e1 a33d aef8 d4bb
00000030: af5e fc3a 2099 0b3d 3811 313d e23b debc
00000040: 6ba7 9e3d 9f52 bbbd 1979 c5bd 7c75 d13a
00000050: c41a 87bc 76d6 86bb 55cf af3d 7b17 2f3b
00000060: f119 a03c 63d9 a2bd 7cc2 a7ba c890 5b3c
00000070: 658a 573d 8b9e 9bbd 2bde a23b 4704 2f3c
00000080: f3a6 6c3d 55d3 dfbd 17c1 b53d 5739 a53d
00000090: 8919 443c 6ca8 bebd e00d b43d 8c59 26be
000000a0: 99c4 fd3d b7e5 953c f5c6 dcbb 1fde 9cbc
000000b0: 8ace fabd c345 633c fa08 093d b0a5 e1bb
000000c0: cfc6 713d 2c47 e8bb 0e07 143d f297 f63c
000000d0: 2069 47bc 51b0 bf3c 52c5 e8bc e8cc f5bc
000000e0: f8bf 283c 1af6 98bd e2bc c53d f585 42be
000000f0: b63b 18be fe9d 153d 6ed6 38bc fa7d 6dbd
00000100: 7160 55bd d242 e63b 7e71 d3bc e6c1 b8bd
00000110: e8d8 e93c 52ce 32bd 6b9d 013d 35fe 6c3b
00000120: adb1 d53d 786c dabb c573 19bd 6c8b 22bd
00000130: 96af bf3d a707 e0bd e3e4 d83c 7f59 543d
00000140: b0c5 2e3c 4167 a0bc 831f b23d 6302 0a3d
00000150: 3e96 8cbd d386 87bb 40d3 153d 2e82 c0bd
00000160: 1194 aebd ba6f 3b3c c8f0 9039 ab09 083e
00000170: 32c6 ca3c 5f68 53bb a835 2d3d 2c4a 1bbc
00000180: 9a54 d5bc 1667 35bd e4f9 c0bc ab54 23bc
00000190: ebab aebb 4112 9d3d 5877 6bbb 0709 a43c
000001a0: 145f 7e3c 52d7 893d 18ef 293d 840e c7bc
000001b0: c00b 383d dd93 29bc 8abd f53b e1a9 483c
000001c0: 2d2d 9d3d 4b8d 43bc 98cf ba3c f144 c3bc
000001d0: 4c34 b13c 8cb3 5dbd 53da 483a df4f 39bd
000001e0: e25e 40bb 4061 133c d110 a93c 6bc3 4ebd
000001f0: 97ba 533d 6c9a 9a3b 4b3a 583d 26a5 38bd
0.01623783 0.074567966 -0.08154285 -0.044090845 -0.027796771 -0.04606499 0.01654425 -0.1576873
-0.040398087 0.007848608 0.08001954 -0.0064993715 0.0019254292 0.03408158 0.04322931 -0.027128164
0.07746776 -0.09146618 -0.09642238 0.0015980448 -0.016492255 -0.004114921 0.08584467 0.0026716876
0.01954362 -0.079516195 -0.001279905 0.013401218 0.052622218 -0.07598599 0.004970332 0.010682172
0.057776403 -0.1092898 0.088747196 0.08067577 0.011968979 -0.09309468 0.08791709 -0.16245097
0.12391014 0.018298013 -0.0067375847 -0.019148884 -0.122464254 0.013871613 0.033455826 -0.0068862066
0.05902749 -0.0070885625 0.03613954 0.03010175 -0.01217106 0.023399504 -0.028414402 -0.030004933
0.010299675 -0.07468815 0.09655167 -0.18996413 -0.14866528 0.036527626 -0.011281593 -0.05798147
-0.052093927 0.0070270086 -0.025810953 -0.09021358 0.028545812 -0.043653794 0.031644266 0.0036162261
0.104342796 -0.0066657625 -0.037463922 -0.039683744 0.09359662 -0.109389596 0.02647633 0.051843163
0.01066725 -0.019580485 0.08697417 0.033693682 -0.06864594 -0.0041359453 0.036578417 -0.0939983
-0.08524335 0.011440212 0.00027645216 0.13284938 0.02475271 -0.0032258255 0.0422875 -0.009478133
-0.026041318 -0.044287764 -0.023556657 -0.009968917 -0.005330553 0.07669497 -0.0035929289 0.020023836
0.015525598 0.06730522 0.041487783 -0.024298914 0.04493308 -0.010350195 0.0074994015 0.012247534
0.07674632 -0.011935542 0.022804067 -0.023836585 0.021631382 -0.054126307 0.00076619274 -0.045242187
-0.002935343 0.008995354 0.020637901 -0.050479334 0.051691618 0.0047181156 0.052789968 -0.045079373

action_model._continuous_distribution.log_sigma f4 [1, 2]
00000000: d743 dabe 44d2 fcbe
-0.42629883 -0.4937917

action_model._continuous_distribution.mu.weight f4 [2, 128]
00000000: fda7 bfbd 54f4 283d 7fa7 5cbd a73b 11bd
00000010: e69d 48bc 2996 d4bc 6378 2c3d e286 9a3d
00000020: 03a8 67bb 5b54 c93c da0e e43d 9b2c a4bd
00000030: 3079 44be 4bcc 81bc 54b2 2b3e 20be 4fbd
00000040: 3e33 bbbd 7add cc3c 8fd2 193c e1ca d8bd
00000050: dcaf bc3c e06f 863d 0d45 e5bc 71e5 a23d
00000060: 1890 7a3d e072 8abc 9335 9abd dcd4 d5bd
00000070: 763c 25be f34e 983d b1e0 aabd 1bef ceba
00000080: 090b 65be dc7f 1abd 87a0 4dbe 0c4d 03be
00000090: f17d 7bbc 93eb 3f3d aff7 3cbe 56d8 793d
000000a0: ac91 9fbd 551e 9fbd 6fc0 1dbd 2e04 633d
000000b0: 80ec 8e3c 57fd 40bd 6262 fbbd 651a 74bd
000000c0: a2df 46bb 7c4b c0bd 0d23 d13d ecab 1dbe
000000d0: c1e7 7fbd 4f56 5dbc 9e6f 4d3c 328b 2ebd
000000e0: 1822 b6bb f96b 873d 0750 4c3d aa3d 723d
000000f0: aeb9 853d ab36 51bd 50ef 97bd 7ca3 a43c
00000100: 7c01 893c 9935 683d fc3f df3d db6d a7bd
00000110: ee23 6a3d 83cc 53bd 7512 f13d ac99 e23d
00000120: d09e 01bd a879 b63d 9497 c9bd b0a7 aebc
00000130: 637e 87bd eafe b1b9 fee7 02be f6c2 12bd
00000140: 8827 0bbc f341 a93c 6f0f 8e3d dab1 ae3d
00000150: 2f94 49bd 24f7 6bbc 36a6 8b3d a0f1 ee3d
00000160: e872 873d 49dc 8d3d b8d9 2b3d 2e00 30be
00000170: cf84 203d 4e76 19bd 189f 97bd af9f 153d
00000180: e976 cd3d b2ba e73d da13 d83b 3eda d0bc
00000190: 8970 d0bc 27b7 0fbe 91e9 5e3c f119 0f3d
000001a0: 717a da3c 07cb 533d 2b2f a0bd 39f1 a2bb
000001b0: 3e14 7ebc 9d44 c2bc 05a3 8b3d fb30 09be
000001c0: da10 693d 496d f93d 06c1 c43d 96fa ac3d
000001d0: 6a72 323c 3187 003c 105e 373e bc06 ee3d
000001e0: f12c 783d 3458 0a3e 95af c83d 30ca 0dbe
000001f0: a87a 1e3d a37c 99bc 44b6 3ebd 99a1 bf3d
00000200: e676 0d3d d803 f9bd 08f2 6c3d 3294 353d
00000210: 4d1c cabd 8c84 e8bc 039d c03d 0cfc 213e
00000220: 7555 a53d 408d 013e 43db c0bd 9ce0 773d
00000230: 98aa ac3d 8d55 09be c1e7 a13d 526e cb3d
00000240: a9b8 00bd 9328 473b 1be9 22be df5e 6f3e
00000250: ca2f 32bd 49af 6abd 664d ddbd 4ce8 d83c
00000260: 4a69 02bd 1b59 073e 5475 4fbd 345e 19bd
00000270: 0f76 17be 0a7f c2bd 2e39 3abd da31 b83c
00000280: ea0e 4bbd 5734 cabb 3ca0 3cbb 83df 82bd
00000290: 559c ccbd 6e04 943c e2ea 8fbb d35f 403c
000002a0: 79ca d9bd 58d2 bb3c 689e 74bb 6d2f cb3c
000002b0: 64e7 d4bc 5943 f5bd 212b d5bd 5cac 083d
000002c0: b7ac 38be c49d e13d e087 6abd 06a8 873c
000002d0: f7ec f03d abbd ac3d c2fa 903c 2b24 9a3d
000002e0: 9d27 01be 976d 9e3d d014 19be 384d 7d3d
000002f0: c44f 103d c697 bbbd 6a80 5bbd 8592 85bd
00000300: 648b c03d 9034 943d 6f66 d73d a896 563d
00000310: f60c 36bd 142b 81bc 4ce8 373c ef4b 60bd
00000320: e47a 4cbe e206 9c3d 28c9 a3bd 05e3 80bd
00000330: 93d1 2ebe e774 c03d 6c61 cd3d 8950 163e
00000340: 1773 8cbd c014 983d d940 31be 4ba6 0abe
00000350: 5226 a13d e8d1 583d fab5 ad3c 36ad 2a3b
00000360: 6159 2cbc 0d46 923d 396a 693d fba2 8e3d
00000370: 97ec 0dbe 66f9 f53d 1103 36be 9b82 933e
00000380: 9658 2b3d 8d14 dc3c c3a8 d4bc d25e c1bd
00000390: b94c 423d d0b7 a23b c837 3bba 54c8 733d
000003a0: 3db5 993c 3005 dcbd f9b2 883d f4ec 323d
000003b0: 8f8f bfbd 4abd 71bd ea0f 1fbd 4365 2f3c
000003c0: 5b6e e9bd 2190 8abc e30e 0f3e e31d 163d
000003d0: b783 433d 4217 dc3d 0ee8 70bd 3f43 c63c
000003e0: 41e8 17bc dda7 59bb 6d75 8e3c 1efc 5dbc
000003f0: bd18 94bd c79c 0cbb f5b3 973d bc01 ab3d
-0.09358213 0.041248634 -0.053870674 -0.03545728 -0.012244677 -0.025950508 0.042106997 0.07545258
-0.0035347946 0.024576357 0.11135645 -0.0801632 -0.19186854 -0.015844485 0.16767246 -0.050718427
-0.09140633 0.025007952 0.00938858 -0.10585571 0.023033075 0.06564307 -0.027987028 0.07953919
0.061172575 -0.01690048 -0.0752975 -0.1044099 -0.16136345 0.07436933 -0.08343638 -0.0015787812
-0.22367491 -0.037719592 -0.20080768 -0.1282236 -0.015349851 0.04685552 -0.18453859 0.06099733
-0.077914566 -0.07769457 -0.038513597 0.055423908 0.017446756 -0.047116604 -0.122746244 -0.059595484
-0.0030345698 -0.093893975 0.102117635 -0.15397614 -0.062476877 -0.013509347 0.012538819 -0.042613216
-0.0055582635 0.06612391 0.049881008 0.05914084 0.06529556 -0.051077526 -0.07418692 0.020097487
0.01672434 0.05669174 0.10900876 -0.0817525 0.05716317 -0.05170871 0.117710985 0.11064467
-0.031645596 0.08909923 -0.09843364 -0.021320194 -0.06615903 -0.00033949997 -0.1278381 -0.03583046
-0.008493312 0.02066133 0.069365375 0.08530016 -0.049213585 -0.014402185 0.068188116 0.1166718
0.066137135 0.06926782 0.04195568 -0.17187569 0.039189156 -0.03746634 -0.074033916 0.03652924
0.10032446 0.11314906 0.0065941634 -0.025494691 -0.025444286 -0.14034711 0.013605491 0.03493685
0.026669713 0.051707294 -0.078214966 -0.0049726036 -0.015507756 -0.023714358 0.06818203 -0.13397591
0.056900837 0.121790476 0.09607129 0.08446233 0.010891536 0.007844732 0.17906976 0.11622378
0.060589734 0.1351021 0.097991146 -0.1384666 0.038691193 -0.01873619 -0.04656054 0.09356994
0.03453722 -0.12158936 0.057848006 0.044330783 -0.09868679 -0.028383516 0.094049476 0.15818805
0.0807294 0.12651539 -0.09416821 0.06051694 0.08430976 -0.13411541 0.07905532 0.09933151
-0.031426106 0.0030389174 -0.15909235 0.23376034 -0.043502606 -0.05729607 -0.10805778 0.026477955
-0.031838693 0.13217585 -0.050649002 -0.037443355 -0.1479113 -0.09496887 -0.045464687 0.022484709
-0.04957477 -0.00617079 -0.002878203 -0.06390288 -0.099907555 0.018068518 -0.004392014 0.011741596
-0.10634322 0.022927448 -0.0037325863 0.024802888 -0.025989242 -0.11975736 -0.10408617 0.0333675
-0.18034635 0.110164195 -0.057258487 0.016559612 0.117639475 0.08434614 0.017697696 0.0752643
-0.12612768 0.07735746 -0.14949346 0.06184122 0.03523232 -0.09159808 -0.053589262 -0.06522087
0.09401587 0.07236588 0.105175845 0.05238977 -0.044445954 -0.015767612 0.0112248175 -0.054759916
-0.19968754 0.076185 -0.07997352 -0.062933005 -0.17072134 0.09397297 0.100283474 0.14679159
-0.06857889 0.07425833 -0.17309894 -0.13539998 0.07868637 0.052934557 0.021204937 0.0026043183
-0.0105193565 0.071422674 0.056986067 0.0696468 -0.13859783 0.120104596 -0.17774607 0.28810582
0.04183253 0.026865268 -0.025959378 -0.09441914 0.04743645 0.00496576 -0.0007141796 0.05951722
0.018763179 -0.10743177 0.06674761 0.043683007 -0.093535535 -0.05901841 -0.038833536 0.010705295
-0.11398002 -0.01691443 0.13970523 0.036649596 0.047733035 0.107466236 -0.058815055 0.024201987
-0.009271682 -0.0033211627 0.017389977 -0.013548879 -0.07231281 -0.0021455751 0.07407371 0.0834994

action_model._continuous_distribution.mu.bias f4 [2]
00000000: d53c 6fbc 1945 88ba
-0.014601906 -0.0010396569

exp_avg f4 [128, 9]
00000000: 7ba7 183a 3162 fc39 d6ad b038 a6df 99b9
00000010: 84e2 a3b8 883b 76b9 3b09 813b 123d 4f3b
00000020: 1356 ec3a 8877 88b9 c756 3fb9 ec11 b5b7
00000030: 1c81 8ab9 6905 6c3a e904 5f39 b59d cab9
00000040: 6429 acb9 60b0 b6b9 45d0 4eba 0062 12ba
00000050: d731 89ba 1640 9d38 b012 e23a a7a5 d039
00000060: 14e5 1fbb b9ad 91ba 205c c8ba 1108 4e39
00000070: 7ef2 8239 87c5 e1b8 842c eb38 c31b 3db8
00000080: 7f50 1c39 395f 8539 e3a6 0c39 0cf5 8639
00000090: a8ee 3939 9483 783a dbda 80b9 2a53 323a
000000a0: a2ec 06ba 2924 b739 5bb2 783b 8c37 2f3b
000000b0: ecad 4f3b d4d1 31ba e3e8 40b9 e289 2539
000000c0: 6340 93b7 fcb4 da39 cb6b 5138 c719 5239
000000d0: 58e9 e339 9fb8 273a 99b2 1bb9 1356 03ba
000000e0: 03c2 9839 b48f 9db9 5ea6 293a d66c b4b9
000000f0: dfce b5ba 9267 30ba b30e d5ba b34c b938
00000100: b5bb 483a dd4c c339 3d37 fbb8 3bc5 b9b7
00000110: f035 bb39 b5cc d23a de95 1c3b 009e 783a
00000120: 5ef8 9fb9 981e 263a 4f37 0ab9 2ff6 4237
00000130: e4fb 173a b22b 27ba f959 373a 046a 5539
00000140: 9021 283a 6fd9 7439 c608 263b c2c6 7eba
00000150: 386a 9c3a 4e5d adba 5ce6 1e3a 508a f33b
00000160: efd1 fa3b 3359 e43b 7b52 ef37 f35b adba
00000170: 4b3f f0b8 2d78 6ab9 2a9a 9e3a 8b42 1e39
00000180: f8b4 c7bb 6856 bfbb 753c 9abb 004b 3bb9
00000190: d7b2 b339 db32 d639 b8b4 cc39 51c0 753a
000001a0: 325c 193a ebdd bbb9 e472 68ba 69fd 98b9
000001b0: 1059 e6b4 1ff7 8bba f959 4eb9 00ed f138
000001c0: 275a 9eb8 233b 4fb9 1804 a8bb 986c b2bb
000001d0: e36f 99bb 7db3 6f38 45d9 2c39 ccb0 0fba
000001e0: 418f 7839 8714 90b9 dee4 beb8 769e 9ab9
000001f0: b23b 4c39 9a47 f438 84ec 6db9 9f89 27ba
00000200: 9d3a ad39 a245 ac39 9b2f fc39 e449 d7b9
00000210: d4cd 4e3a f1f4 4a39 1d1d b7b9 228a bf39
00000220: 4567 1b3a 9e96 e9b9 3c32 03b9 b9fe 5bba
00000230: dbcf 8b39 3a3d c13b 236f 8b3b 2883 7b3b
00000240: 6ffd 33b9 706d f4b8 a2c9 7e39 3dc9 36b9
00000250: 155c 30b8 1089 2a39 715e d139 5aa8 2939
00000260: a96e 9838 dd36 3c39 c4da 8e39 8377 b639
00000270: 57dc 9db9 3054 03b9 1507 01b8 4f3a b43b
00000280: 00cf a43b 214d 9a3b 70dd f2b9 8cd1 dbb9
00000290: 706f d1b7 aa7d 9e39 b1fd 9d3a e0fa c239
000002a0: 534d 50ba 8563 53ba 275e 2fba 6352 1bb9
000002b0: a544 7eb7 5ead ff38 89db 6c39 5ab9 23b9
000002c0: b608 d738 6418 3c3a 7f94 a23a ab5e 433a
000002d0: f5f7 a6ba ef94 f3ba 3070 213a ee39 693a
000002e0: ef6b a239 8128 eeb9 30cd a5bb df2c e5bb
000002f0: d3c2 9dbb 1ee1 a2b9 fa2b c839 1062 b0b8
00000300: 8628 91b9 3913 efb9 b800 acb7 62ff db3a
00000310: 20ad 1a3b b875 e33a 13fc 00ba 0f3c d2b9
00000320: e924 89b9 9aa3 3339 666c 983a 1f5b 25ba
00000330: 676e 4ebb c63d 47bb 7fef 32bb 6e14 b339
00000340: accf d3b7 01cb b5b9 e5e0 2139 0562 7939
00000350: 687c 5d39 0122 343a 4d21 773a 8d41 413a
00000360: a68a 59b9 db2a b9b7 84d6 4939 a5c0 0d38
00000370: 0ffd 5b38 bfba d7b8 1319 f23a 9c97 8939
00000380: 9064 0d3a bdd9 1c3a 99ae 3cb9 ac75 9eb9
00000390: e396 ca39 f93b 0c3a c9d1 1b39 fd88 11bb
000003a0: 8502 03bb dd13 dfba a520 6db9 55fd 9639
000003b0: 73e7 7bb8 6357 94b9 c94f 99b9 521f 9c37
000003c0: 8d3c 2b3b 76f8 ee3a c64e b13a c554 4738
000003d0: b829 6db9 fd70 03b9 c1c6 c0b9 3788 4839
000003e0: 710b 023a 9ebd 5b3b b67b b03a 12b0 9a3a
000003f0: 770c 97b9 c38c 5eb9 5c32 f136 b130 d439
0.00058232964 0.00048138344 8.4247135e-05 -0.00029349065 -7.8146375e-05 -0.00023482565 0.003937868 0.0031622094
0.0018031023 -0.00026029 -0.00018247507 -2.1585227e-05 -0.00026417605 0.0009003492 0.00021268766 -0.00038645943
-0.00032837235 -0.00034845155 -0.0007889311 -0.0005584061 -0.0010467124 7.49828e-05 0.0017248001 0.00039796272
-0.0024398016 -0.0011114395 -0.0015286244 0.00019648696 0.00024976203 -0.000107656284 0.00011213965 -4.5086967e-05
0.00014907306 0.00025438683 0.0001341361 0.00025741046 0.00017731881 0.0009480056 -0.00024577123 0.00068025535
-0.00051469554 0.0003493142 0.0037948105 0.002673599 0.003168936 -0.0006783281 -0.00018397304 0.00015786992
-1.7553748e-05 0.00041715044 4.9929873e-05 0.00020036763 0.0004347067 0.0006398055 -0.00014848485 -0.00050100795
0.0002913625 -0.0003005244 0.0006471629 -0.00034413364 -0.0013870856 -0.00067293004 -0.0016254991 8.835774e-05
0.0007657365 0.00037250566 -0.000119789016 -2.2145561e-05 0.00035707606 0.0016082736 0.0023893039 0.0009483993
-0.0003051189 0.0006336956 -0.0001318131 1.162062e-05 0.00057977275 -0.00063770555 0.0006994303 0.00020352757
0.00064136926 0.00023350654 0.002533482 -0.0009718948 0.0011933511 -0.001322666 0.0006061548 0.0074322596
0.0076544206 0.006968641 2.8529428e-05 -0.0013226256 -0.00011455881 -0.00022360748 0.0012100388 0.00015092843
-0.006094571 -0.005839158 -0.004706914 -0.0001786165 0.00034274787 0.0004085515 0.00039044558 0.00093746657
0.0005850225 -0.0003583276 -0.00088672177 -0.00029180504 -4.290564e-07 -0.0010678506 -0.00019679208 0.0001153592
-7.550819e-05 -0.00019763088 -0.005127441 -0.0054450743 -0.0046825274 5.7149202e-05 0.00016484137 -0.0005481362
0.0002370449 -0.00027481114 -9.102536e-05 -0.00029491232 0.00019477194 0.000116481635 -0.0002269019 -0.00063910516
0.00033040802 0.00032858277 0.00048100654 -0.00041063048 0.0007888947 0.00019355469 -0.0003492617 0.00036533276
0.0005928169 -0.00044553442 -0.00012511847 -0.00083921436 0.0002666701 0.0058971914 0.004255192 0.0038377736
-0.00017165182 -0.00011655211 0.00024298442 -0.0001743184 -4.2047428e-05 0.00016263523 0.0003993395 0.00016179812
7.268537e-05 0.00017949515 0.00027247344 0.00034802788 -0.0003010954 -0.00012524496 -3.0762592e-05 0.005500115
0.005029559 0.0047089015 -0.0004632282 -0.0004192706 -2.4966634e-05 0.00030229735 0.0012053755 0.0003718948
-0.00079460925 -0.0008063841 -0.000668975 -0.00014812643 -1.5155562e-05 0.0001219164 0.00022588497 -0.0001561394
0.000102536214 0.00071752653 0.0012403874 0.00074527663 -0.0012738692 -0.0018583814 0.000615838 0.0008896877
0.00030979465 -0.00045425075 -0.0050598606 -0.0069938744 -0.0048144846 -0.00031066773 0.00038179738 -8.4105995e-05
-0.00027686747 -0.00045599954 -2.0504332e-05 0.0016784484 0.0023601726 0.0017353809 -0.00049203745 -0.00040099068
-0.00026158176 0.00017131717 0.0011628985 -0.00063078286 -0.003149891 -0.003040181 -0.0027303395 0.00034156762
-2.5249865e-05 -0.0003467426 0.00015437936 0.00023783006 0.00021122547 0.0006871522 0.00094272644 0.00073721336
-0.00020746383 -2.2073675e-05 0.00019248767 3.3796434e-05 5.2449348e-05 -0.00010286783 0.0018470607 0.00026243634
0.0005393708 0.0005983373 -0.0001799412 -0.0003022378 0.00038640862 0.0005349513 0.00014860103 -0.0022206896
-0.0019990515 -0.001701947 -0.00022614242 0.00028798977 -6.0058617e-05 -0.00028293868 -0.0002924188 1.8611234e-05
0.002612862 0.0018232006 0.0013527505 4.7524245e-05 -0.00022617623 -0.00012535225 -0.00036769177 0.0001912423
0.00049608113 0.0033529769 0.0013464603 0.0011801741 -0.0002881025 -0.00021224008 7.1882223e-06 0.0004047207

exp_avg_sq f4 [128, 9]
00000000: 85e4 7637 e8f7 7837 6223 f636 3cf1 1437
00000010: df44 2d38 a363 2e37 7718 5e39 0256 3b39
00000020: cd6b 9538 1877 7437 c13f 7c36 3189 b735
00000030: ce85 4836 224a 5537 7b0e 4e36 67b5 b836
00000040: deb6 8b37 dc42 9736 f495 8737 323a 6737
00000050: 7b46 bf36 4feb 4c37 9607 fd37 ca82 0d37
00000060: 4ef9 dc37 3565 2737 1040 e737 6fbc e635
00000070: aac0 ac35 75be 6e35 0eb7 4536 b53b 4535
00000080: 3db4 0736 c777 f536 8212 2335 0746 ab35
00000090: 5837 6036 b496 6936 8d8d 1836 f95f 5e36
000000a0: b8e4 c436 ab52 8036 6a30 5738 d947 ac37
000000b0: aab7 1c38 6334 e336 f583 a036 24aa 9935
000000c0: 9769 6f36 8f5b b336 9edf fd35 a91b 1037
000000d0: 64cb 2e37 ed51 2237 033e 7936 f976 6936
000000e0: 9a1b c735 13b3 3936 721d a336 c15a e135
000000f0: 44c8 4938 554c 0136 78f3 1338 00fb 3a37
00000100: 2183 0a37 662c 1336 1ccb 4036 3925 0237
00000110: 3fb5 1c36 dcfd f537 bb0f 1638 9e8b 9b36
00000120: eb25 2e37 cf3b f636 5316 2f36 3712 7e37
00000130: c85a 6e36 892e 2137 ebc9 4637 b65b 3237
00000140: a521 5b37 a64c 2537 c6ca 5537 f45b 1637
00000150: b04d 4937 1c2c a037 3e6a 8937 a15a b039
00000160: 5eab 8839 ff84 8139 b119 9137 a06f 9f37
00000170: 0704 a236 7987 e936 ed6f 2537 c17a cb36
00000180: 39c3 1f39 a6b6 dc38 2ee8 9138 be84 3a37
00000190: 8a74 fd36 aaed 5d36 2985 9436 b9b4 2c37
000001a0: e6ad ae36 28be a638 ece9 3e38 3d11 cb38
000001b0: ae85 6f36 7dee 8736 e57a 2136 87df b436
000001c0: c2bd 0336 72d3 5436 4fd1 0e39 fb19 ba38
000001d0: 1cee 6038 a729 5136 df33 4b36 064b 4336
000001e0: c777 3336 0fb7 9836 f106 9b36 0ccb e335
000001f0: 162a 8e36 fa49 e536 b91c a236 2504 8536
00000200: 74c5 3436 d0f4 ca36 9bb3 bd36 3d2c 6a36
00000210: 4444 9f38 8505 a837 4d9f 5438 dd85 5837
00000220: 6943 6c37 c730 f736 1fc4 0f37 764b 1a38
00000230: 166f f536 49e7 2239 7bad a938 f439 bf38
00000240: 7dc6 7f36 cc26 2236 2337 4935 140d c136
00000250: d3e5 6035 805c 1736 a5d2 6a37 e78c 0a37
00000260: 4ddd ab34 eb66 3337 60ea 2c37 9966 d836
00000270: 940c 0b37 1df2 9f37 a904 1737 3690 1039
00000280: 6f2e bc38 dace da38 07cd 0937 8e08 1736
00000290: eadd df35 b1ca 5936 aaae 3137 173a 6436
000002a0: 4ca0 d637 5796 0938 859b f637 2c04 9735
000002b0: 7c09 3835 f8c3 0035 87d0 fe35 d1e2 5235
000002c0: 2bf3 8135 2fa8 4336 c0fa 4237 abe0 d936
000002d0: ca8d 8537 a814 8337 3b65 2137 ff00 4437
000002e0: 17bc 2337 beeb ed36 0099 c738 a3c4 d438
000002f0: 7321 ac38 416f 0337 9491 e936 48b2 4536
00000300: 8ba7 d436 89ee cf36 bf59 6636 07a1 1f38
00000310: cbb5 8b38 8bdc 3f38 ccf5 8836 eb1d ac36
00000320: e1e2 6d36 3090 8536 3f8f 6c37 52ee a236
00000330: ffdb 2a38 cb6a 7e37 d859 7938 2f31 d037
00000340: 5c35 cc37 bed5 e636 42e7 dd36 687c bd37
00000350: 5a7f 9436 153e 6137 8627 9b37 cc8d a537
00000360: 8969 e736 3b84 8c36 fc29 3536 d94a 2737
00000370: aae4 9336 49cd 8436 6b93 f837 3bf7 6d36
00000380: 6e61 2238 54c5 a336 9933 c336 41e8 5d36
00000390: 6de4 9d36 190c 6d36 648f b136 0ca7 b338
000003a0: f01f 1f38 90fa 8038 ff14 d936 a824 9e36
000003b0: 890d 4f36 2520 2437 21e6 9836 58dd 8536
000003c0: e44b bd38 0600 6438 d2e4 9138 cdf3 2737
000003d0: 7a62 1337 fde1 7936 2d1b bd36 a252 6b37
000003e0: 9dcf 9a36 1396 ef38 b2a6 e537 2c4c 8637
000003f0: 396f dd36 ffb3 7f36 166f 8836 f513 dc36
1.4715949e-05 1.4839672e-05 7.3354904e-06 8.877654e-06 4.1310555e-05 1.0394407e-05 0.00021180684 0.0001786575
7.124953e-05 1.4571262e-05 3.7588036e-06 1.367449e-06 2.9880207e-06 1.271305e-05 3.070482e-06 5.5047453e-06
1.6655245e-05 4.507934e-06 1.6163081e-05 1.3782223e-05 5.7004486e-06 1.2214135e-05 3.0163483e-05 8.434707e-06
2.6342135e-05 9.97754e-06 2.7567177e-05 1.7191177e-06 1.2871071e-06 8.893906e-07 2.946184e-06 7.3475104e-07
2.022148e-06 7.315513e-06 6.0749164e-07 1.2760873e-06 3.3410815e-06 3.4807426e-06 2.2732158e-06 3.3136441e-06
5.8678816e-06 3.824321e-06 5.1305084e-05 2.0537454e-05 3.736435e-05 6.771226e-06 4.7837334e-06 1.1448906e-06
3.5675237e-06 5.3452745e-06 1.891505e-06 8.589509e-06 1.0418564e-05 9.675027e-06 3.7139987e-06 3.4788957e-06
1.4834688e-06 2.7671383e-06 4.8612064e-06 1.6790219e-06 4.8108646e-05 1.926693e-06 3.527428e-05 1.1144904e-05
8.255972e-06 2.193055e-06 2.8728455e-06 7.75727e-06 2.335131e-06 2.9324488e-05 3.5777437e-05 4.6356135e-06
1.0380037e-05 7.338334e-06 2.6090026e-06 1.5143821e-05 3.5517605e-06 9.607183e-06 1.1848732e-05 1.063098e-05
1.3061251e-05 9.8526125e-06 1.2743001e-05 8.962106e-06 1.1998622e-05 1.9094026e-05 1.6381146e-05 0.0003363686
0.0002606762 0.00024703887 1.729731e-05 1.9006256e-05 4.828445e-06 6.959712e-06 9.860826e-06 6.064162e-06
0.00015236148 0.000105244384 6.9573856e-05 1.111737e-05 7.5535545e-06 3.3069905e-06 4.4262456e-06 1.0294077e-05
5.2058485e-06 7.950916e-05 4.5517387e-05 9.683005e-05 3.5691587e-06 4.051077e-06 2.4062404e-06 5.39044e-06
1.9630975e-06 3.171354e-06 0.00013620149 8.8740104e-05 5.362752e-05 3.1167672e-06 3.027955e-06 2.9100934e-06
2.6742798e-06 4.551264e-06 4.620168e-06 1.6971912e-06 4.236829e-06 6.833344e-06 4.83132e-06 3.9641914e-06
2.6937023e-06 6.048569e-06 5.6535478e-06 3.4894467e-06 7.594426e-05 2.002973e-05 5.06931e-05 1.2905771e-05
1.4082391e-05 7.366852e-06 8.569127e-06 3.678674e-05 7.314501e-06 0.00015535684 8.090861e-05 9.118384e-05
3.8113496e-06 2.4162464e-06 7.495857e-07 5.7533707e-06 8.378094e-07 2.2554595e-06 1.3996531e-05 8.258247e-06
3.201225e-07 1.0693194e-05 1.0306569e-05 6.4492456e-06 8.287974e-06 1.906702e-05 9.001386e-06 0.00013786633
8.9731875e-05 0.00010433579 8.213573e-06 2.2505733e-06 1.667938e-06 3.2453502e-06 1.0590689e-05 3.400846e-06
2.5585432e-05 3.280336e-05 2.9397905e-05 1.1251591e-06 6.8559143e-07 4.796889e-07 1.8985164e-06 7.856116e-07
9.68202e-07 2.915516e-06 1.1621683e-05 6.4932588e-06 1.5920861e-05 1.5626036e-05 9.619917e-06 1.1682742e-05
9.75935e-06 7.0905944e-06 9.517558e-05 0.00010145574 8.2078295e-05 7.834112e-06 6.9608886e-06 2.945906e-06
6.337597e-06 6.19685e-06 3.432491e-06 3.8058522e-05 6.661898e-05 4.5743345e-05 4.0817304e-06 5.1294824e-06
3.5447813e-06 3.9804945e-06 1.4100048e-05 4.8557204e-06 4.0736046e-05 1.5164444e-05 5.94499e-05 2.4818435e-05
2.4343542e-05 6.879417e-06 6.613235e-06 2.2588487e-05 4.4255694e-06 1.34255e-05 1.8495844e-05 1.9735562e-05
6.8966224e-06 4.187719e-06 2.699554e-06 9.9714025e-06 4.4075614e-06 3.957805e-06 2.963255e-05 3.545966e-06
3.871455e-05 4.8807506e-06 5.8174596e-06 3.3066756e-06 4.705557e-06 3.5322794e-06 5.291704e-06 8.5665e-05
3.79383e-05 6.1501865e-05 6.469548e-06 4.7130343e-06 3.0853282e-06 9.782646e-06 4.5567435e-06 3.9894767e-06
9.026358e-05 5.4359458e-05 6.95676e-05 1.001074e-05 8.784811e-06 3.7235434e-06 5.6358026e-06 1.4026331e-05
4.613727e-06 0.000114243616 2.737655e-05 1.6009515e-05 6.5992613e-06 3.8102733e-06 4.066048e-06 6.5588342e-06

exp_avg f4 [128]
00000000: c4d5 a43a 2d0a 663a b348 a2ba 084c b8b8
00000010: 5f39 1b3b 362c 3439 2595 ebba 2919 073b
00000020: c470 2b3a 395c d33b 115e 48bb eb0b 643a
00000030: 6759 73bb 1be2 3639 5ffd b5ba aea5 3b3b
00000040: d7ca fab7 2890 403b 1198 d238 a141 a938
00000050: 612b 94bb db00 9e3a 5aea cbba f1e6 7c38
00000060: a4ff 97b7 83a4 99b9 c844 973a 00e8 863a
00000070: 02d0 4fb9 cbe7 61bb d3f3 8f3a 4dfa 8c3b
00000080: 4742 c4ba 6542 23bb bf85 833a 374b 17ba
00000090: 5f7d 1e3a 4f49 0b3a b630 96ba efe0 50bb
000000a0: 5ffc 2bba fae8 ddb9 0d59 71bb 1717 05ba
000000b0: a884 ffb9 8ab1 a63b c34c 4fba c0ca e53a
000000c0: 94fe ab39 f614 37b9 1adf 453b 5819 b7ba
000000d0: 7ab7 d73a 83a1 a8ba a52c 50ba 9351 6bbb
000000e0: e8b3 8bba 3e60 f138 c49a 1cbb 0ded f439
000000f0: dc84 98b9 0665 d13a 7216 2cb8 cd5c 093b
00000100: 302a f339 1f1b e7ba 527d 75ba 7ac6 0d3a
00000110: f775 eeba e0f0 5bba 2a43 b63b 5666 ffb9
00000120: 8cd6 47bb 7ef7 cb3a ae99 58b8 61a8 0bba
00000130: b3fa adb9 92b4 793a 97ba 2db8 a920 fcb9
00000140: de6b 5f3a 5e04 1bbb c1ad 9cb9 dfa7 bbb9
00000150: 0142 6538 4051 043a c007 37ba 4cb3 2339
00000160: a1aa 063b 7e1e 80bb 7f61 1a3b 0ed7 37ba
00000170: ad52 9a3a 36e8 e339 50e9 1d3b 6fe1 143b
00000180: 7d26 6ebb 1d2c ae3a 5372 40bb 11dd 003b
00000190: 42fa b7ba 6d80 963a b616 f8bb feb4 8a3a
000001a0: 4382 e2ba 4999 2d3b 6aad bab9 2431 5dbb
000001b0: 4ee3 40ba 65bc a93a 1c39 35ba e6f3 023b
000001c0: d06a 9139 22f0 613a 7526 deba efd2 9bba
000001d0: deb9 a63a 87b8 d03a a2b5 d7ba 9a1b 5d3a
000001e0: b6d7 9e3a 9973 263a 25f4 d63b d52c 2e3a
000001f0: 5ebc 8eba 0e10 223b a144 2eba 33e6 98b9
0.0012575914 0.000877532 -0.0012381285 -8.7879656e-05 0.002368532 0.00017182608 -0.0017973526 0.0020614362
0.0006539936 0.006450203 -0.0030573646 0.00086992857 -0.0037132145 0.00017441103 -0.0013884715 0.0028632688
-2.9896777e-05 0.0029382799 0.00010041905 8.070772e-05 -0.0045217727 0.0012054698 -0.0015557513 6.0296563e-05
-1.8119645e-05 -0.00029305005 0.0011540884 0.001029253 -0.00019818547 -0.0034470435 0.00109827 0.004302299
-0.0014973365 -0.00249114 0.0010034366 -0.0005771401 0.00060459034 0.0005313353 -0.0011458609 -0.0031872352
-0.00065607385 -0.00042325986 -0.003682676 -0.0005076988 -0.00048736227 0.0050870823 -0.0007907862 0.0017531738
0.00032805337 -0.00017460049 0.0030192793 -0.0013969345 0.0016457879 -0.0012865517 -0.0007941223 -0.0035906776
-0.0010658475 0.00011509702 -0.0023895958 0.00046715923 -0.00029090687 0.0015975542 -4.10289e-05 0.0020959855
0.00046380004 -0.0017631984 -0.00093646825 0.00054082985 -0.0018193115 -0.000839008 0.005562206 -0.00048713636
-0.003049287 0.0015561429 -5.164154e-05 -0.00053275196 -0.00033183917 0.0009525503 -4.142019e-05 -0.0004808952
0.00085228484 -0.0023653726 -0.00029884095 -0.00035792493 5.4659326e-05 0.00050475076 -0.0006982051 0.00015611685
0.002054848 -0.003909885 0.0023556647 -0.00070129416 0.0011773907 0.00043469825 0.0024095364 0.0022717377
-0.0036338859 0.0013288293 -0.0029365018 0.0019663016 -0.0014036375 0.0011482366 -0.0075710667 0.0010582504
-0.0017281253 0.002648907 -0.00035605888 -0.0033751214 -0.000735809 0.0012949823 -0.0006913112 0.00199818
0.00027736137 0.00086188514 -0.0016948717 -0.0011888425 0.0012720188 0.0015924134 -0.0016457329 0.0008434594
0.001211873 0.0006349623 0.006559866 0.0006644254 -0.0010889878 0.0024728808 -0.00066478 -0.0002916321

exp_avg_sq f4 [128]
00000000: df20 bb38 736c 9137 7ba4 8337 8023 bd36
00000010: 9f40 bf37 d7a5 8636 5bd5 b637 8ae8 c337
00000020: 6edb e336 68fb 0e39 f41f 7638 f5c5 2838
00000030: 7c16 3d38 a6db f036 b9eb 3a38 369b 9138
00000040: 092e f036 0b7c 5a38 3086 8437 597f 0337
00000050: cd05 7438 3791 e237 9025 d937 da4d 4337
00000060: 7b4a c737 77e1 0c38 ad61 1238 26a6 3a38
00000070: c320 7838 d117 2338 3a96 6e37 13af 4238
00000080: 25d3 0437 c2b8 9137 3a79 6f37 df1a 9636
00000090: a1e9 1637 1d65 b436 9cd8 4437 b274 3538
000000a0: cc39 5738 3368 5138 0755 b538 194b 7e36
000000b0: 1e4f 6e37 16bb a538 ed00 3436 7604 c237
000000c0: 296f 0537 c7a7 fc37 b7a5 5338 97eb 5838
000000d0: d6f6 0938 2bb0 cd36 7f85 f236 85c0 1b38
000000e0: cc21 f736 514d 9736 e8c3 ed37 1c1d 1d37
000000f0: 5e30 6135 0076 0038 b3a4 bb37 9e4e e937
00000100: 3968 b136 fdc9 3a37 6951 1237 8f30 2537
00000110: bf0f c337 34d2 3837 dcfd ea38 cd37 a235
00000120: bec3 2b38 eca6 af37 9e94 8838 b499 bd36
00000130: a85f ad36 0e7d a937 eed8 8236 7bde 6b38
00000140: f509 1237 1f93 0138 106b 2637 41b4 a636
00000150: 4cea 3935 bda8 2b37 a68a b037 d18f 0337
00000160: 70a8 3e38 7753 7038 0fbe 3338 176f 3337
00000170: 0a3b 8d37 b6ed 4f37 66a4 0938 d3ec 7b38
00000180: 52f6 9338 12d5 0437 b003 d937 7f72 de37
00000190: c26b 8938 1334 a437 8c12 1339 b925 0f37
000001a0: 8dfb 9238 e6d7 8338 b199 0f37 37d4 4838
000001b0: 51cb 1138 5863 3037 3e9b 8436 e8bb 5e37
000001c0: c98e fc36 8ed9 c337 fc24 1738 4fe2 eb36
000001d0: f6f9 ca37 7f06 cd37 6d3d 1238 7ecf 0237
000001e0: 490e c236 4ee6 2437 a5b1 0c39 2a66 0038
000001f0: eeb1 4037 6699 0438 32a2 9a37 efca cd37
8.9229776e-05 1.7335848e-05 1.569301e-05 5.6367717e-06 2.2799066e-05 4.0128175e-06 2.1795442e-05 2.3354096e-05
6.790672e-06 0.00013635831 5.868073e-05 4.0238683e-05 4.508205e-05 7.178128e-06 4.456539e-05 6.943049e-05
7.1579166e-06 5.2090774e-05 1.5798112e-05 7.837859e-06 5.8179536e-05 2.700892e-05 2.5885907e-05 1.1641032e-05
2.3757331e-05 3.358858e-05 3.490008e-05 4.4500594e-05 5.915832e-05 3.888441e-05 1.4220883e-05 4.6416255e-05
7.916974e-06 1.7371382e-05 1.4273735e-05 4.4734766e-06 8.995093e-06 5.376189e-06 1.1732944e-05 4.3262444e-05
5.1313822e-05 4.9926526e-05 8.64659e-05 3.7892662e-06 1.4204326e-05 7.9026606e-05 2.682263e-06 2.312868e-05
7.953299e-06 3.0118868e-05 5.0460654e-05 5.1717823e-05 3.289323e-05 6.1299847e-06 7.227703e-06 3.7134178e-05
7.365108e-06 4.5091515e-06 2.8343828e-05 9.364707e-06 8.3889415e-07 3.0627474e-05 2.2368831e-05 2.7812373e-05
5.287144e-06 1.1133493e-05 8.721233e-06 9.846072e-06 2.3253144e-05 1.1016196e-05 0.000112052745 1.2086181e-06
4.0951876e-05 2.0939355e-05 6.5126675e-05 5.6505323e-06 5.1669376e-06 2.0204603e-05 3.899556e-06 5.6235567e-05
8.704596e-06 3.0893014e-05 9.9192985e-06 4.96817e-06 6.925882e-07 1.0231682e-05 2.1045398e-05 7.841693e-06
4.54564e-05 5.729819e-05 4.285393e-05 1.06950965e-05 1.6836002e-05 1.2393508e-05 3.2816453e-05 6.0063623e-05
7.055387e-05 7.917422e-06 2.5870133e-05 2.6517779e-05 6.5527405e-05 1.9574572e-05 0.00014025922 8.532247e-06
7.0086775e-05 6.286781e-05 8.559248e-06 4.7881356e-05 3.4760047e-05 1.0513548e-05 3.951979e-06 1.32759815e-05
7.5268076e-06 2.3347118e-05 3.603565e-05 7.0298915e-06 2.4196674e-05 2.444093e-05 3.486632e-05 7.796914e-06
5.7833136e-06 9.828784e-06 0.00013417618 3.0612726e-05 1.1485519e-05 3.1614116e-05 1.8433759e-05 2.4532403e-05
