ML-Agents/Examples/results/PlaneBalancer/PlaneBalancerAgent/PlaneBalancerAgent-8799761.onnx (onnx, 76634 bytes, 7 tensors)

network_body._body_endoder.seq_layers.0.weight f4 [128, 9]
0.5634358 -0.38967788 -0.80876535 0.88512737 -0.21883453 0.09003609 0.3805959 0.19570123
-0.24660426 0.77564484 -0.4916659 0.30726033 -0.7826991 -0.102103844 -0.19509944 -0.37878782
0.063204184 -0.3760348 -0.26500878 0.19561078 0.70271415 0.34060913 -0.30709714 -0.12106636
-0.13648884 -0.4021263 0.12641811 0.06578609 -0.25296536 0.43459216 -0.25235263 0.30196193
0.43397802 -0.09499892 -0.45597634 -0.2937308 -0.17343213 -0.21435429 -0.062595926 0.025877602
-0.026618108 -0.54433066 0.41757286 -0.41173363 0.18047296 0.44952247 0.14018477 0.53704447
0.027653016 0.12754507 -0.3611796 0.14222312 0.17574388 0.50200117 0.09636512 -0.15006031
0.027961718 0.57710826 0.04383803 0.39496905 0.1278994 -0.5462619 0.12692226 0.095939115
0.050976586 0.1750833 -0.67808604 -0.24677882 -0.5942334 0.08002689 0.36418104 -0.6452211
-0.12953526 0.0796354 0.24740171 0.33677202 0.16019678 -0.056088004 0.1447569 -0.14137626
0.54899013 -0.59288675 -0.07931337 -0.91115046 -0.3990891 0.20691982 -0.30450174 0.46796137
0.092755355 0.0038394963 -0.049842637 0.3712531 0.2542785 -0.39990604 0.35758933 0.4502333
0.48313758 0.11374362 -0.20481028 0.6790893 -0.12099831 -0.2765337 -1.2597973 0.15887444
0.23896374 0.13595197 -0.28354624 0.28337628 -0.3668994 -0.18976067 0.3001048 0.6344717
0.6415701 0.8236128 0.37295547 -0.0039434936 -0.19200286 -0.09148649 0.14419477 -0.26949883
-0.5846464 0.022902697 -0.982673 -0.31687915 -0.29736543 -0.113972165 0.29681683 -0.3246916
-0.19963099 0.48783126 0.14071974 0.019710958 0.139798 -0.29262817 0.083965585 0.28698242
-0.12678413 -0.38401404 0.45631754 -0.25359362 -0.37154803 0.30723667 -0.14204013 -0.04047769
0.049236286 0.010187319 0.17930195 0.26000947 0.18321027 -0.32140636 0.37234247 -0.07672482
-0.6745221 0.8065444 -0.43678576 0.2876378 0.27722827 0.07636433 -0.5765684 0.7987584
-0.15469393 0.4839762 0.35150784 -0.55011237 0.020565849 -1.001594 -0.28896004 0.062035978
0.1030428 0.19110087 0.052600987 0.22226995 -0.23868787 0.050082725 0.15746397 0.18143804
-0.3350232 -0.33306253 0.1960581 -0.0033993165 0.56045645 0.50626254 -0.23875307 -0.28988335
0.2749083 1.2764698 -0.12718576 0.051872868 -0.081430376 -0.10870517 0.02077508 -0.22534077
0.7182292 0.100483626 -0.41269046 -0.06132227 0.29162425 0.2948466 -0.07311655 0.035329312
0.16070712 -0.33881524 -0.36561844 0.93886405 -0.11695087 -0.30896866 0.20061162 0.44832376
1.02 -0.005880197 -0.18092819 -0.010923856 -0.16938719 -0.34716418 0.20348194 0.2351413
0.18398276 -0.34131363 -0.4350674 0.5129973 0.162667 0.001266477 0.0068877297 -0.4798594
0.16343217 -0.3372565 0.24155714 0.023621693 -0.36119765 0.44040328 0.16752946 0.45971787
-0.1634513 0.23707658 0.06501966 -0.6734291 -0.33215868 0.73444456 0.42037767 -0.22138639
0.69571877 -0.25235337 0.5561077 0.20517613 -0.118479446 -0.26201904 0.48811975 -0.1378044
-0.64955527 0.58611375 -0.40762913 -0.44297847 0.39796105 -1.1892271 0.05239065 0.40354913
00000000: 543d 103f dc83 c7be 3f0b 4fbf b597 623f
00000010: 2916 60be d764 b83d 77dd c23e e765 483e
00000020: d485 7cbe a990 463f a2bb fbbe 3a51 9d3e
00000030: f85e 48bf d21b d1bd 26c8 47be 7af0 c1be
00000040: 3271 813d a287 c0be 3baf 87be 314e 483e
00000050: 13e5 333f 5264 ae3e d63b 9dbe a4f1 f7bd
00000060: bbc3 0bbe 80e3 cdbe c073 013e dcba 863d
00000070: ad84 81be dd82 de3e 5d34 81be c19a 9a3e
00000080: 5e32 de3e cb8e c2bd bb75 e9be e263 96be
00000090: 3198 31be b17f 5bbe 4b32 80bd 44fd d33c
000000a0: 380e dabc 4159 0bbf 1ccc d53e c0ce d2be
000000b0: e7cd 383e cf27 e63e 998c 0f3e bf7b 093f
000000c0: 9488 e23c 2d9b 023e 88ec b8be f0a2 113e
000000d0: 34f6 333e 2683 003f 135b c53d 69a9 19be
000000e0: f90f e53c 5ebd 133f 828f 333d 6239 ca3e
000000f0: 0ff8 023e d2d7 0bbf e9f7 013e ba7b c43d
00000100: d3cc 503d 0949 333e 0c97 2dbf 96b3 7cbe
00000110: ae1f 18bf 23e5 a33d f075 ba3e 362d 25bf
00000120: e4a4 04be e217 a33d e056 7d3e 626d ac3e
00000130: a00a 243e 89bc 65bd 273b 143e f0c4 10be
00000140: 9e8a 0c3f 6dc7 17bf 0c6f a2bd 2841 69bf
00000150: 6855 ccbe cae2 533e a7e7 9bbe a298 ef3e
00000160: 85f6 bd3d 0fa0 7b3b cb27 4cbd e314 be3e
00000170: cb30 823e 7cc0 ccbe f315 b73e fb84 e63e
00000180: cf5d f73e 6af2 e83d c9b9 51be ccd8 2d3f
00000190: f6cd f7bd d395 8dbe 0a41 a1bf fbaf 223e
000001a0: e9b2 743e fe36 0b3e f92c 91be b216 913e
000001b0: 3dda bbbe 9f50 42be 56a7 993e bd6c 223f
000001c0: f03d 243f 4ad8 523f 05f4 be3e 6c38 81bb
000001d0: 669c 44be 455d bbbd cba7 133e c0fb 89be
000001e0: 63ab 15bf 709e bb3c 7590 7bbf fc3d a2be
000001f0: 4840 98be 3d6a e9bd 60f8 973e fa3d a6be
00000200: 116c 4cbe 05c5 f93e d618 103e e078 a13c
00000210: 3527 0f3e 5cd3 95be 26f6 ab3d 5cef 923e
00000220: b3d3 01be 7d9d c4be 74a2 e93e 06d7 81be
00000230: 8b3b bebe 204e 9d3e f872 11be efcb 25bd
00000240: fdab 493d b6e8 263c ee9a 373e f61f 853e
00000250: 799b 3b3e 608f a4be aca3 be3e e721 9dbd
00000260: 7bad 2cbf b279 4e3f 62a2 dfbe 4345 933e
00000270: ddf0 8d3e e764 9c3d fd99 13bf 6e7b 4c3f
00000280: 1668 1ebe bacb f73e d6f8 b33e 2ad4 0cbf
00000290: b679 a83c 3b34 80bf 92f2 93be 7019 7e3d
000002a0: 1b08 d33d f2af 433e 2274 573d bc9a 633e
000002b0: 986a 74be 8b23 4d3d 3c3e 213e e5ca 393e
000002c0: 2988 abbe 2c87 aabe 74c3 483e 11c7 5ebb
000002d0: 137a 0f3f 6c9a 013f af7b 74be 976b 94be
000002e0: c8c0 8c3e 5d63 a33f fc3c 02be a578 543d
000002f0: f8c4 a6bd d1a0 debd 8030 aa3c bbbf 66be
00000300: dedd 373f 5cca cd3d 2a4c d3be 102d 7bbd
00000310: c64f 953e 22f6 963e 21be 95bd 78b5 103d
00000320: 6890 243e 3179 adbe 5732 bbbe 6559 703f
00000330: f083 efbd 2431 9ebe 226d 4d3e b18a e53e
00000340: 5c8f 823f abae c0bb 3d45 39be f9f9 32bc
00000350: d673 2dbe 81bf b1be 925d 503e e2c8 703e
00000360: fa65 3c3e a9c0 aebe 27c1 debe cb53 033f
00000370: 2e92 263e ebff a53a 77b2 e13b 22b0 f5be
00000380: c35a 273e e2ac acbe c15a 773e 4882 c13c
00000390: e6ee b8be 8a7c e13e d88c 2b3e 2460 eb3e
000003a0: c75f 27be 34c4 723e 0729 853d d965 2cbf
000003b0: b410 aabe 8f04 3c3f be3b d73e 1db3 62be
000003c0: a01a 323f 7634 81be 135d 0e3f b119 523e
000003d0: 5aa5 f2bd 5c27 86be d5ea f93e 991c 0dbe
000003e0: 4149 26bf 8d0b 163f c4b4 d0be 13ce e2be
000003f0: 8dc1 cb3e 9838 98bf 9497 563d fe9d ce3e

network_body._body_endoder.seq_layers.0.bias f4 [128]
-0.09157399 -0.08858368 -0.08781212 -0.047657058 -0.06975217 -0.09399592 -0.11515884 0.0063095395
-0.16706046 -0.079719454 0.04530033 -0.12950653 -0.08573467 -0.058055975 -0.05732791 -0.113901526
-0.17438807 -0.08064712 -0.15332843 -0.13534464 0.09124481 -0.13084087 -0.11299098 -0.21471198
-0.08332648 -0.092054516 -0.09865208 -0.06702042 -0.116107516 0.011496399 -0.017671315 -0.18607895
-0.098943606 -0.062032133 -0.002218268 -0.13846117 0.012767404 -0.05206795 -0.160912 -0.09726989
-0.04837533 0.06560311 0.0042393235 -0.14792435 -0.12788701 0.026942994 -0.19462784 -0.17600632
-0.12834796 -0.14448766 -0.11788459 -0.06343725 -0.08082531 -0.06843835 -0.17249158 -0.066146016
-0.09749833 -0.0992694 -0.14947154 -0.13561055 -0.22034164 -0.07613796 -0.14505428 -0.13953389
-0.13814048 -0.12112804 -0.14749542 -0.11840473 -0.015334374 -0.13355023 -0.027084256 -0.10874835
-0.14335938 -0.10282723 -0.076591164 -0.13058977 -0.15630321 -0.08787927 -0.062098272 -0.1533022
-0.07648867 -0.07817163 -0.17145675 -0.17636424 -0.12616225 -0.1685772 -0.1124926 -0.0748
-0.060033694 -0.14774202 -0.15571746 -0.06818778 -0.14258972 -0.031284235 -0.025997322 -0.11470187
-0.04387103 -0.14646879 -0.10443095 0.07473957 -0.03376294 -0.1806138 0.06333365 -0.087567344
-0.040772174 -0.20249125 -0.14467855 -0.14433025 -0.11424832 -0.09157561 -0.108796276 -0.08866507
-0.00022110906 -0.08686424 -0.040086005 -0.13834193 -0.083831 -0.12197664 0.10802589 -0.105789125
-0.20355421 -0.08994023 -0.017744454 -0.19593595 -0.1559091 -0.15131386 -0.087818615 -0.087835774
00000000: 258b bbbd 5c6b b5bd d7d6 b3bd 0c34 43bd
00000010: 3ada 8ebd ef80 c0bd 66d8 ebbd 41c0 ce3b
00000020: e611 2bbe f443 a3bd d78c 393d 5c9d 04be
00000030: a995 afbd 1acc 6dbd acd0 6abd 3445 e9bd
00000040: c992 32be 512a a5bd 2102 1dbe c997 0abe
00000050: 8fde ba3d 26fb 05be d167 e7bd 75dd 5bbe
00000060: 13a7 aabd 1487 bcbd 1a0a cabd 0142 89bd
00000070: c7c9 edbd 645b 3c3c 6fc3 90bc 7b8b 3ebe
00000080: f2a2 cabd 6815 7ebd 5d60 11bb c4c8 0dbe
00000090: 602e 513c 3445 55bd 1ec6 24be 7035 c7bd
000000a0: 3625 46bd ec5a 863d 06ea 8a3b 7b79 17be
000000b0: d0f4 02be 8eb7 dc3c 854c 47be 003b 34be
000000c0: a66d 03be 93f4 13be 7a6d f1bd 64eb 81bd
000000d0: bd87 a5bd 6829 8cbd a2a1 30be 9077 87bd
000000e0: 34ad c7bd c14d cbbd 110f 19be 7edd 0abe
000000f0: 3da1 61be 38ee 9bbd 1c89 14be f9e1 0ebe
00000100: b374 0dbe fa11 f8bd 0a09 17be 2e7e f2bd
00000110: 073d 7bbc 64c1 08be cddf ddbc 74b7 debd
00000120: cdcc 12be 1597 d2bd d4db 9cbd 53b9 05be
00000130: f30d 20be 0cfa b3bd c25a 7ebd 40fb 1cbe
00000140: 18a6 9cbd 7318 a0bd 5c92 2fbe d498 34be
00000150: ad30 01be 809f 2cbe 8562 e6bd be30 99bd
00000160: e4e5 75bd af49 17be 6674 1fbe 09a6 8bbd
00000170: 0a03 12be e623 00bd 56f8 d4bc d0e8 eabd
00000180: 1cb2 33bd eafb 15be e5df d5bd 0f11 993d
00000190: 024b 0abd d3f2 38be 13b5 813d 8256 b3bd
000001a0: b900 27bd de59 4fbe 9d26 14be 4fcb 13be
000001b0: 06fb e9bd fe8b bbbd 95d0 debd 0896 b5bd
000001c0: 83d9 67b9 e1e5 b1bd 3931 24bd 82a9 0dbe
000001d0: 96af abbd e3ce f9bd ae3c dd3d f8a7 d8bd
000001e0: 8470 50be 9532 b8bd d15c 91bc 6fa3 48be
000001f0: a3a6 1fbe 05f2 1abe 3fda b3bd 3ee3 b3bd

network_body._body_endoder.seq_layers.2.weight f4 [128, 128]
-0.10842345 -0.22081284 0.09130575 -0.11381594 -0.17836237 0.0505203 -0.055746447 -0.18827455
-0.21900967 -0.091532886 0.023849834 -0.07308839 0.100670464 -0.097727805 0.05132546 -0.055443343
-0.011239417 -0.0026759326 -0.03755042 -0.09846824 0.1400539 -0.11909346 -0.041463885 0.14651494
-0.07581159 -0.026364014 0.053376775 0.058870398 -0.06573146 -0.09805327 -0.042571712 -0.23681979
0.14118063 0.026563847 -0.044278428 -0.039091166 -0.22899158 -0.21626619 0.008459105 -0.012003722
0.018214509 0.0012967882 -0.02660897 0.04990623 -0.17203869 -0.18590714 -0.101011865 0.07769539
-0.045362275 -0.0059811044 -0.05970033 0.11674902 0.017426655 0.109096736 -0.18930165 0.080347724
0.028356807 0.031942215 0.009235109 0.0039876155 0.025448788 -0.21131064 -0.07904503 0.094231986
0.121534 0.012676981 0.04054836 -0.05458388 -0.1735535 -0.031179326 -0.07180761 -0.09703381
-0.0070182923 0.030110214 -0.123205855 -0.06798675 0.050134998 0.15181227 -0.062136885 -0.019792309
-0.22064795 0.010110908 0.08926687 -0.109595545 -0.27446106 -0.0092306305 0.11159288 0.14942166
-0.023183146 0.08018545 0.04079396 0.034044765 0.12727608 -0.16752267 0.079569705 -0.039064992
-0.048728053 -0.057432868 -0.08774585 0.111987 0.060325 0.08604233 0.10355317 0.028789805
-0.027435893 0.088707455 -0.04476679 0.021428926 0.036468048 -0.2206862 0.13234346 -0.1868222
0.18732522 -0.107430935 0.10503626 0.16607124 0.042264692 -0.037722863 -0.03850076 0.10772996
-0.035380673 0.07934679 -0.23818518 -0.04747401 -0.02037365 -0.3346001 0.10005909 -0.18001536
-0.13214128 -0.00034215036 -0.15944669 -0.13795859 -0.008385966 -0.032751065 -0.076967865 0.055044673
-0.011389359 -0.025725072 -0.00034783233 -0.22147869 -0.18542519 0.31249818 -0.28854197 -0.01617776
-0.16159315 0.013120109 -0.061763193 -0.10972761 -0.032998975 -0.02428182 -0.2295558 0.067717545
-0.20460545 0.076817825 0.009835386 -0.08234015 -0.20419963 -0.054254986 0.0891547 -0.087903254
0.06695788 -0.08243022 -0.046205685 -0.19613907 -0.03287469 -0.11133993 -0.07736238 -0.32958943
0.1334448 0.05068498 -0.41303524 -0.18814638 0.024082474 -0.105468996 -0.16206372 0.044304952
-0.07452305 -0.1349249 -0.0853257 0.0016536701 0.029791864 0.17376727 -0.08515767 -0.08601639
0.024704522 0.046934593 -0.07406078 -0.18455823 -0.020423299 0.039747953 -0.034929305 -0.076990694
0.07394782 -0.13569598 -0.22376443 -0.12504455 -0.008240545 -0.06921004 0.22326568 -0.013090144
-0.117894456 0.1646492 -0.16586435 -0.03761038 -0.14432253 0.074020505 -0.005502514 -0.08224241
0.015903762 -0.27533382 -0.0055486495 -0.07133026 -0.062460333 0.09731622 -0.020938694 -0.045246363
0.11478936 -0.328413 -0.07177066 -0.13633041 -0.10906046 0.032524478 0.10459019 -0.12264977
-0.23895942 0.036421914 -0.1381828 0.26593658 0.05851301 0.07636027 -0.0070490637 -0.24385221
-0.0443883 -0.09802134 -0.06842383 -0.1255685 0.054558367 0.02042984 -0.031293463 -0.12684034
0.15533699 -0.083536774 -0.11484676 0.015969696 0.038420033 -0.04340865 -0.112291574 0.03487767
0.056809515 -0.09544339 -0.055344455 -0.10814578 -0.18749635 -0.014221251 0.021528726 -0.1458617
00000000: 1d0d debd c31c 62be 82fe ba3d 5518 e9bd
00000010: a0a4 36be 60ee 4e3d 6356 64bd 0bcb 40be
00000020: 1244 60be 9875 bbbd ba60 c33c 5eaf 95bd
00000030: 512c ce3d 8425 c8bd a53a 523d 8f18 63bd
00000040: 8825 38bc b35e 2fbb 78ce 19bd b7a9 c9bd
00000050: 4a6a 0f3e 46e7 f3bd 09d6 29bd 0308 163e
00000060: 1b43 9bbd 58f9 d7bc 9ba1 5a3d 1622 713d
00000070: 379e 86bd 27d0 c8bd ad5f 2ebd e380 72be
00000080: a891 103e 6d9c d93c 4c5d 35bd 0f1e 20bd
00000090: c57c 6abe e274 5dbe 0f98 0a3c 42ab 44bc
000000a0: 9836 953c fef8 a93a 0efb d9bc 7a6a 4c3d
000000b0: e92a 30be 715e 3ebe 4fdf cebd c31e 9f3d
000000c0: cbcd 39bd 24fd c3bb 5588 74bd 1c1a ef3d
000000d0: 58c2 8e3c 1c6e df3d 4bd8 41be 598d a43d
000000e0: 894c e83c d7d5 023d db4e 173c 8baa 823b
000000f0: fa79 d03c d161 58be 5ce2 a1bd b3fc c03d
00000100: d1e6 f83d 1db3 4f3c 0a16 263d 5993 5fbd
00000110: 02b8 31be c96b ffbc de0f 93bd aab9 c6bd
00000120: b4f9 e5bb b2a9 f63c 5a53 fcbd a33c 8bbd
00000130: 5b5a 4d3d ad74 1b3e 3f83 7ebd 7b23 a2bc
00000140: 89f1 61be 39a8 253c 8cd1 b63d a173 e0bd
00000150: 2986 8cbe 123c 17bc cf8a e43d fe01 193e
00000160: 95ea bdbc 4538 a43d 9117 273d 8672 0b3d
00000170: a954 023e 108b 2bbe 71f5 a23d 9d02 20bd
00000180: 1197 47bd ba3e 6bbd 19b4 b3bd 7159 e53d
00000190: 5917 773d f636 b03d af13 d43d 99d8 eb3c
000001a0: 3dc1 e0bc 41ac b53d 625d 37bd b78b af3c
000001b0: 855f 153d 90fb 61be 0b85 073e 524e 3fbe
000001c0: 2fd2 3f3e c004 dcbd 401d d73d 940e 2a3e
000001d0: be1d 2d3d 4a83 1abd f9b2 1dbd 86a1 dc3d
000001e0: 53eb 10bd 9280 a23d d1e6 73be 1c74 42bd
000001f0: a4e6 a6bc b450 abbe c8eb cc3d f255 38be
00000200: 0b50 07be a562 b3b9 fe45 23be 0445 0dbe
00000210: 4a65 09bc fb25 06bd 54a1 9dbd 8676 613d
00000220: 6f9a 3abc 63bd d2bc 445d b6b9 4fcb 62be
00000230: 1ae0 3dbe c3ff 9f3e c6bb 93be 3987 84bc
00000240: ad78 25be baf5 563c 67fb 7cbd dfb8 e0bd
00000250: ef29 07bd abea c6bc ad10 6bbe 7faf 8a3d
00000260: 1784 51be aa52 9d3d 9924 213c f4a1 a8bd
00000270: b519 51be 7a3a 5ebd bd96 b63d 9f06 b4bd
00000280: 3721 893d 2dd1 a8bd 2c42 3dbd aed8 48be
00000290: 9ca7 06bd 3006 e4bd 2b70 9ebd f2bf a8be
000002a0: c1a5 083e 0e9b 4f3d 5b79 d3be 72a9 40be
000002b0: 9c48 c53c 2100 d8bd 08f4 25be 1c79 353d
000002c0: 8a9f 98bd c129 0abe 3ebf aebd f6bf d83a
000002d0: 110e f43c 0cf0 313e 2567 aebd 5c29 b0bd
000002e0: 2361 ca3c 7d3e 403d 2ead 97bd d5fc 3cbe
000002f0: c34e a7bc c0ce 223d 0812 0fbd 4cad 9dbd
00000300: f471 973d e3f3 0abe 8122 65be ae0b 00be
00000310: 5a03 07bc febd 8dbd c29f 643e 0b78 56bc
00000320: a672 f1bd cd99 283e 58d8 29be 580d 1abd
00000330: 49c9 13be 1098 973d 6f4e b4bb b56e a8bd
00000340: 9b48 823c 8ef8 8cbe 72d1 b5bb 9915 92bd
00000350: 68d6 7fbd ba4d c73d a087 abbc 4054 39bd
00000360: af16 eb3d c025 a8be 7ffc 92bd 339a 0bbe
00000370: 175b dfbd 6338 053d 6233 d63d cd2f fbbd
00000380: c7b1 74be 252f 153d cb7f 0dbe d728 883e
00000390: 57ab 6f3d c662 9c3d d5fb e6bb 65b4 79be
000003a0: 82d0 35bd 6abf c8bd cb21 8cbd 0795 00be
000003b0: 9878 5f3d 7b5c a73c 932d 00bd 6fe2 01be
000003c0: a910 1f3e 5415 abbd c734 ebbd e1d2 823c
000003d0: 535e 1d3d 45cd 31bd 20f9 e5bd e3db 0e3d
000003e0: 18b1 683d d377 c3bd deb0 62bd 897b ddbd
000003f0: 0bff 3fbe 4000 69bc 035d b03c c55c 15be

network_body._body_endoder.seq_layers.2.bias f4 [128]
0.016346153 0.0733234 -0.0821088 -0.043307237 -0.028352862 -0.04676791 0.015405973 -0.16023745
-0.040851876 0.008710857 0.08021585 -0.006108912 0.0013599503 0.033567745 0.0430188 -0.027277315
0.07644494 -0.09051184 -0.09837282 0.0010995936 -0.015747998 -0.0052022934 0.08551884 0.0035375927
0.019816343 -0.079446845 -0.0016775317 0.012679316 0.053543866 -0.07839703 0.0034938669 0.01156271
0.057848725 -0.1091695 0.089515135 0.07966307 0.01101621 -0.09368003 0.08715927 -0.16155656
0.123704724 0.017642291 -0.0082982555 -0.01888047 -0.122288264 0.01326937 0.032608714 -0.0075007286
0.059177186 -0.007496869 0.035918057 0.029439028 -0.011677487 0.02320983 -0.026943997 -0.030847428
0.0092694955 -0.07381388 0.0959125 -0.19140176 -0.15087509 0.037616014 -0.012402313 -0.057722434
-0.051023636 0.0072620856 -0.025797075 -0.09079319 0.02733415 -0.0423613 0.03290728 0.0031671645
0.103891864 -0.0066158096 -0.037825957 -0.03850777 0.09309572 -0.109043375 0.027192727 0.05106792
0.010816634 -0.019267738 0.086258486 0.03337614 -0.06883655 -0.0036263305 0.03666026 -0.0937457
-0.085297346 0.010850915 0.0010843588 0.13141531 0.024175359 -0.0039493684 0.041661635 -0.008642565
-0.027089551 -0.04570534 -0.023741674 -0.011097249 -0.0051606665 0.076975584 -0.0027193236 0.019428346
0.014736509 0.066643864 0.04237365 -0.023230627 0.0453637 -0.010451735 0.006758805 0.011741092
0.07542357 -0.011402781 0.021537332 -0.023319542 0.023156013 -0.055192735 -0.00034387497 -0.04519121
-0.0020908387 0.008834496 0.019699477 -0.051552296 0.052754804 0.0029888323 0.05247644 -0.045726195
00000000: 5ee8 853c 942a 963d a928 a8bd ee62 31bd
00000010: 4344 e8bc b58f 3fbd 5669 7c3c 4915 24be
00000020: 4c54 27bd fbb7 0e3c 3548 a43d 452d c8bb
00000030: 5c40 b23a 557e 093d 7b34 303d ad74 dfbc
00000040: 2a8f 9c3d 465e b9bd b077 c9bd 3d20 903a
00000050: f201 81bc 0078 aabb 8024 af3d f5d6 673b
00000060: e255 a23c 07b5 a2bd a0e0 dbba e8bc 4f3c
00000070: d050 5b3d 9f8e a0bd 5cf9 643b 8571 3d3c
00000080: c9f2 6c3d 4294 dfbd b653 b73d 6426 a33d
00000090: 557d 343c 51db bfbd 8f80 b23d 156f 25be
000000a0: e758 fd3d 9186 903c 68f5 07bc 37ab 9abc
000000b0: 4572 fabd c667 593c b790 053d acc8 f5bb
000000c0: c763 723d 4ca8 f5bb d01e 133d 1e2a f13c
000000d0: ee52 3fbc 8b22 be3c a8b9 dcbc bfb3 fcbc
000000e0: 15df 173c bb2b 97bd c66d c43d d3fe 43be
000000f0: 007f 1abe 4013 1a3d 1233 4bbc 5c6e 6cbd
00000100: 29fe 50bd caf6 ed3b 6354 d3bc c8f1 b9bd
00000110: deeb df3c 0b83 2dbd c9c9 063d 3490 4f3b
00000120: 42c5 d43d 6fc9 d8bb 64ef 1abd 53ba 1dbd
00000130: f8a8 be3d 2252 dfbd 48c3 de3c 982c 513d
00000140: 4038 313c 60d7 9dbc 4aa8 b03d 6bb5 083d
00000150: 2dfa 8cbd bba7 6dbb 1229 163d bffd bfbd
00000160: 60b0 aebd 09c8 313c 0b21 8e3a bc91 063e
00000170: 670b c63c b469 81bb 64a5 2a3d 8c99 0dbc
00000180: e8ea ddbc 8635 3bbd e67d c2bc 3cd1 35bc
00000190: cf1a a9bb 60a5 9d3d ae36 32bb 3228 9f3c
000001a0: 6671 713c 947c 883d fe8f 2d3d 284e bebc
000001b0: 49cf 393d c13d 2bbc f778 dd3b b65d 403c
000001c0: ac77 9a3d bbd2 3abc 0f6f b03c a008 bfbc
000001d0: aeb1 bd3c c711 62bd 1e4a b4b9 6b1a 39bd
000001e0: 7406 09bb 90be 103c cc60 a13c 8028 53bd
000001f0: 6c15 583d 49e0 433b 89f1 563d 644b 3bbd

action_model._continuous_distribution.log_sigma f4 [1, 2]
-0.41085607 -0.47879297
00000000: ba5b d2be 5a24 f5be

action_model._continuous_distribution.mu.weight f4 [2, 128]
-0.095102265 0.041713495 -0.05084091 -0.035680823 -0.01386804 -0.028079359 0.039300654 0.069381066
-0.004762169 0.023973074 0.11016347 -0.08051415 -0.18905036 -0.017145466 0.16739787 -0.051712263
-0.09176848 0.02436146 0.012804933 -0.10331104 0.021778362 0.061377298 -0.02923809 0.08021807
0.058176827 -0.021322118 -0.0742995 -0.10498125 -0.16229522 0.07573501 -0.081599854 0.0013599076
-0.22301167 -0.038747028 -0.2002735 -0.12671992 -0.012536847 0.04640467 -0.18440673 0.064227656
-0.07733577 -0.07782366 -0.03670914 0.057316497 0.018365901 -0.047157735 -0.12082994 -0.059347305
-0.0014467108 -0.09212096 0.09904793 -0.15254486 -0.059589997 -0.012678414 0.014624936 -0.044453505
-0.0012215655 0.066068605 0.047277357 0.052991584 0.06305834 -0.052934527 -0.07483486 0.020133264
0.016550094 0.057846937 0.10833397 -0.08286751 0.05649981 -0.05484919 0.118553266 0.107044086
-0.03240181 0.087723605 -0.0997284 -0.02547816 -0.06663066 9.5002295e-05 -0.1257058 -0.03521011
-0.012091802 0.01968484 0.06844165 0.08440356 -0.050452918 -0.009861275 0.06799982 0.11679936
0.06831905 0.07129417 0.039561756 -0.17103045 0.035665467 -0.03770772 -0.07524443 0.042479813
0.09767152 0.11183079 0.0053263893 -0.026069626 -0.024191635 -0.14217421 0.012312992 0.034063157
0.025808016 0.0511028 -0.07877399 -0.0066943723 -0.017509041 -0.025901007 0.06717456 -0.1342713
0.05459687 0.12064943 0.1000761 0.0834182 0.012903407 0.0051267883 0.17593136 0.11808869
0.06047865 0.13498473 0.09725762 -0.14062807 0.0415137 -0.014117589 -0.046712443 0.09184042
0.03474556 -0.11923137 0.05808716 0.045574047 -0.09832728 -0.026394896 0.090668805 0.15749578
0.077364646 0.1271954 -0.09617184 0.06428474 0.07841011 -0.13373958 0.07550268 0.09918489
-0.030285824 0.0035743106 -0.15557633 0.23198418 -0.04383283 -0.05813636 -0.108044766 0.025864597
-0.032618403 0.1299523 -0.052557804 -0.040929046 -0.1516973 -0.09156482 -0.049118876 0.024116198
-0.0493412 -0.006291536 -0.0034204845 -0.064880505 -0.09677464 0.016763737 -0.002516453 0.01517785
-0.107314244 0.02243138 -0.0045016115 0.024197036 -0.025786044 -0.11930607 -0.10579906 0.033924986
-0.18069473 0.11030078 -0.057719816 0.018398857 0.11729925 0.084307946 0.018933047 0.074211776
-0.12315774 0.077820405 -0.14765096 0.061105255 0.0320197 -0.090767935 -0.053479306 -0.06635409
0.09573313 0.0729447 0.104148254 0.051055886 -0.04208687 -0.010153999 0.010536158 -0.054155756
-0.1990536 0.07585277 -0.08202434 -0.06232631 -0.17037345 0.092419185 0.10211131 0.14543483
-0.06879454 0.07301776 -0.17175354 -0.13337007 0.07626107 0.055012636 0.0205411 0.00091316004
-0.012878498 0.06498635 0.058401216 0.07018945 -0.13763148 0.11771933 -0.1754393 0.2861633
0.039878897 0.024174891 -0.024393536 -0.09379507 0.048383404 0.006049842 -0.001181951 0.057825856
0.016783325 -0.1051854 0.065754086 0.04461882 -0.09493523 -0.06222235 -0.040772438 0.0058047376
-0.11291823 -0.0159565 0.13856961 0.038183652 0.048123572 0.10462278 -0.06030645 0.022237174
-0.0082119955 -0.0033894796 0.018071624 -0.01299623 -0.07219824 -0.0031263104 0.072063684 0.08127045
00000000: fac4 c2bd c5db 2a3d 8f3e 50bd 0e26 12bd
00000010: c736 63bc af06 e6bc b9f9 203d a917 8e3d
00000020: f80b 9cbb 2e63 c43c 639d e13d 9ae4 a4bd
00000030: 6b96 41be a674 8cbc 596a 2b3e 3dd0 53bd
00000040: 1df1 bbbd af91 c73c c8cb 513c bd94 d3bd
00000050: 8968 b23c c366 7b3d b884 efbc 5f49 a43d
00000060: d34a 6e3d b9ab aebc 562a 98bd 6900 d7bd
00000070: b830 26be f51a 9b3d d31d a7bd ed3e b23a
00000080: 2c5d 64be 34b5 1ebd 7f14 4dbe dec2 01be
00000090: 5967 4dbc d312 3e3d 1ed5 3cbe ca89 833d
000000a0: 3762 9ebd 0362 9fbd 535c 16bd b4c4 6a3d
000000b0: 1674 963c 7828 41bd b075 f7bd 2916 73bd
000000c0: 8f9f bdba eaa9 bcbd a4d9 ca3d b834 1cbe
000000d0: a414 74bd 1fb9 4fbc 6d9d 6f3c e114 36bd
000000e0: f01c a0ba fa4e 873d e7a5 413d b40d 593d
000000f0: bb24 813d e0d1 58bd 0543 99bd 84ee a43c
00000100: 1094 873c e9f0 6c3d 33de dd3d 71b6 a9bd
00000110: 586c 673d 8ba9 60bd 0ecc f23d ee39 db3d
00000120: c3b7 04bd 6fa8 b33d 673e ccbd 93b7 d0bc
00000130: a875 88bd f83b c738 05b9 00be 7a38 10bd
00000140: b21c 46bc 1a42 a13c 232b 8c3d c6db ac3d
00000150: b8a7 4ebd 2f91 21bc 7d43 8b3d 8134 ef3d
00000160: dcea 8b3d ae02 923d 820b 223d 9b22 2fbe
00000170: f415 123d 6973 1abd c019 9abd 50ff 2d3d
00000180: 0208 c83d 8b07 e53d fe88 ae3b f88f d5bc
00000190: 892d c6bc 1e96 11be 6ebc 493c cf85 0b3d
000001a0: 556b d33c 2b51 513d 4254 a1bd 775c dbbb
000001b0: 1f6f 8fbc 592e d4bc d192 893d 6a7e 09be
000001c0: f8a0 5f3d 0c17 f73d b3f4 cc3d 29d7 aa3d
000001d0: d068 533c 9efe a73b 5a27 343e 7cd8 f13d
000001e0: 76b8 773d 7039 0a3e 012f c73d ce00 10be
000001f0: 450a 2a3d 764d 67bc 8c55 3fbd d516 bc3d
00000200: 5c51 0e3d 942f f4bd cdec 6d3d daab 3a3d
00000210: d05f c9bd 1c3a d8bc 91b0 b93d 9346 213e
00000220: 5b71 9e3d 833f 023e bef5 c4bd b8a7 833d
00000230: 7b95 a03d 07f3 08be 26a1 9a3d 7321 cb3d
00000240: fa19 f8bc fb3e 6a3b 674f 1fbe 438d 6d3e
00000250: 0e8a 33bd 6420 6ebd 9346 ddbd fee1 d33c
00000260: e09a 05bd 3712 053e da46 57bd 37a5 27bd
00000270: 8956 1bbe 5686 bbbd e030 49bd 558f c53c
00000280: 001a 4abd 3b29 cebb 352a 60bb 12e0 84bd
00000290: c831 c6bd 1b54 893c 13eb 24bb 84ac 783c
000002a0: 92c7 dbbd 03c2 b73c 4182 93bb dd38 c63c
000002b0: 413d d3bc be56 f4bd 2dad d8bd edf4 0a3d
000002c0: 0a08 39be 60e5 e13d 9d6b 6cbd 33b9 963c
000002d0: 973a f03d a5a9 ac3d 7a19 9b3c 58fc 973d
000002e0: 203a fcbd 4e60 9f3d d031 17be 8149 7a3d
000002f0: 1727 033d 8ae4 b9bd 1e0d 5bbd a7e4 87bd
00000300: bb0f c43d 0864 953d ae4b d53d fa1f 513d
00000310: 4863 2cbd f55c 26bc da9f 2c3c 6dd2 5dbd
00000320: b5d4 4bbe b258 9b3d 61fc a7bd df49 7fbd
00000330: 6176 2ebe 4546 bd3d bc1f d13d deec 143e
00000340: 27e4 8cbd 568a 953d 29e0 2fbe 2a92 08be
00000350: c42e 9c3d ee54 613d cf45 a83c 2261 6f3a
00000360: 5600 53bc 9017 853d 1d36 6f3d 7dbf 8f3d
00000370: 44ef 0cbe d516 f13d 5ca6 33be ff83 923e
00000380: 0e58 233d 6c0a c63c f4d4 c7bc a117 c0bd
00000390: ad2d 463d c13d c63b b2eb 9aba ceda 6c3d
000003a0: 2f7d 893c 716b d7bd 14aa 863d 39c2 363d
000003b0: 676d c2bd dddc 7ebd 0001 27bd ab35 be3b
000003c0: ac41 e7bd 35b7 82bc 31e5 0d3e 7666 1c3d
000003d0: 391d 453d 7844 d63d e503 77bd bc2a b63c
000003e0: 9b8b 06bc 0822 5ebb f10a 943c 24ee 54bc
000003f0: acdc 93bd c9e2 4cbb 2096 933d 1f71 a63d

action_model._continuous_distribution.mu.bias f4 [2]
-0.013427981 -0.0009581716
00000000: 0901 5cbc cf2d 7bba
