ML-Agents/Examples/results/movetogoal/MoveToGoal/MoveToGoal-8000023.pt (torch, 518538 bytes, 44 tensors)

network_body._body_endoder.seq_layers.0.weight f4 [128, 6]
0	0x3f24099e	0.64077175
1	0xbee7149c	-0.4513291
2	0x3e7deeb7	0.24798094
3	0xbe86ad41	-0.26304057
4	0xbf3dcc3b	-0.74139756
5	0x3e1bd758	0.15218866
6	0xbe5df9bf	-0.21677302
7	0x3cecb25a	0.028893638
8	0x3eadad56	0.33921307
9	0x3f1d5cb0	0.61469555
10	0x3f11fd5c	0.5702722
11	0xbf158cdf	-0.5841808
12	0x3f319ddc	0.693815
13	0x3e4e14b6	0.20125088
14	0xbf643cff	-0.8915557
15	0xbef9dbe3	-0.48800573
16	0x3dfbf41f	0.12302422
17	0x3f05a28b	0.52201146
18	0xbf661adb	-0.8988473
19	0xbe898921	-0.26862434
20	0xbf00fe3e	-0.5038794
21	0x3cf67de2	0.030089322
22	0x3f12f7b9	0.57409245
23	0x3f036068	0.5131898
24	0x3ee0deff	0.43920133
25	0xbdc7b58a	-0.09751423
26	0x3f3c013c	0.73439384
27	0x3e5769a3	0.21036391
28	0x3ec8a37c	0.3918723
29	0xbf0925a0	-0.53573036
30	0x3f499da3	0.7875616
31	0xbe2e0dc3	-0.16997437
32	0x3da0ee13	0.07857909
33	0xbf4b7aec	-0.7948444
34	0xbf1b79f0	-0.60732937
35	0x3d9f4021	0.077759035
36	0x3e4de16d	0.20105524
37	0x3eac967e	0.33708566
38	0xbe07d42b	-0.1326453
39	0x3e604e42	0.21904853
40	0xbee760ee	-0.4519114
41	0xbecd35d6	-0.40080136
42	0xbf07bc76	-0.53021944
43	0xbddd0fcc	-0.10794029
44	0x3db8db5d	0.09026215
45	0xbf949789	-1.1608745
46	0xbf29656f	-0.661704
47	0xbe32bf6f	-0.17455839
48	0x3bb21999	0.0054351804
49	0xbe2cb8e4	-0.16867405
50	0xbebe9ce2	-0.37229067
51	0x3e7a23be	0.24427697
52	0x3f3378c9	0.7010618
53	0xbea4d733	-0.32195434
54	0xbe7c6462	-0.24647668
55	0x3d09b992	0.03362424
56	0xbdceb241	-0.10092593
57	0x3ea73168	0.3265488
58	0xbf5bf180	-0.85915375
59	0xbdf0cdca	-0.11758001
60	0x3eed3b98	0.4633453
61	0x3f06819c	0.5254152
62	0xbe7b4706	-0.24538812
63	0x3ede5168	0.43421483
64	0xbf52eb4b	-0.8239028
65	0xbdb9d8f9	-0.090745874
66	0xbea17dbe	-0.31541246
67	0x3d360da7	0.044446614
68	0x3eb3a6be	0.35088152
69	0x3e960ee1	0.29308227
70	0xbee3765b	-0.44426236
71	0xbecbc137	-0.3979585
72	0x3eebcb58	0.46053576
73	0x3eb5fcd4	0.35544455
74	0xbe020ec4	-0.12700945
75	0x3d9fb2d4	0.07797781
76	0x3ee83a7c	0.4535712
77	0x3e05cdbe	0.13066766
78	0xbf267e92	-0.6503688
79	0x3e0d2290	0.13782716
80	0xbf3a0948	-0.7267041
81	0xbf0e184b	-0.5550582
82	0xbe0b3f8c	-0.1359846
83	0x3e998935	0.29987493
84	0xbe7c7a7e	-0.24656102
85	0xbe1bf04a	-0.15228382
86	0x3f1b4423	0.60650843
87	0xbf248bd1	-0.6427584
88	0x3f1d643b	0.61481065
89	0x3e698969	0.22806324
90	0x3e751c81	0.23936655
91	0xbe286c4d	-0.16447563
92	0x3f6d9fe7	0.92822117
93	0x3ed6af68	0.419307
94	0xbf43701e	-0.7634295
95	0xbddec1de	-0.10876821
96	0x3f1541e8	0.5830369
97	0x3eeabccb	0.45847163
98	0xbe991738	-0.29900527
99	0x3f0060b7	0.50147575
100	0x3eb2a129	0.3488858
101	0xbf0ba9cc	-0.54555964
102	0x3d9fd951	0.07805122
103	0x3f82c715	1.0217005
104	0xbe22ccf6	-0.15898499
105	0xbf0a46ad	-0.5401409
106	0xbeb31948	-0.34980226
107	0xbe973c0f	-0.2953801
108	0xbe6dabe4	-0.23210102
109	0xbf2bda30	-0.671298
110	0xbddd49c1	-0.10805083
111	0xbd0aeede	-0.033919208
112	0x3f018de4	0.5060713
113	0x3e3aaa93	0.18229131
114	0x3f31da3e	0.69473636
115	0x3ebfc2d2	0.37453324
116	0x3e483658	0.1955198
117	0x3e127bd1	0.14305045
118	0x3e0f70db	0.14007895
119	0x3f47f9bf	0.7811546
120	0x3ea3c6f1	0.31987718
121	0xbd50dc71	-0.05099148
122	0xbf309be4	-0.6898787
123	0xbf1b4832	-0.60657036
124	0x3e47b42e	0.19502327
125	0x3e849a14	0.25898802
126	0xbf536f7c	-0.82591987
127	0x3cbadbee	0.022809949
128	0xbf4fb74f	-0.8113908
129	0x3f86dd38	1.0536261
130	0xbf01465b	-0.5049798
131	0x3f3bbc68	0.7333436
132	0x3f1925ee	0.598235
133	0x3dc0944d	0.09403286
134	0x3e31abf0	0.17350745
135	0x3f02f33f	0.51152414
136	0x3f54387a	0.82898676
137	0x3f61dcaa	0.8822733
138	0x3f22a0f2	0.63526833
139	0x3db75cca	0.08953245
140	0xbeb3f84a	-0.35150367
141	0xbefdd5b6	-0.4957711
142	0x3e8ae3a3	0.27126798
143	0x3ef25c71	0.47336152
144	0xbe784204	-0.24243933
145	0xbdd6c844	-0.104874164
146	0x3edd8747	0.4326727
147	0x3f220dcc	0.633023
148	0x3d5a4e54	0.053297356
149	0xbf805c7c	-1.0028224
150	0xbe93818f	-0.28809783
151	0xbee6cb37	-0.45076916
152	0xbed73e16	-0.42039555
153	0xbe8b6358	-0.2722423
154	0x3ebcbecd	0.3686432
155	0x3e459367	0.19294511
156	0xbf818c29	-1.0120898
157	0xbed3bbda	-0.41354257
158	0x3b904668	0.0044029243
159	0x3f1d7858	0.61511755
160	0xbfa771ce	-1.3081605
161	0x3e85bc0c	0.2612003
162	0xbf46ce16	-0.7765821
163	0xbf21e9d0	-0.63247395
164	0x3f0518c9	0.51990944
165	0x3f02dd42	0.5111886
166	0xbcb256df	-0.021769939
167	0xbee96059	-0.4558132
168	0xbe442cee	-0.19157764
169	0x3f55168f	0.83237547
170	0xbf2b1bea	-0.6683947
171	0x3f1652f8	0.5872035
172	0xbefa1df7	-0.48850986
173	0xbe5b4188	-0.21411717
174	0x3f303fdf	0.6884746
175	0x3f909108	1.129426
176	0xbe8b6555	-0.27225748
177	0xbf74cba3	-0.95623225
178	0xbe25f16b	-0.16205375
179	0x3e0ba32a	0.13636461
180	0x3f18bff6	0.5966791
181	0xbe932a1c	-0.28743064
182	0xbec76a4d	-0.3894829
183	0x3f54980f	0.83044523
184	0xbc9383f7	-0.018007262
185	0xbef6f02f	-0.4823012
186	0xbdbbddbb	-0.09173151
187	0x3e479058	0.19488657
188	0x3edd5cd1	0.43234876
189	0x3f4615c9	0.7737699
190	0x3de420c0	0.11139059
191	0xbde68d12	-0.11257376
192	0x3e8675be	0.26261705
193	0x3ee709d9	0.451247
194	0xbf813dca	-1.0096982
195	0x3de1935b	0.11014434
196	0xbe4e2f4e	-0.20135233
197	0xbe95b255	-0.2923762
198	0x3de9f44e	0.114235505
199	0x3e891be6	0.26779097
200	0x3f64173e	0.89097965
201	0x3d598b3e	0.053111307
202	0xbe91ae77	-0.2845342
203	0xbf6a20d6	-0.91456354
204	0x3ebeced7	0.3726718
205	0xbd6e4516	-0.058171354
206	0xbf8635c9	-1.0485164
207	0x3e93e8da	0.2888859
208	0xbe008f64	-0.12554699
209	0x3eb2a022	0.34887797
210	0xbe4311fb	-0.19049828
211	0xbc9d9c3c	-0.019239537
212	0xbf0cb41f	-0.5496234
213	0xbda85362	-0.08219029
214	0xbe5d12ad	-0.21589155
215	0x3f3e3b89	0.74309593
216	0xbf8658a1	-1.0495797
217	0xbe9dd98b	-0.30830035
218	0xbe7c0dd8	-0.24614656
219	0x3f2bb14b	0.670674
220	0x3deba31b	0.11505719
221	0x3cb08331	0.021546932
222	0xbed37cfd	-0.41306296
223	0xbe3a759c	-0.18208927
224	0x3ea7629d	0.32692423
225	0x3e50228e	0.20325682
226	0xbd89f9a4	-0.06737068
227	0xbe3485e1	-0.17629196
228	0x3ea582f6	0.32326478
229	0xbea8ba24	-0.32954514
230	0xbeba67c9	-0.36407307
231	0xbf1c950c	-0.6116493
232	0x3f0d4436	0.55182207
233	0xbe96a16f	-0.2942004
234	0xbd49589d	-0.049156774
235	0x3c7d2d0e	0.015452636
236	0x3eb84c11	0.35995534
237	0xbeb856c7	-0.36003706
238	0xbe9105fb	-0.28324875
239	0x3f6e767a	0.9314953
240	0xbe4b2f5d	-0.19842286
241	0xbe8b4223	-0.27198896
242	0x3ddeea21	0.108845
243	0x3c8ba11b	0.017044595
244	0xbf9fb30a	-1.2476513
245	0xbddf20d0	-0.1089493
246	0xbe395665	-0.18099363
247	0x3fa2ba7b	1.2713159
248	0x3e6cdc4a	0.23130909
249	0xbe841767	-0.25799105
250	0xbd90d44e	-0.07071744
251	0xbf443d4b	-0.76656026
252	0x3f3eb1bf	0.7448997
253	0xbc3032d8	-0.01075431
254	0x3deebdc7	0.11657291
255	0x3e93dd59	0.28879812

network_body._body_endoder.seq_layers.0.bias f4 [128]
0	0xbd4a0d63	-0.049329173
1	0xbe702f51	-0.2345555
2	0xbe26dd97	-0.16295467
3	0xbde4ccdf	-0.111718886
4	0x3d1b3a0d	0.03789716
5	0xbd258916	-0.04041394
6	0xbe6f7fc8	-0.23388588
7	0xbe1054c0	-0.1409483
8	0xbe123e2f	-0.14281534
9	0xbd0051ab	-0.031327885
10	0xbd953be2	-0.07286812
11	0xbe6f0790	-0.23342729
12	0xbdeca64f	-0.11555158
13	0xbe23927f	-0.15973853
14	0xbdb58b7c	-0.08864495
15	0xbe13ae08	-0.14421856
16	0xbdfea149	-0.124331065
17	0xbc3b7138	-0.011440568
18	0xbdf34540	-0.11878443
19	0xb9d9f7ac	-0.00041573995
20	0xbd201943	-0.03908659
21	0xbd1cfd68	-0.038327605
22	0xbe30e110	-0.17273355
23	0xbd83d318	-0.06436747
24	0xbe11bd8a	-0.1423246
25	0x3d99ee08	0.07516104
26	0xbdc49c74	-0.096001536
27	0x3d78a6c9	0.060705934
28	0xbdea0565	-0.1142681
29	0xbd886b91	-0.06661142
30	0xbdb950b7	-0.09048598
31	0xbe1b0f8b	-0.15142648
32	0xbe78e48e	-0.24305937
33	0xbbec2cc7	-0.0072074863
34	0x3c4c2ed1	0.012462334
35	0xbd244a97	-0.040110197
36	0xbde988e2	-0.114030614
37	0xbc7592b0	-0.014988586
38	0xbd181a36	-0.03713437
39	0xbe83310a	-0.2562335
40	0xbd5e772d	-0.054312874
41	0xbe011513	-0.12605695
42	0xbc56fa90	-0.013121262
43	0x3e031622	0.12801412
44	0xbdebfd71	-0.115229495
45	0xbe8cc5a4	-0.27494538
46	0xbe263fcc	-0.16235274
47	0xbe026bee	-0.12736484
48	0xbd98e0ce	-0.07464753
49	0xbe508454	-0.20362979
50	0xbdbfffb3	-0.09374943
51	0xbc22b759	-0.009931409
52	0xbd9b2beb	-0.07576736
53	0xbe3df1c7	-0.18549262
54	0xbe01dce3	-0.12681918
55	0xbd3e5198	-0.046464533
56	0xbe30d620	-0.17269182
57	0xbe333de3	-0.17504077
58	0xbdcc18c7	-0.099656634
59	0xbdf2a21a	-0.11847325
60	0xbcc9a00f	-0.024612455
61	0xbe401079	-0.18756284
62	0xbc8d9c90	-0.017286569
63	0xbd8ed51e	-0.06974243
64	0xbe350f71	-0.17681672
65	0xbe323efd	-0.1740684
66	0xbe0c94e3	-0.13728671
67	0xbded8004	-0.11596683
68	0xbe2670a5	-0.16253908
69	0xbe7c4b15	-0.24638017
70	0xbe8edc1f	-0.27902314
71	0xbe15e187	-0.14636813
72	0xbda10254	-0.07861772
73	0x3c7c531e	0.015400676
74	0xbdbcd551	-0.092203744
75	0xbe1af795	-0.15133508
76	0xbda46a70	-0.08028114
77	0xbe00a704	-0.12563711
78	0xbdfd8657	-0.12379139
79	0xbd3692c7	-0.04457357
80	0xbe5028d6	-0.20328078
81	0xbdae650c	-0.08515367
82	0xbe06df07	-0.13171016
83	0xbe0545a7	-0.13014852
84	0xbe3eefd0	-0.18646169
85	0xbda2bf93	-0.07946696
86	0xbd13bffc	-0.036071762
87	0xbd83d9b9	-0.06438012
88	0xbe45bd97	-0.19310604
89	0xbde503a0	-0.11182332
90	0xbdf85f51	-0.12127555
91	0xbe1c5cc1	-0.15269758
92	0xbd8baa4c	-0.06819591
93	0x3d02e7c6	0.031959318
94	0xbe17dc01	-0.14830019
95	0xbdb21ba4	-0.08696678
96	0xbe2cde3e	-0.16881654
97	0xbdf51c70	-0.11968315
98	0xbe63c320	-0.22242403
99	0xbe2bfc24	-0.16795403
100	0xbdc65fd8	-0.096862495
101	0xbd7c5020	-0.06159985
102	0xbd88e85b	-0.06684943
103	0x3ba85dcf	0.005138136
104	0xbca03872	-0.019558165
105	0xbe90b6ad	-0.2826437
106	0xbdbce8fc	-0.09224126
107	0xbc0e6432	-0.008690881
108	0x3b4bdb56	0.0031106076
109	0xbe33d33b	-0.17561047
110	0xbe2e4383	-0.17017941
111	0xbe113507	-0.14180385
112	0xbdc5be01	-0.09655381
113	0xbe392377	-0.18079935
114	0xbd398880	-0.045296192
115	0xbd44bf22	-0.04803384
116	0xbdfe9d67	-0.12432366
117	0xbd2a04c7	-0.041508462
118	0xbdcd9ab1	-0.10039271
119	0xbdf34225	-0.118778504
120	0xbe7c6fb3	-0.24651985
121	0xbe092c73	-0.13395862
122	0xbda77c99	-0.08178062
123	0xbe186e02	-0.14885715
124	0xbe43f43b	-0.19136135
125	0xbcd66607	-0.026171697
126	0xbdacec83	-0.084435485
127	0xbd98bb67	-0.07457619

network_body._body_endoder.seq_layers.2.weight f4 [128, 128]
0	0xbd2c4a53	-0.04206307
1	0xbec45031	-0.3834243
2	0xbd52fac6	-0.051508687
3	0x3d6bad13	0.057538103
4	0xbe17718e	-0.14789411
5	0xbe21e5f4	-0.15810376
6	0xbb29fa1b	-0.0025936428
7	0xbee12389	-0.43972424
8	0x3cc6604e	0.024215844
9	0x3d8f1f93	0.06988444
10	0xbe92c387	-0.286648
11	0xbe0756ac	-0.13216656
12	0xbe40eafb	-0.18839638
13	0x3d16f164	0.0368513
14	0xbe2cbfef	-0.16870092
15	0xbdc94dd7	-0.098293
16	0xbd7d8ef5	-0.061903913
17	0x3bff3f5a	0.0077895345
18	0x3cd1a3c4	0.025590785
19	0xbd710233	-0.058839988
20	0xbe026972	-0.12735537
21	0xbc6c2190	-0.014412299
22	0x3d0cd7aa	0.03438536
23	0xbe113ba2	-0.14182904
24	0xbc5bd894	-0.0134183355
25	0xbdb18424	-0.08667782
26	0xbe0f753e	-0.14009568
27	0xbe834c09	-0.25643948
28	0x3bfe7005	0.0077648186
29	0x3d637256	0.05552896
30	0xbe98e181	-0.29859546
31	0x3e1be755	0.15224965
32	0xbbe999bc	-0.0071289223
33	0x3d3c82ca	0.046023168
34	0xbc28f4c7	-0.010312266
35	0x3db2b37c	0.0872564
36	0xbd8d7085	-0.06906227
37	0xbe8dd2e2	-0.27699953
38	0x3d14ca2a	0.03632561
39	0x3d86ed46	0.06588225
40	0xbe1079e1	-0.14108993
41	0x3cbdfd55	0.023192087
42	0xbe73ba2c	-0.23801488
43	0xbda547d1	-0.080703385
44	0xbe44b3e5	-0.1920925
45	0x3db07965	0.08616904
46	0x3d08d9cf	0.033410843
47	0xbd74777a	-0.059684254
48	0x3d2a6567	0.04160061
49	0x3dccc7e4	0.099990636
50	0x3d9ce241	0.07660342
51	0xbe9e2ded	-0.30894414
52	0xbbf30498	-0.007416319
53	0x3e19e174	0.1502741
54	0xbebe155b	-0.37125668
55	0xbcf14625	-0.029452393
56	0xbcf351c6	-0.029702079
57	0xbb2c8ecc	-0.002633023
58	0xbe39b45f	-0.18135212
59	0x3c467cb1	0.01211469
60	0x3ac1398d	0.0014741883
61	0x3e16fea0	0.14745569
62	0xbe1682e3	-0.14698367
63	0xbe6bd71e	-0.2303128
64	0x3e0d561f	0.13802384
65	0xbe89ba29	-0.2689984
66	0xbd39b606	-0.045339607
67	0xbcfae71a	-0.030627776
68	0xbe274f75	-0.16338904
69	0xbcf8f3d6	-0.030389708
70	0x3e8ec30a	0.27883178
71	0xbd8ab9cb	-0.067737184
72	0xbd99095c	-0.07472488
73	0x3d46a69f	0.048498746
74	0xbd850c91	-0.064965375
75	0x3e1252ac	0.1428935
76	0xbaa2d07e	-0.0012421755
77	0x3dd3b177	0.10336583
78	0x3e133dfe	0.14379117
79	0x3d3971da	0.045274593
80	0xbdd0d443	-0.10196736
81	0x3d9d91fb	0.07693859
82	0xbd648a72	-0.055796094
83	0xbcfa4964	-0.030552574
84	0xbe4347d5	-0.1907037
85	0xbe25903e	-0.16168305
86	0xbdb3a6a5	-0.08772019
87	0xbdafa45e	-0.085762724
88	0x3cc78371	0.024354668
89	0x3cfe165e	0.031016525
90	0x3d73f84e	0.059562974
91	0xbcfbefb9	-0.030753957
92	0xbe11c539	-0.1423539
93	0xbe87e8cc	-0.26544797
94	0xbe04a77d	-0.12954517
95	0x3d1e51f4	0.038652375
96	0x3d8a4d3a	0.06753011
97	0x3d2424df	0.040074226
98	0xbd235658	-0.039877266
99	0xbdcebb6e	-0.10094343
100	0x3db6134c	0.08890399
101	0xbe095d06	-0.13414392
102	0xbcfd0d29	-0.030890064
103	0xbdd744a3	-0.10511138
104	0x3e4235c9	0.1896583
105	0x3d263c17	0.04058465
106	0xbeba8785	-0.36431518
107	0xbd3cfb8f	-0.046138342
108	0xbe5ecc6e	-0.21757671
109	0xbdacc89c	-0.08436701
110	0xbd72f39a	-0.059314348
111	0x3d80600f	0.06268322
112	0xbcd38e71	-0.025824757
113	0xbd68b650	-0.05681449
114	0xbe82ac22	-0.25521952
115	0xbccea998	-0.025227353
116	0xbe2ce110	-0.1688273
117	0x3c04bb1d	0.008101252
118	0x3dfc2cae	0.123132095
119	0x3afa95c4	0.001911812
120	0x3da8defa	0.082456544
121	0x3c8e0145	0.01733459
122	0x3d7ee637	0.06223127
123	0xbdd04ff0	-0.10171497
124	0x3cfa48d5	0.030552307
125	0xbd29e8ee	-0.041481905
126	0xbdb4869f	-0.088147394
127	0xbd428401	-0.04748917
128	0xbd1bd04f	-0.038040455
129	0x3d815d1e	0.06316589
130	0xbdd6294c	-0.104570955
131	0xbd256ec8	-0.040388852
132	0xbc67b755	-0.014142831
133	0xbe22f641	-0.15914251
134	0xbca57d99	-0.020201491
135	0xbdb9c114	-0.0907003
136	0x3c61e83c	0.013788279
137	0xbe4c9b9c	-0.19981235
138	0xbb19720e	-0.002341393
139	0x3cf05fe6	0.029342603
140	0xbe0dc0bb	-0.13843052
141	0xbd1e65f5	-0.038671453
142	0xbe151e09	-0.14562239
143	0x3dbc1b70	0.09184921
144	0xbd3ac7f8	-0.04560086
145	0xbd488543	-0.048955213
146	0xbd9b3651	-0.075787194
147	0x3deff50d	0.117166616
148	0xbe4d6d71	-0.2006128
149	0xbf7609ea	-0.9610888
150	0xbd4d7db1	-0.050168697
151	0xbdd59836	-0.104294226
152	0xbc1b71d2	-0.009487586
153	0x3cdedb2b	0.027204117
154	0xbefc4a42	-0.49275404
155	0xbc86d5ed	-0.01645943
156	0xbeae1dc9	-0.340071
157	0xbe117e35	-0.142083
158	0xbc4ee832	-0.012628602
159	0x3c0b7518	0.008511804
160	0xbdfc423f	-0.12317323
161	0xbe92c922	-0.28669077
162	0xbd7e1536	-0.062031947
163	0xbe76dade	-0.24106929
164	0xbeab0e6f	-0.3340945
165	0x3d1e47c4	0.03864266
166	0x3dc93843	0.09825184
167	0xbdadadd0	-0.08480418
168	0x3ccc1cfe	0.024916168
169	0xbe9e4a23	-0.30915937
170	0xbd3e1453	-0.0464061
171	0xbd9a3b7f	-0.07530879
172	0xbe9efc5d	-0.31051913
173	0x3d5bfa0b	0.053705256
174	0xbcb3b53b	-0.021937003
175	0xbe2cc0ef	-0.16870473
176	0xbe763924	-0.24045235
177	0x3d05b90b	0.032647174
178	0x3e227956	0.15866598
179	0xbe6bcfca	-0.23028484
180	0xbc1f5329	-0.009724417
181	0xbd83c6c4	-0.06434396
182	0xbe8118aa	-0.2521413
183	0xbdc7875c	-0.097426146
184	0xbdd92ba0	-0.10604024
185	0x3e0716b2	0.13192251
186	0xbd4a30f0	-0.049363077
187	0xbe1a8826	-0.15090999
188	0x3de17323	0.11008289
189	0xbea2596b	-0.31708845
190	0xbdfa76e3	-0.12229707
191	0xbd59aed2	-0.053145237
192	0xbf1be8ca	-0.6090208
193	0xbe3ea8db	-0.18619101
194	0x3ce092a7	0.02741368
195	0x3d21dd52	0.039517708
196	0xbda8c129	-0.082399674
197	0xbd0129e4	-0.03153409
198	0xbe8459e5	-0.25849834
199	0xbde5195a	-0.11186476
200	0xbdb422cf	-0.08795702
201	0xbe5a5898	-0.21322858
202	0x3dc3ac1a	0.0955431
203	0xbcb3473c	-0.021884553
204	0x3e077719	0.13229026
205	0xbebde92f	-0.37091967
206	0xbe3291fc	-0.17438501
207	0xbde9d6bf	-0.11417913
208	0xbd56b7d1	-0.052421395
209	0xbd02bb63	-0.031916987
210	0xbd7dda87	-0.061975982
211	0xbd2dba55	-0.04241403
212	0xbdbee689	-0.09321315
213	0xbdfe119e	-0.12405704
214	0xbcdde044	-0.027084477
215	0xbcaf1e00	-0.02137661
216	0xbe8896b3	-0.26677474
217	0xbdb2c106	-0.087282225
218	0xbe06c21c	-0.13159984
219	0xbe18bf53	-0.14916734
220	0x3809f5e3	3.2892345e-05
221	0xbe5a8239	-0.21338739
222	0xbd099f2e	-0.03359907
223	0xbe0cd6ce	-0.13753816
224	0xbd7f8637	-0.062383857
225	0xbb9fb019	-0.0048732874
226	0x3d1f88fa	0.03894899
227	0xbdee90ac	-0.11648688
228	0xbdecef83	-0.11569121
229	0xbe31c2f0	-0.17359519
230	0xbe46991c	-0.19394344
231	0xbdb7782c	-0.08958468
232	0xbd955d16	-0.07293145
233	0xbdda2447	-0.106514506
234	0xbd3cf1cb	-0.04612903
235	0xbda5d412	-0.0809709
236	0xbd809c8b	-0.06279858
237	0xbd0842d1	-0.033266846
238	0x3ccf0864	0.025272556
239	0xbe139df1	-0.14415719
240	0xbf3641eb	-0.7119433
241	0xbd10a9cc	-0.03531818
242	0xbd94048d	-0.072274305
243	0x3dd2a56e	0.102854595
244	0xbe4b42a1	-0.19849636
245	0x3b024b4b	0.0019881304
246	0xbdefd7c2	-0.117110744
247	0x3d477bfd	0.04870223
248	0xbd063949	-0.032769475
249	0xbc193593	-0.009351152
250	0xbe83f2f3	-0.25771293
251	0xbe66ee71	-0.22551896
252	0xbdcea84b	-0.10090693
253	0xbe07432d	-0.1320922
254	0x3c6b9014	0.014377613
255	0xbe90231f	-0.28151795

network_body._body_endoder.seq_layers.2.bias f4 [128]
0	0xbd1a15c7	-0.037618425
1	0x3d98b169	0.07455713
2	0xbd9bcfa8	-0.07607967
3	0x3d90e738	0.070753515
4	0x3d1cd185	0.03828575
5	0x3e1f592e	0.15561363
6	0xbc65c972	-0.014025079
7	0xbd1a1354	-0.03761609
8	0x3d97b191	0.07406915
9	0xbd4aeec6	-0.04954412
10	0xbdac1d33	-0.08404007
11	0xbda2f88e	-0.07957564
12	0x3ce6bf23	0.028167313
13	0xbd0b7d78	-0.034055203
14	0xbe288cc2	-0.16459945
15	0xbdd87c98	-0.10570639
16	0x3da6310d	0.081148244
17	0x3d5aec68	0.05344811
18	0x3da20c84	0.079125434
19	0xbba27ccc	-0.0049587246
20	0xbdac3dc0	-0.084102154
21	0xbd2d8da1	-0.042371396
22	0x3caf49cd	0.021397496
23	0xbb9fb91c	-0.0048743617
24	0x3bfea7f1	0.007771485
25	0x3d26efcd	0.040756036
26	0xbd87c983	-0.06630232
27	0xbc8dffe1	-0.017333927
28	0x3d0c6d5d	0.034283984
29	0xbd6ffcc1	-0.058590654
30	0x3b64c139	0.0034905209
31	0xbc38e4f1	-0.011285053
32	0x3c8ef28e	0.017449643
33	0xbde0627a	-0.10956283
34	0xbdb30e97	-0.08743017
35	0xbd2824ec	-0.041050836
36	0x3d43d5f1	0.047811452
37	0xbd4d05d6	-0.050054394
38	0xbdea3686	-0.11436181
39	0xbe077c8a	-0.13231102
40	0xbd914057	-0.0709235
41	0xbbf698cc	-0.007525539
42	0xbdca5973	-0.09880342
43	0x3cb87bc9	0.022519963
44	0x3dda9e15	0.10674683
45	0xbcbf39d7	-0.02334301
46	0xbd3e8ba6	-0.046519898
47	0xbe25860b	-0.16164415
48	0x3c1125ac	0.008859079
49	0xbdaa8ff8	-0.08328241
50	0xbd162a4c	-0.03666143
51	0x3d6d74dc	0.057972774
52	0xbd91b29b	-0.071141444
53	0x3d8d6a2e	0.06905018
54	0xbb9c7b76	-0.00477546
55	0x3d98c939	0.07460255
56	0x3dd8a20d	0.10577784
57	0x3d447f5f	0.047973033
58	0xbce5bc7c	-0.028043978
59	0xbd37d690	-0.044882357
60	0x3db2c16e	0.087283
61	0xbd9b6822	-0.07588221
62	0xbd9c23b2	-0.07623996
63	0xbd0f6d09	-0.035016093
64	0xbd52ee83	-0.051496994
65	0x3d1c5c31	0.038173858
66	0xbb41efc8	-0.0029592384
67	0xbd03bd10	-0.032162726
68	0x3c802375	0.015641907
69	0x3daa4c39	0.083153196
70	0xbe14c6f7	-0.14529024
71	0x3cda814d	0.026672984
72	0xbd8eeda0	-0.06978917
73	0xbdc96a25	-0.098346986
74	0xbbd37f13	-0.0064543574
75	0xbc4e2839	-0.012582832
76	0xbcf6161f	-0.030039845
77	0xbe185c0b	-0.14878862
78	0xbde8627d	-0.1134691
79	0xbb5e203f	-0.0033893732
80	0x3cd79e24	0.026320525
81	0xbe143b10	-0.14475656
82	0xbd36600e	-0.0445252
83	0x3db5505c	0.08853218
84	0x3cd5d702	0.0261035
85	0xbcac4ae4	-0.021031804
86	0xbd8f86bd	-0.07008121
87	0xbcca653e	-0.02470648
88	0xbddbadf1	-0.10726536
89	0xbd8ca29d	-0.068669535
90	0xbd1a1eec	-0.037627146
91	0x3e170190	0.1474669
92	0xbd9dd3ad	-0.077063896
93	0x3d97d58e	0.07413779
94	0x3de955bd	0.113933064
95	0xbd7a65fa	-0.06113241
96	0x3da2c626	0.0794795
97	0xbd9f3eb3	-0.07775631
98	0xbd28ba87	-0.04119351
99	0xbddcc947	-0.10780578
100	0xbcc64fa4	-0.024207897
101	0x3cbf810e	0.023376968
102	0xbda8b003	-0.082366966
103	0xbc3a9eea	-0.011390427
104	0x3e2d665c	0.16933578
105	0xbe1f5073	-0.15558033
106	0xbc6ab226	-0.0143247
107	0xbdaf52eb	-0.08560737
108	0xbc1848de	-0.009294717
109	0x3e34f93a	0.17673197
110	0xbcd17c06	-0.025571834
111	0xbd8cd23d	-0.06876037
112	0xbcfa56a8	-0.030558899
113	0x3d347d42	0.044064768
114	0xbd18f1c0	-0.037339926
115	0x3dcb8603	0.0993767
116	0x3d2c5261	0.04207075
117	0xbde766f6	-0.11298935
118	0xbd449d49	-0.04800156
119	0x3d344785	0.04401352
120	0x3ddff4ff	0.10935401
121	0xbd15b1c6	-0.03654649
122	0x3c03a063	0.008033845
123	0x3d5edf72	0.054412313
124	0x3d8c450d	0.06849108
125	0xbda30fe9	-0.07962019
126	0xba87dd06	-0.0010365553
127	0xbd736b56	-0.059428535

action_model._continuous_distribution.log_sigma f4 [1, 2]
0	0xbf8e746f	-1.1129283
1	0xbf885efa	-1.0653985

action_model._continuous_distribution.mu.weight f4 [2, 128]
0	0x3d1f25e9	0.038854513
1	0x3e7827c0	0.24233913
2	0x3aa39585	0.0012480473
3	0x3e058ea4	0.13042694
4	0xbd691130	-0.056901157
5	0x3d182f3e	0.03715443
6	0x3d3f73f3	0.046741437
7	0x3d82a527	0.063791566
8	0xbdaf9dd3	-0.085750245
9	0xbe4e9e80	-0.2017765
10	0xbe09522b	-0.13410251
11	0x3db74aeb	0.08949836
12	0xbcec2242	-0.02882493
13	0x3d8b0b22	0.06789233
14	0xbd3093e3	-0.043109786
15	0xbdf0cf2a	-0.117582634
16	0x3dad59f0	0.0846442
17	0xbdc08efa	-0.094022706
18	0x3cfaf4c8	0.030634299
19	0x3e6ecdc8	0.23320687
20	0x3d8cab6e	0.06868635
21	0x3b5ab8e0	0.0033374354
22	0x3d5678fd	0.052361477
23	0xbba62593	-0.005070397
24	0xbaa42898	-0.0012524305
25	0xbe59b93b	-0.21262066
26	0x3e0580d1	0.13037421
27	0xbd7a9a2b	-0.061182182
28	0x3e4292eb	0.19001357
29	0x3dabb766	0.0838459
30	0x3ba8eaed	0.0051549585
31	0x3e5355a7	0.20638143
32	0x3dc7576b	0.097334705
33	0x3d00ce91	0.031446997
34	0x3e0929eb	0.13394897
35	0xba901641	-0.001099296
36	0xbe60effd	-0.21966548
37	0x3dd903cc	0.10596427
38	0x3d5f246d	0.054478098
39	0x3dc2ffc9	0.095214434
40	0x3dad85b4	0.084727675
41	0xbbf07439	-0.0073380736
42	0x3d86f1c9	0.065890856
43	0x3bcfec3e	0.006345301
44	0xbe0541db	-0.13013403
45	0x3e706218	0.2347492
46	0x3dbdc8fa	0.09266849
47	0xbc8c701a	-0.017143298
48	0x3dcee65a	0.1010253
49	0x3d49428a	0.049135722
50	0x3de75f16	0.11297433
51	0xbe1d0050	-0.1533215
52	0xbd45fd66	-0.048337363
53	0x3f1440e3	0.5791151
54	0xbdb8e395	-0.09027783
55	0x3d9806df	0.074231856
56	0x3dd995fa	0.10624309
57	0xbd0b266e	-0.033972196
58	0xbdf1cae1	-0.11806274
59	0xbe0d839f	-0.1381974
60	0x3e6100df	0.21972989
61	0x3c2b7b40	0.010466397
62	0xbc89c93e	-0.016819593
63	0xbb47cc50	-0.003048677
64	0x3982f74f	0.00024979791
65	0xbc4a2bde	-0.01233956
66	0x3c990cae	0.018682804
67	0xbda8cf72	-0.08242692
68	0x3dc4dfa2	0.09612967
69	0xbd4a51a4	-0.049394265
70	0xbdd63e39	-0.10461087
71	0xbdf573c1	-0.11984969
72	0x3dae627d	0.08514879
73	0xbe07a3ae	-0.13246033
74	0xbe85dc5b	-0.2614468
75	0xbe314732	-0.17312315
76	0xbdcb6e20	-0.09933114
77	0x3c3dc46c	0.011582475
78	0xbd1a5ab4	-0.037684157
79	0x3e391dd0	0.18077779
80	0x3e2a7870	0.16647506
81	0x3d71957d	0.058980454
82	0x3cdce6a4	0.026965447
83	0x3db5770b	0.08860596
84	0xbe248b35	-0.16068728
85	0xbd89cab7	-0.06728118
86	0xbe42f74a	-0.19039646
87	0xbebe07f6	-0.3711545
88	0x3b96b975	0.004599745
89	0x3d9d81a4	0.076907426
90	0x3dd8df25	0.105894364
91	0x3de8a562	0.11359669
92	0xbd6eb3e4	-0.058277026
93	0xbc2a36d8	-0.010389052
94	0x3e6c8876	0.2309893
95	0xbe880855	-0.26568857
96	0xbdca5e63	-0.09881284
97	0xbd8bcb77	-0.06825917
98	0xbbe4239d	-0.0069622532
99	0xbb96c9a7	-0.0046016756
100	0xbde41e57	-0.11138599
101	0xbdc6e9af	-0.0971254
102	0x3c83f05c	0.016105823
103	0x3db69bcf	0.08916437
104	0xbc56e466	-0.013115978
105	0xbda1038e	-0.07862006
106	0xbbd9de7e	-0.0066488376
107	0xbdf33d27	-0.11876898
108	0xbe15a9e0	-0.14615583
109	0x3eb39e39	0.35081652
110	0x3d2f7220	0.042833447
111	0x3d932780	0.071852684
112	0x3c469f3a	0.0121229235
113	0xbb06db38	-0.0020577442
114	0xbd91f0bd	-0.07125995
115	0xbdd9c85b	-0.10633918
116	0x3d1696d1	0.036764923
117	0xbe1005c1	-0.14064695
118	0xbce9fef8	-0.028563961
119	0x3e0a86ae	0.13527939
120	0xbe281153	-0.16412859
121	0xbd467323	-0.048449647
122	0xbd99236e	-0.07477461
123	0x3e3f55c8	0.18685067
124	0xbbfb52bd	-0.0076697753
125	0xbda38fba	-0.07986398
126	0x3d5e74d0	0.05431062
127	0xbd7680cd	-0.060181428
128	0xbddf35bb	-0.1089892
129	0x3e44e244	0.19226938
130	0xbb45b530	-0.003016781
131	0xbd391114	-0.045182303
132	0xbdc845e7	-0.09778958
133	0x3e8e9382	0.27846915
134	0x3c09617a	0.008385057
135	0x3cea70e6	0.028618287
136	0xbdc20ddf	-0.09475302
137	0x3e0f27b9	0.13979997
138	0x3d4c6eca	0.049910344
139	0xbe517f25	-0.20458658
140	0xbd9f9d94	-0.077937275
141	0x3c9a7f8c	0.018859647
142	0xbca59ff8	-0.02021788
143	0x3d1a5006	0.037673973
144	0x3e0d0b1b	0.13773768
145	0xbea22bbb	-0.3167399
146	0x3dc3463a	0.09534879
147	0x3df30938	0.11866993
148	0xbd77c40c	-0.0604897
149	0xbd75554f	-0.05989581
150	0x3df5709f	0.119843714
151	0x3dcb41bf	0.099246494
152	0xbb8caa2a	-0.004292746
153	0x3e3fa066	0.18713531
154	0xbd8f66ba	-0.070020154
155	0x3e0db7ff	0.1383972
156	0xbe58bf17	-0.21166645
157	0xbe17cb3b	-0.1482362
158	0xbba127a2	-0.0049180547
159	0xbd698139	-0.057008002
160	0x3e11791b	0.14206354
161	0x3d1e8a65	0.038706202
162	0xbda3565d	-0.07975457
163	0xbb1e3c56	-0.002414485
164	0xbbc93916	-0.0061408384
165	0x3caa9f61	0.02082795
166	0xbd61adfc	-0.055097565
167	0x3dee8fbf	0.11648511
168	0x3c9181b5	0.017762044
169	0x3a5f84ce	0.00085265643
170	0xbde12133	-0.109926604
171	0xbe256251	-0.16150786
172	0x3e000b84	0.12504393
173	0x3dc5e0f0	0.09662044
174	0x3e14e3af	0.1453998
175	0x3ce45ee1	0.027877273
176	0x3d187bcb	0.037227433
177	0xbde17ce1	-0.11010147
178	0x3b8e6546	0.004345569
179	0x3d8cbb9b	0.068717204
180	0xbdacacac	-0.08431372
181	0xbbae8516	-0.0053259237
182	0x3cfd4963	0.030918783
183	0xbe7376e0	-0.23775816
184	0x3e343337	0.17597662
185	0x3e751aa6	0.23935947
186	0xbe337411	-0.17524745
187	0xbda2a5cd	-0.0794178
188	0xbd82ddb9	-0.063899465
189	0xbe234470	-0.15944076
190	0x3e62ad90	0.22136521
191	0x3ddb013e	0.10693596
192	0x3ad15808	0.001597167
193	0x3add1363	0.001686674
194	0x3da0b5da	0.078471854
195	0xbd01002f	-0.031494316
196	0xbe54f0ad	-0.20794936
197	0xbe7d18b6	-0.24716458
198	0xbce59b92	-0.028028283
199	0x3b9551dd	0.004556878
200	0xbd852aec	-0.06502327
201	0xbbb5810d	-0.0055390657
202	0xbe03b2d5	-0.12861188
203	0xbd50f3ea	-0.051013865
204	0x3d9d2d5e	0.07674669
205	0xbda00cdd	-0.078149535
206	0xbc802299	-0.015641497
207	0x3e492e7f	0.19646643
208	0x3d708b0d	0.05872636
209	0xbc98191d	-0.018566662
210	0x3d377c55	0.044796307
211	0xbdf778d7	-0.12083595
212	0xbe166aba	-0.1468915
213	0x3d46ba5f	0.04851758
214	0xbe0b6c0f	-0.1361544
215	0x3dc285e8	0.09498197
216	0xbb5ee64b	-0.0034011777
217	0x3d72c7e9	0.05927268
218	0xbdb6c64b	-0.0892454
219	0x3e3dcfb0	0.18536258
220	0x3d8a0b00	0.06740379
221	0xbe708c8e	-0.23491117
222	0xbe9ad204	-0.30238354
223	0x3e132c79	0.14372434
224	0xbe24b5d0	-0.16084981
225	0x3da4b095	0.08041493
226	0x3b49c736	0.0030788905
227	0xbd8d7558	-0.06907147
228	0x3e49fb88	0.19724858
229	0xbd5a7eb7	-0.0533435
230	0x3e0d4950	0.13797498
231	0x3bff0226	0.0077822385
232	0x3e663a5d	0.22483201
233	0xbd70b238	-0.058763713
234	0xbbb3d130	-0.0054875836
235	0xbe2b3c7c	-0.16722292
236	0x3d9122e0	0.0708673
237	0x3dfcceb2	0.123441115
238	0xbdd9dda5	-0.106379785
239	0xbe111c21	-0.14170887
240	0xbe0df5d3	-0.13863306
241	0x3a949ed0	0.0011338834
242	0x3d9e4bd3	0.07729306
243	0x3e2dc049	0.16967882
244	0xbe2b32d4	-0.16718608
245	0xbdd5e4a8	-0.10444003
246	0xbdfc501b	-0.123199664
247	0xbd3cc1b3	-0.046083163
248	0x3da9dc32	0.08293952
249	0xbe0b3909	-0.13595976
250	0x3b8729bd	0.0041248486
251	0x3e1471d7	0.14496551
252	0x3b362a3b	0.0027796167
253	0x3c183e27	0.009292162
254	0xbe425c64	-0.18980557
255	0xbd61f419	-0.05516443

action_model._continuous_distribution.mu.bias f4 [2]
0	0x3cbe874b	0.023257872
1	0x3c92d9ba	0.017926086

exp_avg f4 [128, 6]
0	0xbb4c92f6	-0.0031215525
1	0x39c1a28b	0.00036932933
2	0x3b25aec9	0.0025281182
3	0xbb87e969	-0.0041476977
4	0xb7cc0bf8	-2.4324268e-05
5	0xba95f4b0	-0.001144072
6	0x3a885e96	0.0010404165
7	0x396323c1	0.00021661726
8	0x3b66b09a	0.0035200478
9	0x3a53b859	0.0008076481
10	0x36d89fea	6.455918e-06
11	0x3b96a4b5	0.0045972713
12	0xbb9acf2c	-0.004724404
13	0xb95d69fc	-0.00021115685
14	0x3bc04f62	0.005868838
15	0xbb800b9a	-0.003907633
16	0x35d53564	1.5885275e-06
17	0x3be83650	0.0070865527
18	0x3b45ac1b	0.0030162397
19	0x39e60e2f	0.00043879586
20	0x3b1f476a	0.002430404
21	0x3b5f12a8	0.003403822
22	0x3457136d	2.0030502e-07
23	0x3b4da48b	0.0031378593
24	0x3b16965e	0.002297781
25	0xb996485e	-0.00028664147
26	0xb98f8282	-0.0002737232
27	0x3b70670d	0.0036682517
28	0x37d9ff2d	2.5987241e-05
29	0x3b131cca	0.002244758
30	0xbb32a096	-0.0027256361
31	0xba02db36	-0.00049917714
32	0x3bb2f732	0.005461597
33	0xbb88687b	-0.0041628457
34	0xb804eb5f	-3.169046e-05
35	0x3b81ce3f	0.003961354
36	0xb93adaa2	-0.0001781979
37	0xb8a8fc10	-8.0578146e-05
38	0xb9ffb9a9	-0.00048775718
39	0x3a2b45f0	0.0006533554
40	0xb5cba0c6	-1.517147e-06
41	0x3adc0404	0.0016785865
42	0xbbd1ecee	-0.006406418
43	0xba83ad4f	-0.0010046157
44	0x3b433e9c	0.0029791957
45	0xbbc85053	-0.006113091
46	0x38012b96	3.079659e-05
47	0x3bb78cd8	0.0056015067
48	0x396b89a1	0.00022462617
49	0xb9433105	-0.0001861491
50	0xba6894cf	-0.0008872272
51	0x39f0a3b6	0.0004589834
52	0x37579779	1.2850266e-05
53	0x3a22ffbf	0.00062179187
54	0xb959c5a6	-0.00020768362
55	0xba0f5703	-0.0005467983
56	0xbac28a9a	-0.0014842332
57	0x3a703e23	0.00091645325
58	0x373ca662	1.1244412e-05
59	0xba392139	-0.00070621405
60	0x39e8ba62	0.00044389354
61	0xb970f07b	-0.0002297777
62	0xba2d41e9	-0.00066092476
63	0x3a0c5067	0.0005352557
64	0x372a892b	1.01647265e-05
65	0x3ab71630	0.0013968404
66	0xba886035	-0.0010404648
67	0xb8925fef	-6.9796915e-05
68	0x3b2e936f	0.002663817
69	0x3a062964	0.0005117862
70	0x3774b2eb	1.4585191e-05
71	0x3b1529b7	0.002276046
72	0x3a7ea60d	0.00097140745
73	0xb9fa6968	-0.0004776225
74	0xb9f011c2	-0.00045789598
75	0x3abf96b8	0.0014617061
76	0xb501d691	-4.836848e-07
77	0xba23693a	-0.00062336365
78	0x3abc8100	0.0014381707
79	0x3990f82c	0.00027650723
80	0xbb02e0e6	-0.0019970476
81	0x39cf2b76	0.00039514498
82	0xb791e0c4	-1.7390012e-05
83	0xbb3fcee1	-0.0029267597
84	0xbbeecf3f	-0.0072878893
85	0xba9f3dc9	-0.0012149151
86	0x3aa9d5fe	0.0012957451
87	0xbbba93b1	-0.0056938757
88	0xb614a8cc	-2.2151971e-06
89	0x3b4790a1	0.0030451196
90	0x3a4737ec	0.00075995806
91	0xb9d0c60d	-0.0003982041
92	0xbab6da33	-0.0013950526
93	0x3abc7f04	0.0014381115
94	0x37629e22	1.3507468e-05
95	0x3aa57eba	0.0012626268
96	0x3a0f3d84	0.00054641836
97	0xb9056cbb	-0.00012724374
98	0xba043ea0	-0.0005044732
99	0x39efd6ce	0.00045745674
100	0x37809563	1.5328353e-05
101	0x3a797df8	0.0009517367
102	0xbafae70d	-0.0019142345
103	0xb9ee2379	-0.00045421327
104	0x3b2b8de4	0.0026177103
105	0xbb69657b	-0.0035613466
106	0xb78753fe	-1.6132366e-05
107	0x3b146411	0.0022642652
108	0x3a49d93d	0.00076999125
109	0xba118d07	-0.0005552326
110	0xb9e0953a	-0.00042835792
111	0x3a550427	0.0008125924
112	0x36ed5194	7.0726473e-06
113	0x39c65ead	0.00037836042
114	0x3ad87e85	0.0016517198
115	0x387f835f	6.0919087e-05
116	0xbb41f68d	-0.0029596419
117	0x39e8a081	0.00044370073
118	0xb77b2668	-1.4969708e-05
119	0xbb799420	-0.0038082674
120	0xba9f1460	-0.001213681
121	0x39c73a48	0.0003799966
122	0x3bcc6a36	0.0062382473
123	0xba6d6407	-0.0009055738
124	0x37328aa0	1.0641903e-05
125	0x3bb0c06d	0.0053940327
126	0x3ad15a5c	0.0015972364
127	0x3971c403	0.00023056571
128	0x3c5e9b02	0.013586761
129	0x3af9825d	0.0019036044
130	0xb657a6ba	-3.2134544e-06
131	0x3c63a740	0.013894856
132	0x3b3ee6d1	0.0029129277
133	0xb9a7e9a9	-0.00032026813
134	0xbb0e3b3f	-0.0021702794
135	0x3b50c89c	0.0031857854
136	0xb691d0dd	-4.3456516e-06
137	0xbb39ff6f	-0.002838101
138	0xbb9aea2c	-0.0047276225
139	0xb9080c7a	-0.00012974619
140	0x3b8e57c7	0.00434396
141	0xbbaf1449	-0.0053429944
142	0xb80fb336	-3.426076e-05
143	0x3b26c3fc	0.0025446406
144	0x3b21bb0e	0.0024678144
145	0x39c41bb3	0.0003740467
146	0x3babc77f	0.0052422876
147	0x3b0c065e	0.00213661
148	0xb60de3cd	-2.1143235e-06
149	0x3b5920b5	0.0033131067
150	0xba9b50e0	-0.0011849664
151	0xb9c084b4	-0.00036719965
152	0xba029b52	-0.0004982251
153	0xba812927	-0.0009854183
154	0x365abc82	3.2594257e-06
155	0x3ab06d83	0.0013460371
156	0x3a2ebf0c	0.00066660414
157	0xba5ac54d	-0.000834544
158	0x3bce2077	0.006290491
159	0x3b29dacf	0.0025917774
160	0x38132090	3.5077857e-05
161	0x3c123960	0.008924812
162	0x3b6214ac	0.0034497185
163	0x39a7b381	0.00031986463
164	0x3bc911cc	0.0061361548
165	0x3b99539d	0.004679157
166	0x381468c9	3.538354e-05
167	0x3bd08f37	0.006364729
168	0x3b006a78	0.001959471
169	0x392d0483	0.00016500246
170	0x3b10ac7e	0.002207547
171	0x3abaac0d	0.0014241949
172	0xb7769bc8	-1.4699013e-05
173	0x3aeea49f	0.001820702
174	0xbbbda729	-0.0057877493
175	0xba0899db	-0.00052109145
176	0x3b77d339	0.0037815107
177	0xbbf0d43c	-0.007349519
178	0xb6703f7d	-3.5799742e-06
179	0x3bb1d25f	0.0054266895
180	0xbb26889d	-0.0025411018
181	0x394047d1	0.000183373
182	0xbb602e23	-0.0034207187
183	0xbb2592c6	-0.0025264486
184	0xb6a8cc54	-5.030577e-06
185	0xbb3122cc	-0.0027028797
186	0x3b258a75	0.0025259529
187	0xba0d5f79	-0.00053929497
188	0x38dae454	0.000104375795
189	0x3ad59ed6	0.0016297947
190	0x38011a68	3.078059e-05
191	0x3b220228	0.0024720524
192	0x3badd5cb	0.005305027
193	0xb9f7e0e1	-0.0004727906
194	0x38feec0a	0.000121556295
195	0x3b87305c	0.004125638
196	0xb681fb0e	-3.873726e-06
197	0xba547c45	-0.0008105676
198	0x3b85807b	0.004074154
199	0xb8671e45	-5.5102882e-05
200	0x3bd4c5d2	0.0064933086
201	0x3ba2e339	0.0049709347
202	0x37b9c7f1	2.2146824e-05
203	0x3bdedefa	0.006801483
204	0x3b5f28b1	0.0034051354
205	0xba45e9de	-0.00075498025
206	0xbaad5653	-0.0013224579
207	0x3a705e87	0.0009169359
208	0xb63531ad	-2.7000017e-06
209	0xba4ccb0a	-0.00078122376
210	0x3aaab5a5	0.0013024105
211	0xba63b386	-0.0008686114
212	0x3a805c2f	0.0009793098
213	0x3a5f867e	0.0008526816
214	0xb6a5bcf4	-4.9393802e-06
215	0x3b36c0a9	0.002788583
216	0xba08b9b2	-0.0005215659
217	0xb9944beb	-0.00028285323
218	0x3b6d3f46	0.0036201044
219	0x3a562176	0.0008168438
220	0x378b39a7	1.6596938e-05
221	0x3b940d69	0.0045182
222	0xb8ce9ef8	-9.852456e-05
223	0xb96e8551	-0.00022747113
224	0x3b4645f4	0.0030254098
225	0x3ab4915a	0.0013776228
226	0x37bf0890	2.2772962e-05
227	0x3b8e02de	0.004333838
228	0x3b104a68	0.0022017006
229	0x37615754	1.3431378e-05
230	0x3b86e298	0.0041163675
231	0x3a2c47c6	0.00065719744
232	0xb6cb4a0a	-6.0584907e-06
233	0x3affac45	0.0019506296
234	0xbb16d5c6	-0.0023015602
235	0xb9fde4af	-0.00048426303
236	0xbb1450a6	-0.0022631078
237	0xbb99d126	-0.004694122
238	0xb7a52562	-1.968694e-05
239	0xba96cbf6	-0.0011504877
240	0xb7f8cdb5	-2.9659694e-05
241	0x3a08ad6f	0.0005213832
242	0x3afd919f	0.0019345767
243	0xb974fcca	-0.00023363825
244	0x36aa88b1	5.082308e-06
245	0xba4157ee	-0.0007375468
246	0x3b97e7d7	0.0046357918
247	0x3997b54d	0.00028936044
248	0x3b055139	0.0020342602
249	0x3b5f4218	0.0034066495
250	0xb8075d93	-3.2273656e-05
251	0x3b026b1a	0.0019900263
252	0x3ace8ec5	0.0015759101
253	0xb99e10bc	-0.00030148576
254	0xbb1dc240	-0.002407208
255	0x3adefa51	0.0017011856

exp_avg_sq f4 [128, 6]
0	0x3a1d69fb	0.0006004867
1	0x3757dffc	1.2867149e-05
2	0x39d0c181	0.00039817023
3	0x3a06f8ed	0.0005148787
4	0x3213fd5b	8.6141325e-09
5	0x39eecada	0.00045546034
6	0x39d41cb9	0.0004045719
7	0x36b34a3d	5.343258e-06
8	0x3988c8eb	0.00026089637
9	0x39b51cdd	0.00034544515
10	0x3184d722	3.8661634e-09
11	0x39855cf2	0.00025436986
12	0x3a7bda6f	0.0009607439
13	0x37e73b62	2.7564998e-05
14	0x3a59838c	0.0008297495
15	0x3a7e82a2	0.0009708797
16	0x32a9a62e	1.974976e-08
17	0x3a49a31d	0.0007691847
18	0x39fa84f5	0.00047782777
19	0x373124ea	1.0558617e-05
20	0x39e09898	0.000428383
21	0x39e30a91	0.00043304687
22	0x31f8fed0	7.246719e-09
23	0x3a31137b	0.0006754917
24	0x3a108e55	0.0005514373
25	0x372c24de	1.0260583e-05
26	0x39c1bc3d	0.00036952077
27	0x39f6c6d0	0.00047068903
28	0x31ed9360	6.9143624e-09
29	0x39d362b4	0.00040318596
30	0x3a6c0f77	0.000900499
31	0x3804cfa9	3.166465e-05
32	0x3a2a4985	0.00064959406
33	0x3a754e92	0.0009357716
34	0x32b4586a	2.0994964e-08
35	0x3a42da94	0.00074330834
36	0x38f4e314	0.00011677123
37	0x35f7c82f	1.8461195e-06
38	0x38b034f7	8.4021995e-05
39	0x38ee8c33	0.000113748385
40	0x30b87b99	1.3422891e-09
41	0x38b42a11	8.590904e-05
42	0x3a102510	0.0005498687
43	0x379218fc	1.741619e-05
44	0x39feefee	0.00048625417
45	0x3a0cc5c1	0.0005370044
46	0x324a6c06	1.1782509e-08
47	0x3a231796	0.0006221471
48	0x392f4b16	0.00016717272
49	0x36902faf	4.2970855e-06
50	0x394b5674	0.00019391795
51	0x390d83c3	0.00013495893
52	0x31557b87	3.1065797e-09
53	0x398098ca	0.000245279
54	0x38aa8a9a	8.132048e-05
55	0x363b4f8a	2.791147e-06
56	0x38e437df	0.00010882294
57	0x38b4ec32	8.627064e-05
58	0x30f96996	1.8147144e-09
59	0x3901ada8	0.0001236709
60	0x38d132ae	9.9753364e-05
61	0x36524cf8	3.133724e-06
62	0x38ce71a4	9.844013e-05
63	0x38d0e15a	9.960188e-05
64	0x31117615	2.11674e-09
65	0x391ae2eb	0.00014771118
66	0x38f1133b	0.000114953575
67	0x36896035	4.094118e-06
68	0x3916320b	0.00014323757
69	0x38bf65b4	9.1265334e-05
70	0x314e046b	2.9979457e-09
71	0x3962c314	0.00021625712
72	0x399a2e9a	0.0002940789
73	0x36802e3c	3.8200797e-06
74	0x39112926	0.00013843607
75	0x398740d4	0.00025797507
76	0x31274164	2.4338869e-09
77	0x391a4ded	0.00014715614
78	0x39643c17	0.0002176616
79	0x372fa48f	1.0469127e-05
80	0x399d1fc5	0.00029969044
81	0x3995aaad	0.00028546658
82	0x31eaf085	6.8376402e-09
83	0x39cb7817	0.0003880865
84	0x393fa92f	0.00018278205
85	0x36862ebd	3.9989523e-06
86	0x3916a493	0.00014366423
87	0x3935da3f	0.00017342808
88	0x3125329d	2.403943e-09
89	0x39558b09	0.00020365058
90	0x3909dc66	0.00013147443
91	0x368f9f16	4.280252e-06
92	0x3947a8ca	0.00019040998
93	0x38fab28a	0.000119541844
94	0x31496624	2.930741e-09
95	0x39684295	0.00022150048
96	0x38d2933f	0.00010041007
97	0x36334f97	2.6719406e-06
98	0x38a3c351	7.808826e-05
99	0x38b0818f	8.416466e-05
100	0x31264dad	2.4200333e-09
101	0x38c7bdec	9.524435e-05
102	0x3976d629	0.00023540169
103	0x36b6d9ea	5.449391e-06
104	0x392a36b6	0.00016232845
105	0x397609f8	0.00023464102
106	0x317f281a	3.713018e-09
107	0x395c1791	0.00020989614
108	0x391e69ef	0.00015107518
109	0x36fe2382	7.5739235e-06
110	0x392e4265	0.00016618667
111	0x391ec607	0.00015141825
112	0x31a558eb	4.812241e-09
113	0x395f2080	0.00021279044
114	0x3a415f68	0.00073765824
115	0x370e6910	8.488321e-06
116	0x39af2f6e	0.0003341394
117	0x3a22a52e	0.0006204423
118	0x31d599d6	6.216605e-09
119	0x3989f775	0.00026315046
120	0x3a4a27c8	0.00077116163
121	0x37a5b894	1.9755484e-05
122	0x3a24b579	0.0006283145
123	0x3a6cacf5	0.0009028458
124	0x325d2f1d	1.2874605e-08
125	0x3a2c07bb	0.0006562431
126	0x3ac9441a	0.0015355379
127	0x381ac55b	3.6900263e-05
128	0x3a9f23be	0.0012141389
129	0x3adea23c	0.0016985605
130	0x32d8bfdd	2.5232959e-08
131	0x3acc036f	0.0015564988
132	0x3a050dfb	0.00050756306
133	0x36ae9e41	5.2040273e-06
134	0x397e907d	0.00024277154
135	0x39cd4751	0.00039153782
136	0x3178c2d3	3.6199495e-09
137	0x39349dde	0.00017224948
138	0x3a4ab4dc	0.00077326386
139	0x37914512	1.731751e-05
140	0x3a056b11	0.00050895015
141	0x3a309c7f	0.0006737187
142	0x3252cc32	1.2270037e-08
143	0x3a0889f4	0.0005208545
144	0x39a2d970	0.0003106105
145	0x36dbb595	6.5478475e-06
146	0x3986ee28	0.00025735912
147	0x39873998	0.00025792117
148	0x31a6d653	4.8556017e-09
149	0x398934ce	0.0002617002
150	0x39ba6508	0.0003555196
151	0x3752a541	1.2555452e-05
152	0x39e7c224	0.000442044
153	0x39cc4da6	0.00038967765
154	0x320b4ef8	8.10882e-09
155	0x3a277108	0.00063873874
156	0x3a45bff3	0.0007543556
157	0x379e6610	1.8882594e-05
158	0x3a35af53	0.00069307274
159	0x3a58de55	0.0008272876
160	0x324d2211	1.1940316e-08
161	0x3a85670f	0.0010177809
162	0x3a1dd5d8	0.000602094
163	0x377122c2	1.4372812e-05
164	0x3a1b258a	0.00059183745
165	0x3a17f5fa	0.0005796846
166	0x322b242c	9.9617345e-09
167	0x3a4c3085	0.00077892124
168	0x399556cc	0.00028484163
169	0x36bc2b45	5.607874e-06
170	0x39806aaf	0.00024493548
171	0x3972dd82	0.00023161437
172	0x318b53b4	4.0549484e-09
173	0x399a00a1	0.00029373638
174	0x3a1c8fcd	0.0005972356
175	0x37a099d3	1.9145116e-05
176	0x39eedb06	0.00045558083
177	0x3a446289	0.00074914895
178	0x3253f458	1.2337374e-08
179	0x39ec629d	0.000450869
180	0x39521bd9	0.00020037535
181	0x370a5d5a	8.247176e-06
182	0x3988d121	0.00026095755
183	0x393e6bda	0.0001815999
184	0x31bcab5e	5.4910023e-09
185	0x39d008bf	0.00039679368
186	0x3986ed07	0.0002573507
187	0x36a42cc2	4.8927914e-06
188	0x3947514f	0.00019008409
189	0x396c385a	0.00022527706
190	0x3165796f	3.3392913e-09
191	0x3950fbc6	0.00019930219
192	0x39d5c4df	0.00040773206
193	0x36ebe633	7.0303445e-06
194	0x39979b4a	0.00028916664
195	0x39b2490b	0.00034005227
196	0x31ad981b	5.052255e-09
197	0x39b874df	0.0003518229
198	0x3a4ef0ed	0.0007894177
199	0x37c4d7a0	2.3465429e-05
200	0x3a58f2b4	0.00082759117
201	0x3a220078	0.00061798794
202	0x3287af5c	1.5795813e-08
203	0x3a99bc4b	0.0011729089
204	0x39c1b844	0.00036949117
205	0x373df3f3	1.1322077e-05
206	0x3a094c64	0.00052375183
207	0x39dc0e65	0.00041972395
208	0x31f424ea	7.1055313e-09
209	0x3a490913	0.00076688937
210	0x39dcb180	0.00042093918
211	0x3791a01f	1.735991e-05
212	0x39fdc93b	0.0004840585
213	0x39ebf9e7	0.00045008885
214	0x321fe177	9.306283e-09
215	0x3a42250b	0.00074060325
216	0x3a2263f4	0.0006194704
217	0x372ea3ec	1.0409374e-05
218	0x39cc4c74	0.00038966874
219	0x3a29b969	0.00064744666
220	0x31f04bdf	6.993545e-09
221	0x3a102817	0.0005499138
222	0x3942a0ad	0.00018561138
223	0x36af084d	5.2163728e-06
224	0x3972c660	0.00023152819
225	0x39338b48	0.00017122657
226	0x3183117b	3.814589e-09
227	0x39a85343	0.00032105492
228	0x39b7457a	0.00034956244
229	0x36f53bc3	7.308526e-06
230	0x397a97b5	0.00023898373
231	0x39c32181	0.0003721826
232	0x31a20544	4.715419e-09
233	0x3985def8	0.00025533861
234	0x38b618e5	8.683073e-05
235	0x3687db89	4.048871e-06
236	0x38fbfe56	0.000120159864
237	0x38a8aa6e	8.042609e-05
238	0x31183879	2.2151012e-09
239	0x391439df	0.00014135939
240	0x3a42cb04	0.00074307644
241	0x375b5ef8	1.3075529e-05
242	0x39ad5163	0.0003305777
243	0x3a4bdc42	0.00077766564
244	0x3212ab6b	8.537294e-09
245	0x39d3468d	0.0004029762
246	0x39ab430b	0.00032665613
247	0x36b793ff	5.471054e-06
248	0x3930c494	0.00016857899
249	0x39b1b324	0.0003389354
250	0x3196ebc9	4.3923802e-09
251	0x3978a6b7	0.00023713229
252	0x3910d7e4	0.00013813336
253	0x3641b28c	2.886317e-06
254	0x39128d95	0.00013976388
255	0x38e6d422	0.000110067675

exp_avg f4 [128]
0	0xba8388b0	-0.0010035243
1	0xba0960fd	-0.00052405876
2	0x390e4858	0.00013569125
3	0xbaccdf0f	-0.0015630441
4	0x3a83cfd8	0.0010056449
5	0x3b065508	0.002049746
6	0xb80c3f2c	-3.3437434e-05
7	0x3b5792e2	0.0032893945
8	0x3957a1e2	0.00020564304
9	0x3ad992f5	0.0016599583
10	0x391fef84	0.00015252648
11	0x396c397c	0.00022528128
12	0x3a9877ac	0.0011632345
13	0xba8347e1	-0.0010015928
14	0x3b791ce9	0.0038011617
15	0x3a82aaa9	0.0009969074
16	0xb94650bb	-0.00018912826
17	0x3a845059	0.0010094746
18	0x3ac0409c	0.0014667693
19	0xba16bc41	-0.0005750098
20	0xbaab1ab2	-0.001305422
21	0xba8711c9	-0.0010304983
22	0x3a2e19e4	0.0006641431
23	0x3a0ce239	0.0005374286
24	0xba96becc	-0.0011500954
25	0x3a6792e2	0.0008833838
26	0x3b12d069	0.0022402054
27	0xbaa1c27f	-0.001234129
28	0xbaa2a9dc	-0.0012410241
29	0x3aba5d7d	0.0014218536
30	0xbac04d45	-0.0014671466
31	0x3ae0afd8	0.0017142249
32	0x3a1756bb	0.0005773117
33	0x3991b5f0	0.0002779211
34	0x3b072b6f	0.0020625254
35	0x3b24602f	0.0025081744
36	0x39fd9172	0.00048364286
37	0x395a02ca	0.00020791139
38	0x39109c89	0.00013791224
39	0x3ab9fa2d	0.0014188938
40	0xba82c76f	-0.0009977649
41	0xbab7ff1a	-0.0014037818
42	0x3a5eadba	0.0008494515
43	0x3a564c3b	0.00081748114
44	0x3a649f91	0.0008721287
45	0xba4c3e37	-0.0007791253
46	0xb9ab2e0a	-0.00032649963
47	0x39d07911	0.00039763053
48	0x39a5c15e	0.00031615322
49	0x3b4e2da3	0.0031460307
50	0xba71d965	-0.0009225815
51	0xb97824df	-0.00023664859
52	0x3b291497	0.0025799626
53	0xb99cd1e6	-0.00029911025
54	0xb8ac4a78	-8.21547e-05
55	0x3a823e1a	0.0009936721
56	0x37bb5742	2.233277e-05
57	0x39bb6ecc	0.0003574997
58	0xba255cd7	-0.00063080847
59	0x3b501b49	0.0031754544
60	0xb99de942	-0.00030119164
61	0x3a084ae3	0.0005199147
62	0xba76a367	-0.0009408504
63	0xbadf0e8f	-0.0017017889
64	0x3b4ce02b	0.0031261544
65	0x399e924c	0.00030245108
66	0xba2d1571	-0.0006602621
67	0x3a39ed80	0.000709258
68	0x3b18e240	0.0023328215
69	0x39ac1b84	0.00032826897
70	0xba44f092	-0.00075126544
71	0xba54083a	-0.0008088384
72	0xb9547a60	-0.00020263484
73	0xba10ce71	-0.0005523926
74	0xbaec395f	-0.0018022469
75	0xba894bcb	-0.0010474859
76	0x3a52b3d1	0.0008037659
77	0x3a96f39c	0.0011516693
78	0x3a227d85	0.00061985134
79	0x3a356a8b	0.0006920478
80	0x3a723328	0.000923919
81	0x3a19b1ab	0.00058629614
82	0xb993769c	-0.00028126396
83	0x3b0087d0	0.00196122
84	0x3aa762ab	0.0012770494
85	0x3a339fe3	0.0006852133
86	0x396c9814	0.00022563367
87	0xb9c1cb93	-0.00036963503
88	0xbac89598	-0.0015303371
89	0xba272529	-0.0006376082
90	0x3a6cacf2	0.00090284564
91	0xbafe390c	-0.0019395663
92	0x3b00bdd5	0.0019644399
93	0x3b0a62f6	0.0021116114
94	0x3aadd34a	0.0013261822
95	0xba96e295	-0.0011511619
96	0xb921e8f0	-0.00015440932
97	0x3ad95dff	0.0016583799
98	0x39915f76	0.0002772768
99	0x3a9cb0ed	0.0011954583
100	0xbb053c5d	-0.0020330169
101	0x3b6f349a	0.0036499859
102	0x395ff57f	0.00021358392
103	0x397a8a20	0.00023893313
104	0x3a4af81d	0.000774266
105	0xba0f55ba	-0.00054677913
106	0x3a0b2eb8	0.0005309391
107	0x3a382cf1	0.000702574
108	0x3aa3d3d4	0.0012499043
109	0x3ac5d8d3	0.0015094526
110	0x39bb7c98	0.0003576025
111	0x3b5ff9d5	0.003417601
112	0xb938c340	-0.00017620344
113	0x3b17e3aa	0.002317647
114	0xb8add8bd	-8.2896535e-05
115	0x3a8664ff	0.0010253488
116	0x3ac8334a	0.0015274074
117	0x37768fcf	1.4696226e-05
118	0x3a559753	0.0008147854
119	0x3ad58ea2	0.0016293118
120	0x39e4517e	0.00043548265
121	0xba03a5a2	-0.00050219346
122	0x390a5f4f	0.00013196211
123	0x3a523fcf	0.00080203725
124	0x3ac3007a	0.0014877461
125	0x39cc8ef7	0.0003901643
126	0x3a853851	0.0010163878
127	0x3b4e0908	0.0031438489

exp_avg_sq f4 [128]
0	0x3902120a	0.00012404486
1	0x3860d060	5.3599826e-05
2	0x398ae68a	0.00026493176
3	0x38ddc033	0.00010573901
4	0x38cfa238	9.900745e-05
5	0x399f5dd8	0.00030396762
6	0x37a0f6f4	1.9188483e-05
7	0x3934e58c	0.0001725165
8	0x382d6516	4.1340558e-05
9	0x37e8f8e2	2.777245e-05
10	0x37ffbf0f	3.0487337e-05
11	0x3827e77f	4.00315e-05
12	0x3819636f	3.6570647e-05
13	0x38d2331b	0.000100230995
14	0x3825c048	3.951814e-05
15	0x38337573	4.278631e-05
16	0x37df95f5	2.66535e-05
17	0x3865f604	5.4826975e-05
18	0x3897a38e	7.2307055e-05
19	0x38b306e9	8.536672e-05
20	0x3948002e	0.00019073553
21	0x39bc0e90	0.00035869004
22	0x385a8cfc	5.2106552e-05
23	0x3930511f	0.00016814888
24	0x388710ac	6.440407e-05
25	0x38fc6dee	0.000120367724
26	0x393df25c	0.0001811473
27	0x39161c1e	0.00014315589
28	0x38683b37	5.536826e-05
29	0x3943713d	0.00018638834
30	0x38a657c2	7.931843e-05
31	0x38542c9f	5.0586295e-05
32	0x389017c1	6.8708796e-05
33	0x396eb8ed	0.00022766339
34	0x38e53dbb	0.00010931069
35	0x392ebcbd	0.00016664244
36	0x38d50baf	0.00010158808
37	0x385a5f5d	5.2064064e-05
38	0x389523a8	7.111515e-05
39	0x38266e1e	3.968004e-05
40	0x39053bab	0.00012706096
41	0x386b2570	5.6063232e-05
42	0x37ecbd75	2.8221615e-05
43	0x39528a4a	0.00020078677
44	0x385979c3	5.185023e-05
45	0x38266c5b	3.9678398e-05
46	0x38add91f	8.289725e-05
47	0x386287cf	5.400908e-05
48	0x37f746d4	2.9477676e-05
49	0x387e288d	6.0596085e-05
50	0x389a22ba	7.3497606e-05
51	0x395f159d	0.00021274989
52	0x38a18cd9	7.703313e-05
53	0x37e247f6	2.6974809e-05
54	0x388da42f	6.7539855e-05
55	0x3904d120	0.00012666406
56	0x38a8814a	8.034946e-05
57	0x38b654b1	8.694211e-05
58	0x3893ac31	7.0415794e-05
59	0x3998f1ef	0.00029171954
60	0x382b62ea	4.0861698e-05
61	0x38dcf4d0	0.00010536017
62	0x3858f0a4	5.1722527e-05
63	0x38986801	7.267297e-05
64	0x3995b4be	0.00028554158
65	0x38152ec4	3.5567922e-05
66	0x39227f75	0.00015497005
67	0x376d410a	1.4141444e-05
68	0x3810c883	3.4519016e-05
69	0x37eafffd	2.8014178e-05
70	0x383107a5	4.2207208e-05
71	0x38819801	6.179512e-05
72	0x391961ce	0.00014627652
73	0x3957d3b5	0.00020582865
74	0x38618cc9	5.3775297e-05
75	0x379650da	1.7919043e-05
76	0x384b4359	4.8461694e-05
77	0x3897f81c	7.246455e-05
78	0x37c1b179	2.3090035e-05
79	0x38e01491	0.00010684983
80	0x380da062	3.3766388e-05
81	0x384c8c07	4.87678e-05
82	0x3843b97b	4.6664365e-05
83	0x38b11b00	8.445047e-05
84	0x38267e85	3.9695315e-05
85	0x3846d2bd	4.7403144e-05
86	0x38e2956c	0.00010804352
87	0x378dc968	1.6902297e-05
88	0x389f6881	7.601176e-05
89	0x38346a4b	4.3014337e-05
90	0x390800fd	0.00012970339
91	0x3883749c	6.268287e-05
92	0x389469c1	7.076888e-05
93	0x3904d0a1	0.00012666221
94	0x3874d08d	5.836836e-05
95	0x39091c52	0.00013075888
96	0x38e248ab	0.00010790055
97	0x385a4463	5.203894e-05
98	0x37b53a27	2.160396e-05
99	0x38296bf3	4.0393275e-05
100	0x38c9267a	9.591594e-05
101	0x393c7574	0.00017972832
102	0x38b3423c	8.547722e-05
103	0x38b229a4	8.4954576e-05
104	0x37dc09cf	2.6230611e-05
105	0x3780180b	1.5269985e-05
106	0x3823bef2	3.904006e-05
107	0x3935bd7d	0.00017332095
108	0x3840d1d6	4.5971792e-05
109	0x3767bd15	1.3812697e-05
110	0x383672e5	4.3499185e-05
111	0x388d2a95	6.7313355e-05
112	0x394ed35c	0.00019724428
113	0x3806cb84	3.213763e-05
114	0x3911d8bb	0.00013909016
115	0x38425f7c	4.634213e-05
116	0x38423a6b	4.630761e-05
117	0x3818f061	3.6463494e-05
118	0x38fa5565	0.00011936835
119	0x38a00438	7.63018e-05
120	0x37e36553	2.7107691e-05
121	0x38a863f1	8.02948e-05
122	0x391a78e7	0.00014731624
123	0x37f43c2e	2.911509e-05
124	0x388e56d9	6.787264e-05
125	0x38a7e460	8.005719e-05
126	0x383c5267	4.4899436e-05
127	0x38b9517f	8.836667e-05
