ML-Agents/Examples/results/movetogoal/MoveToGoal/MoveToGoal-7499985.onnx (onnx, 75098 bytes, 7 tensors)

network_body._body_endoder.seq_layers.0.weight f4 [128, 6]
0.63788265 -0.4551569 0.24758764 -0.2638657 -0.7423988 0.15429257 -0.21455555 0.027516017
0.33774474 0.61703515 0.56561375 -0.5851276 0.696302 0.19658266 -0.8948634 -0.48706585
0.13438223 0.51919794 -0.8992464 -0.26700464 -0.503762 0.027411696 0.5704648 0.5133045
0.44160408 -0.10326447 0.73484194 0.21556091 0.3868646 -0.53504586 0.78708524 -0.17421252
0.07859973 -0.79377556 -0.59923154 0.07797464 0.19942977 0.3341464 -0.13401073 0.2208903
-0.45720816 -0.4007464 -0.5294401 -0.1076302 0.08913551 -1.1599809 -0.6597963 -0.17623675
0.003061899 -0.16461441 -0.36702812 0.24185272 0.6941319 -0.31970653 -0.24226366 0.025134427
-0.101250336 0.32966197 -0.86037 -0.120584115 0.46437213 0.5218622 -0.24229331 0.43683618
-0.824981 -0.0895449 -0.31291 0.042480167 0.3500822 0.29366663 -0.4435702 -0.3981984
0.4632573 0.350243 -0.12793688 0.0793974 0.4654862 0.12901598 -0.6496248 0.13879848
-0.72472095 -0.5572816 -0.1410729 0.30234435 -0.24540374 -0.15559696 0.60319406 -0.6394672
0.6142344 0.22545183 0.24242069 -0.16356084 0.9257629 0.424933 -0.7556714 -0.108654216
0.5795463 0.45523944 -0.30099726 0.50166726 0.34917507 -0.5483399 0.07698035 1.0195222
-0.15811242 -0.54249305 -0.34591126 -0.2946097 -0.23181355 -0.6709845 -0.10757529 -0.035928067
0.505844 0.1814078 0.69294137 0.37355128 0.1944547 0.14493047 0.13565628 0.78348756
0.3186763 -0.056677595 -0.6918595 -0.60997707 0.20497808 0.25759822 -0.8209458 0.0189515
-0.8141664 1.053846 -0.49079296 0.7323224 0.5991247 0.09120349 0.1743917 0.5149816
0.83254254 0.88521093 0.63644534 0.08196607 -0.35359222 -0.4962119 0.28349835 0.47092706
-0.24138631 -0.103648946 0.43045598 0.6370982 0.049541473 -1.0041418 -0.2887509 -0.44881848
-0.41929036 -0.27216083 0.3694254 0.1925203 -1.0118406 -0.41379923 0.0067961183 0.61339104
-1.308336 0.26369023 -0.7758008 -0.6343377 0.52269006 0.51204777 -0.022921521 -0.45346344
-0.19053002 0.82964146 -0.67076385 0.5889281 -0.48958123 -0.21705821 0.6864908 1.122551
-0.27777553 -0.95939773 -0.1564546 0.13357969 0.59408146 -0.2870733 -0.3877855 0.8251406
-0.015184229 -0.48357219 -0.08921871 0.19161256 0.43299106 0.7757904 0.114506826 -0.11124901
0.26121518 0.4497113 -1.0086994 0.11086317 -0.20364198 -0.29146966 0.118077226 0.26274103
0.8906214 0.05693849 -0.2801469 -0.9137428 0.37113443 -0.058969844 -1.0459405 0.28993773
-0.12423047 0.34967902 -0.19285004 -0.020157777 -0.5493728 -0.086199425 -0.21042973 0.7415054
-1.0490264 -0.3084181 -0.2422652 0.66996133 0.113345966 0.023332793 -0.41264543 -0.18423192
0.32718432 0.20206499 -0.06954825 -0.17524481 0.32405677 -0.33301586 -0.36582193 -0.61285496
0.54760873 -0.29702744 -0.04931112 0.013472012 0.35979614 -0.3615602 -0.2860263 0.93134683
-0.19600579 -0.27083984 0.10805476 0.01816019 -1.254504 -0.107474685 -0.18229483 1.2714143
0.23308295 -0.26009646 -0.0790075 -0.7645972 0.7462999 -0.015438464 0.11944102 0.29282948
00000000: 474c 233f 530a e9be 9d87 7d3e 6819 87be
00000010: d90d 3ebf dffe 1d3e 73b4 5bbe 4569 e13c
00000020: e1ec ac3e 04f6 1d3f 10cc 103f ecca 15bf
00000030: d940 323f f74c 493e c515 65bf b260 f9be
00000040: 7f9b 093e 28ea 043f 0335 66bf d5b4 88be
00000050: 8cf6 00bf 7e8e e03c fb09 123f ec67 033f
00000060: ee19 e23e 537c d3bd 9a1e 3c3f 00bc 5c3e
00000070: 1e13 c63e c4f8 08bf 6b7e 493f c464 32be
00000080: e5f8 a03d e034 4bbf 3d67 19bf 2bb1 9f3d
00000090: 5137 4c3e 3d15 ab3e 1c3a 09be 1131 623e
000000a0: 3017 eabe a22e cdbe 6389 07bf 396d dcbd
000000b0: ae8c b63d 417a 94bf 69e8 28bf 6877 34be
000000c0: 24aa 483b ae90 28be 1ceb bbbe 3da8 773e
000000d0: a1b2 313f 93b0 a3be f713 78be b7e6 cd3c
000000e0: 565c cfbd 74c9 a83e 3541 5cbf cef4 f6bd
000000f0: 2fc2 ed3e c398 053f bd1b 78be fea8 df3e
00000100: f431 53bf 5163 b7bd bd35 a0be afff 2d3d
00000110: f93d b33e 795b 963e a21b e3be a9e0 cbbe
00000120: 1030 ed3e 0d53 b33e e301 03be 1b9b a23d
00000130: 3554 ee3e c41c 043e d04d 26bf 3021 0e3e
00000140: 5087 39bf 02aa 0ebf 6a75 10be e1cc 9a3e
00000150: 1e4b 7bbe cf54 1fbe ed6a 1a3f 1fb4 23bf
00000160: 773e 1d3f d8dc 663e 213d 783e 7e7c 27be
00000170: ccfe 6c3f d190 d93e ae73 41bf 1a86 debd
00000180: 255d 143f 2515 e93e 501c 9abe 446d 003f
00000190: 13c7 b23e 0160 0cbf e0a7 9d3d b47f 823f
000001a0: 39e8 21be d3e0 0abf 481b b1be 15d7 96be
000001b0: 8860 6dbe a4c5 2bbf 6f50 dcbd 4f29 13bd
000001c0: fe7e 013f f7c2 393e 9b64 313f 1d42 bf3e
000001d0: 221f 473e a768 143e 7be9 0a3e a492 483f
000001e0: 8a29 a33e c426 68bd b41d 31bf 7527 1cbf
000001f0: c6e5 513e eae3 833e 8129 52bf 2d40 9b3c
00000200: 366d 50bf 6de4 863f 3749 fbbe 7b79 3b3f
00000210: 3d60 193f e5c8 ba3d bd93 323e d6d5 033f
00000220: 8221 553f 2f9d 623f 15ee 223f d4dd a73d
00000230: 0a0a b5be 7c0f febe b226 913e 5a1d f13e
00000240: f92d 77be e645 d4bd ba64 dc3e de18 233f
00000250: 00ec 4a3d b887 80bf 28d7 93be 89cb e5be
00000260: 3aad d6be aa58 8bbe 5325 bd3e 0b24 453e
00000270: fe83 81bf 7edd d3be f9b1 de3b 3207 1d3f
00000280: 8e77 a7bf 6802 873e e29a 46bf f563 22bf
00000290: 04cf 053f 9015 033f eac5 bbbc 5c2c e8be
000002a0: 4d1a 43be 6263 543f 2eb7 2bbf fec3 163f
000002b0: 64aa fabe 8244 5ebe dcbd 2f3f c0af 8f3f
000002c0: 9838 8ebe 179b 75bf a235 20be 1dc9 083e
000002d0: b915 183f 46fb 92be d28b c6be 6a3c 533f
000002e0: 46c7 78bc c696 f7be 4db8 b6bd 1536 443e
000002f0: 01b1 dd3e 339a 463f 8e82 ea3d 85d6 e3bd
00000300: ffbd 853e 8f40 e63e 101d 81bf 3b0c e33d
00000310: 8687 50be 833b 95be 79d2 f13d fe85 863e
00000320: c4ff 633f 5638 693d 6a6f 8fbe 0ceb 69bf
00000330: 5505 be3e 5d8a 71bd 61e1 85bf b872 943e
00000340: 8b6c febd 2109 b33e 7b7a 45be ec21 a5bc
00000350: b2a3 0cbf 5389 b0bd e47a 57be 4cd3 3d3f
00000360: 7f46 86bf fae8 9dbe 5e14 78be 9682 2b3f
00000370: ee21 e83d 6a24 bf3c 4346 d3be 4ba7 3cbe
00000380: b484 a73e 20ea 4e3e 506f 8ebd 6073 33be
00000390: c5ea a53e 0e81 aabe 034d bbbe 10e4 1cbf
000003a0: 1630 0c3f fb13 98be 75fa 49bd b7b9 5c3c
000003b0: 3337 b83e 6b1e b9be 0a72 92be bf6c 6e3f
000003c0: beb5 48be 85ab 8abe d04b dd3d aec4 943c
000003d0: 9693 a0bf b01b dcbd 7fab 3abe b4bd a23f
000003e0: 4cad 6e3e 5d2b 85be afce a1bd a4bc 43bf
000003f0: 830d 3f3f 9cf1 7cbc 7e9d f43d bfed 953e

network_body._body_endoder.seq_layers.0.bias f4 [128]
-0.046559665 -0.23094955 -0.158851 -0.11213985 0.043114517 -0.037165664 -0.23046336 -0.14114597
-0.14634307 -0.022092506 -0.07049939 -0.23036791 -0.1106234 -0.16104534 -0.08661669 -0.14700519
-0.12082016 -0.009282726 -0.11838378 0.00032149462 -0.034442086 -0.035806928 -0.17027384 -0.057747412
-0.14045608 0.07385651 -0.09470576 0.06292202 -0.110434465 -0.06001037 -0.09103948 -0.1479485
-0.24140032 -0.0021263817 0.012580256 -0.038512405 -0.113332026 -0.012618724 -0.034423713 -0.2546212
-0.054743268 -0.12374115 -0.008832364 0.13321522 -0.10861105 -0.27291682 -0.16156842 -0.12447401
-0.07446897 -0.20250906 -0.098072805 -0.009241808 -0.07309197 -0.18226387 -0.12757412 -0.042447753
-0.17088963 -0.17485563 -0.096400484 -0.114952914 -0.027835513 -0.1834251 -0.018216046 -0.06913234
-0.17322233 -0.17251112 -0.13790369 -0.110740796 -0.15737705 -0.24555606 -0.27109596 -0.14389053
-0.07596762 0.018886112 -0.09170488 -0.15059972 -0.08458725 -0.12554634 -0.12622797 -0.04118687
-0.20208058 -0.08710991 -0.12887318 -0.13230829 -0.18606444 -0.079575144 -0.03674302 -0.0623808
-0.18911466 -0.11003586 -0.11438187 -0.15188952 -0.06783236 0.035015598 -0.14327636 -0.08598945
-0.1627183 -0.121614486 -0.21511438 -0.16662197 -0.093834795 -0.05932277 -0.06713333 0.006178058
-0.018377494 -0.27864417 -0.09325787 -0.0038922674 0.0024225472 -0.17119431 -0.16658972 -0.14047223
-0.09319101 -0.1799994 -0.044365525 -0.049018133 -0.11863642 -0.03498619 -0.09593914 -0.11832004
-0.24413738 -0.13322443 -0.076962024 -0.14740953 -0.18964699 -0.024786057 -0.08546256 -0.06990078
00000000: 59b5 3ebd 0a7e 6cbe d6a9 22be 94a9 e5bd
00000010: d998 303d 063b 18bd 96fe 6bbe 9288 10be
00000020: f5da 15be 58fb b4bc fc61 90bd 91e5 6bbe
00000030: 858e e2bd 12e9 24be 1764 b1bd 8788 16be
00000040: 8f70 f7bd 9316 18bc 3273 f2bd 478e a839
00000050: 2513 0dbd 49aa 12bd 445c 2ebe 8d88 6cbd
00000060: b8d3 0fbe 1542 973d 18f5 c1bd 43dd 803d
00000070: 772b e2bd 6fcd 75bd e872 babd d07f 17be
00000080: a531 77be c45a 0bbb 6b1d 4e3c 2fbf 1dbd
00000090: 9f1a e8bd c4be 4ebc e1ff 0cbd b65d 82be
000000a0: 7a3a 60bd 006c fdbd 9fb5 10bc 9269 083e
000000b0: 786f debd c1bb 8bbe 3172 25be 3bec febd
000000c0: 3083 98bd 895e 4fbe 65da c8bd f46a 17bc
000000d0: 3eb1 95bd 61a3 3abe caa2 02be b2dd 2dbd
000000e0: b1fd 2ebe 5b0d 33be 9e6d c5bd 6f6c ebbd
000000f0: 4d07 e4bc cad3 3bbe d139 95bc 4295 8dbd
00000100: 3261 31be c1a6 30be a036 0dbe 12cc e2bd
00000110: 7327 21be 0c73 7bbe 17cd 8abe 0a58 13be
00000120: e994 9bbd 0cb7 9a3c c5cf bbbd d036 1abe
00000130: 153c adbd 388f 00be e841 01be 90b3 28bd
00000140: 36ee 4ebe ae66 b2bd 55f7 03be d37b 07be
00000150: ad87 3ebe 4bf8 a2bd d97f 16bd 0283 7fbd
00000160: 46a7 41be 7b5a e1bd 0b41 eabd ed88 1bbe
00000170: b1eb 8abd 846c 0f3d 0ab7 12be 3d1b b0bd
00000180: a09f 26be 0411 f9bd f246 5cbe f39e 2abe
00000190: 752c c0bd 6ffc 72bd 337d 89bd 4f71 ca3b
000001a0: 668c 96bc 73aa 8ebe fbfd bebd 6915 7fbb
000001b0: 99c3 1e3b 904d 2fbe 7f96 2abe f4d7 0fbe
000001c0: eeda bebd c351 38be a0b8 35bd 3dc7 48bd
000001d0: a7f7 f2bd ae4d 0fbd bd7b c4bd c751 f2bd
000001e0: 26ff 79be fc6b 08be 449e 9dbd 86f2 16be
000001f0: d232 42be 210c cbbc ff06 afbd 2428 8fbd

network_body._body_endoder.seq_layers.2.weight f4 [128, 128]
-0.044213966 -0.37819913 -0.053057197 0.055682167 -0.14517586 -0.15925336 0.00012533148 -0.44146085
0.02432594 0.069188796 -0.28630528 -0.12713163 -0.1887208 0.03594223 -0.17069867 -0.09990019
-0.061564628 0.0074250386 0.02322648 -0.061515775 -0.12931423 -0.016371073 0.031518023 -0.1441706
-0.008488226 -0.088059954 -0.14228256 -0.25787687 0.006312065 0.054418694 -0.29866758 0.14995274
-0.0090481555 0.05477122 -0.011968996 0.08569954 -0.071220934 -0.27759418 0.03527091 0.063903004
-0.13925302 0.026439466 -0.23814164 -0.08223306 -0.18582264 0.08701238 0.031594742 -0.061557665
0.04070529 0.09701401 0.07366167 -0.30393305 -0.0094321715 0.15132591 -0.37186825 -0.026355242
-0.03199832 -0.00251951 -0.18254878 0.0145121645 -0.0002781469 0.1460018 -0.14900763 -0.23113202
0.13663141 -0.2699858 -0.048003133 -0.027079301 -0.16401759 -0.029531907 0.27702317 -0.061300885
-0.07743568 0.046187975 -0.06576734 0.1457634 -0.0019219377 0.101279184 0.14136581 0.05233049
-0.10017821 0.07385295 -0.04966547 -0.0332823 -0.19209334 -0.16265695 -0.08938718 -0.08573064
0.023308678 0.030952634 0.057546716 -0.03335785 -0.14530773 -0.26588705 -0.12961389 0.037011135
0.06575268 0.037297785 -0.03529203 -0.10255221 0.088659 -0.13584653 -0.033418026 -0.10244059
0.18821576 0.04064425 -0.3666202 -0.044154536 -0.21521741 -0.08391712 -0.0589012 0.060901366
-0.027605476 -0.0583788 -0.25569987 -0.027934693 -0.16973227 0.01139146 0.122571155 0.002845396
0.08284914 0.022459736 0.06860823 -0.104153275 0.029837323 -0.043035824 -0.08952505 -0.050444946
-0.040045355 0.070756584 -0.108197406 -0.0431786 -0.012576045 -0.16540934 -0.019077767 -0.10024912
0.013727429 -0.19312465 -0.001667152 0.03623817 -0.138118 -0.043841355 -0.15379938 0.095646374
-0.046561588 -0.053879134 -0.081045575 0.11652797 -0.20763847 -0.9533527 -0.05014428 -0.1103014
-0.0069443686 0.020195045 -0.4883637 -0.012604547 -0.33612677 -0.14971176 -0.012951136 0.015503336
-0.12421689 -0.2848306 -0.06258097 -0.24356122 -0.3289322 0.042966288 0.090314 -0.08987653
0.024121951 -0.3118266 -0.046549637 -0.07811562 -0.30509323 0.05154558 -0.026111921 -0.16763933
-0.24286236 0.037775315 0.16079256 -0.23377243 -0.017169617 -0.06549556 -0.24829164 -0.10635891
-0.10954276 0.13144052 -0.048130598 -0.15908778 0.108730525 -0.31552866 -0.12752926 -0.053699303
-0.6052348 -0.18801227 0.023736117 0.045509476 -0.08722149 -0.031816352 -0.25268328 -0.11503331
-0.090105936 -0.2187094 0.09159888 -0.02048578 0.1273877 -0.36892703 -0.17490828 -0.1173678
-0.04749136 -0.026924197 -0.057314444 -0.041370828 -0.08896807 -0.123975 -0.023205165 -0.01891516
-0.26422477 -0.08853432 -0.13717982 -0.14904048 0.0020588832 -0.21577403 -0.043280993 -0.13775632
-0.06694356 -0.0024993797 0.041665968 -0.117515884 -0.12194346 -0.17413937 -0.19174156 -0.093798324
-0.078542195 -0.10236235 -0.054205354 -0.085573226 -0.062049728 -0.03160846 0.025963465 -0.15184633
-0.7037445 -0.030809509 -0.07753495 0.100155845 -0.2017466 0.0008560281 -0.12467728 0.042897385
-0.0336785 -0.009951021 -0.2620424 -0.2308239 -0.10971828 -0.13587084 0.00992143 -0.26983136
00000000: b419 35bd 51a3 c1be 8152 59bd fc12 643d
00000010: fba8 14be 5013 23be 6a6b 0339 2807 e2be
00000020: 3247 c73c dbb2 8d3d 9b96 92be cb2e 02be
00000030: 0740 41be 2938 133d a2cb 2ebe 7998 ccbd
00000040: 312b 7cbd bd4d f33b 7645 be3c f7f7 7bbd
00000050: f36a 04be a11c 86bc 0b19 013d 75a1 13be
00000060: 3312 0bbc c758 b4bd 85b2 11be 7008 84be
00000070: 70d5 ce3b 23e6 5e3d f5ea 98be 368d 193e
00000080: b73e 14bc c957 603d 9c19 44bc 3e83 af3d
00000090: 48dc 91bd d320 8ebe 3b78 103d 94df 823d
000000a0: 5898 0ebe 9497 d83c 67db 73be ce69 a8bd
000000b0: 4a48 3ebe 8c33 b23d 7d69 013d e423 7cbd
000000c0: 97ba 263d 48af c63d eedb 963d 1d9d 9bbe
000000d0: 6589 1abc 2ef5 1a3e 8465 bebe f3e6 d7bc
000000e0: ac10 03bd 5d1e 25bb 11ee 3abe 6ec4 6d3c
000000f0: 3fd4 91b9 7f81 153e 7595 18be dfad 6cbe
00000100: 1be9 0b3e 943b 8abe ef9e 44bd 69d5 ddbc
00000110: 3af4 27be e6ec f1bc fbd5 8d3e a316 7bbd
00000120: 9996 9ebd 9a2f 3d3d 07b1 86bd 0043 153e
00000130: 87e9 fbba 766b cf3d 33c2 103e 7f58 563d
00000140: 3c2a cdbd 3740 973d 056e 4bbd 0553 08bd
00000150: 1eb4 44be 8b8f 26be a010 b7bd 8c93 afbd
00000160: d7f1 be3c 6190 fd3c 1bb6 6b3d 3ea2 08bd
00000170: 8dcb 14be 5922 88be 81b9 04be fd98 173d
00000180: 57a9 863d 90c5 183d 608e 10bd e506 d2bd
00000190: da92 b53d 5a1b 0bbe 57e1 08bd 5fcc d1bd
000001a0: a2bb 403e 967a 263d a5b5 bbbe 63db 34bd
000001b0: f461 5cbe bddc abbd 6242 71bd b673 793d
000001c0: e124 e2bc 9c1e 6fbd 18eb 82be 4cd7 e4bc
000001d0: 4cce 2dbe 3fa3 3a3c 9606 fb3d d379 3a3b
000001e0: cfac a93d 7bfd b73c 7982 8c3d 504e d5bd
000001f0: 676d f43c 5546 30bd e958 b7bd 5c9f 4ebd
00000200: 9906 24bd d4e8 903d 9a96 ddbd 0bdc 30bd
00000210: c10b 4ebc 1161 29be fa48 9cbc 694f cdbd
00000220: 03e9 603c 78c2 45be 5784 daba 7a6e 143d
00000230: ce6e 0dbe fe92 33bd 967d 1dbe 3fe2 c33d
00000240: 5db7 3ebd 5eb0 5cbd 39fb a5bd 37a6 ee3d
00000250: 2e9f 54be ec0e 74bf 1764 4dbd b3e5 e1bd
00000260: 968d e3bb 1470 a53c cf0a fabe 4d83 4ebc
00000270: cf18 acbe 0a4e 19be 0031 54bc b401 7e3c
00000280: 6d65 febd 51d5 91be 742a 80bd 1d68 79be
00000290: cd69 a8be 6bfd 2f3d 8cf6 b83d 3011 b8bd
000002a0: 669b c53c bca7 9fbe d5aa 3ebd 15fb 9fbd
000002b0: 2e35 9cbe 7521 533d abe8 d5bc a5a9 2bbe
000002c0: e9b0 78be 4aba 1a3d cea6 243e 0a62 6fbe
000002d0: 4ca7 8cbc 8922 86bd 2a40 7ebe b3d2 d9bd
000002e0: f457 e0bd 5898 063e 9724 45bd e8e7 22be
000002f0: 1cae de3d f98c a1be 0897 02be cdf3 5bbd
00000300: abf0 1abf 4a86 40be 3f72 c23c 2568 3a3d
00000310: 2ea1 b2bd dd51 02bd b45f 81be 9696 ebbd
00000320: 7689 b8bd 5bf5 5fbe 3298 bb3d cbd1 a7bc
00000330: ec71 023e 01e4 bcbe 281b 33be 875e f0bd
00000340: 4d86 42bd 2290 dcbc 8dc2 6abd 7574 29bd
00000350: e434 b6bd 9be6 fdbd c218 bebc f7f3 9abc
00000360: 7848 87be 7b51 b5bd de78 0cbe 119e 18be
00000370: 54ee 063b def3 5cbe 6947 31bd fe0f 0dbe
00000380: b519 89bd a2cc 23bb efa9 2a3d 2bac f0bd
00000390: 7ebd f9bd 9751 32be e657 44be 5619 c0bd
000003a0: bbda a0bd 5aa3 d1bd 6f06 5ebd 0441 afbd
000003b0: db27 7ebd df77 01bd 55b1 d43c 9b7d 1bbe
000003c0: 9928 34bf 3964 fcbc a5ca 9ebd 821e cd3d
000003d0: a996 4ebe 1367 603a cd56 ffbd 2bb5 2f3d
000003e0: 78f2 09bd 9b09 23bc 6c2a 86be 1a5d 6cbe
000003f0: fab3 e0bd ba21 0bbe 7e8d 223c 5627 8abe

network_body._body_endoder.seq_layers.2.bias f4 [128]
-0.041474063 0.07075555 -0.07609764 0.067722395 0.036645215 0.15252389 -0.0166173 -0.041517396
0.07349904 -0.047226384 -0.085973226 -0.080527894 0.027988307 -0.036864027 -0.16522288 -0.10165636
0.07736424 0.05300844 0.07322353 -0.0075072288 -0.082940646 -0.041272208 0.019127302 -0.006228177
0.007824871 0.04094762 -0.070631035 -0.019335426 0.0296327 -0.061538726 0.002715568 -0.011724158
0.015427442 -0.11057519 -0.08668478 -0.040901423 0.04685181 -0.054282364 -0.117482215 -0.1349653
-0.07277042 -0.0075047603 -0.10096054 0.02262955 0.10615824 -0.022589786 -0.045804385 -0.15936609
0.011087552 -0.08765147 -0.041262884 0.058934476 -0.071813 0.06422309 -0.0064817644 0.075201124
0.106948406 0.046459366 -0.028950522 -0.04059599 0.08506394 -0.07718775 -0.07375328 -0.038615182
-0.05126313 0.037846662 -0.00325518 -0.036631055 0.013850156 0.08393513 -0.14621504 0.02823902
-0.07375528 -0.10019486 -0.0094421925 -0.013611488 -0.031129425 -0.15012278 -0.11193771 -0.003135464
0.025443733 -0.14659435 -0.049179688 0.08769945 0.023601275 -0.017872851 -0.07141046 -0.030371977
-0.10779066 -0.06577367 -0.038353078 0.14654623 -0.07582396 0.0726085 0.11040518 -0.062353123
0.07983439 -0.080111146 -0.04147893 -0.10362147 -0.021468194 0.019413631 -0.083746664 -0.019114686
0.16838881 -0.15515256 -0.014489979 -0.0861761 -0.009982208 0.1739885 -0.025569797 -0.069848016
-0.029914424 0.043788508 -0.038927663 0.09753298 0.03996399 -0.109548345 -0.04991241 0.041398965
0.10972237 -0.03897428 0.0060608727 0.05319024 0.06845762 -0.083343506 0.000116073454 -0.063647784
00000000: b5e0 29bd 49e8 903d 14d9 9bbd 0ab2 8a3d
00000010: 4b19 163d 392f 1c3e 0121 88bc 250e 2abd
00000020: aa86 963d 7470 41bd bb12 b0bd cfeb a4bd
00000030: bc47 e53c bcfe 16bd 3030 29be 3631 d0bd
00000040: 2571 9e3d 611f 593d 38f6 953d 33ff f5bb
00000050: c9dc a9bd 0c0d 29bd dcb0 9c3c bc15 ccbb
00000060: e333 003c b1b8 273d 01a7 90bd 5465 9ebc
00000070: 47c0 f23c 0810 7cbd acf7 313b af16 40bc
00000080: 62c3 7c3c 3f75 e2bd ca87 b1bd 4088 27bd
00000090: afe7 3f3d 2f57 5ebd 849a f0bd 5834 0abe
000000a0: a808 95bd 7eea f5bb 66c4 cebd 9b61 b93c
000000b0: 7e69 d93d 370e b9bc 619d 3bbd dd30 23be
000000c0: 90a8 353c 9d82 b3bd 4503 29bd 4765 713d
000000d0: b212 93bd 6587 833d fb64 d4bb 0c03 9a3d
000000e0: c407 db3d 2d4c 3e3d a529 edbc fb47 26bd
000000f0: 0136 ae3d 9c14 9ebd f60b 97bd f42a 1ebd
00000100: 4af9 51bd 1a05 1b3d dc54 55bb 720a 16bd
00000110: c4eb 623c 2ee6 ab3d 65b9 15be 8455 e73c
00000120: 020d 97bd f632 cdbd 6db3 1abc b802 5fbc
00000130: 2303 ffbc c9b9 19be 993f e5bd 5b7c 4dbb
00000140: 606f d03c d41c 16be a470 49bd c59b b33d
00000150: 7657 c13c 166a 92bc a63f 92bd a7ce f8bc
00000160: 59c1 dcbd 59b4 86bd 1e18 1dbd 3710 163e
00000170: 9849 9bbd c4b3 943d 1c1c e23d fd65 7fbd
00000180: 3680 a33d 5011 a4bd cfe5 29bd 7e37 d4bd
00000190: 11de afbc 5609 9f3c 5f83 abbd 6796 9cbc
000001a0: 1e6e 2c3e 50e0 1ebe 6067 6dbc 187d b0bd
000001b0: 6a8c 23bc 0b2a 323e c077 d1bc 7a0c 8fbd
000001c0: 180f f5bc 945b 333d 9d72 1fbd 5fbf c73d
000001d0: 48b1 233d e25a e0bd f570 4cbd f691 293d
000001e0: 1fb6 e03d 7fa3 1fbd 499a c63b 02de 593d
000001f0: 8233 8c3d 00b0 aabd 766c f338 c559 82bd

action_model._continuous_distribution.log_sigma f4 [1, 2]
-1.1100428 -1.0585089
00000000: e215 8ebf 387d 87bf

action_model._continuous_distribution.mu.weight f4 [2, 128]
0.036084425 0.23607582 0.001724315 0.12843016 -0.055304248 0.03726863 0.04159438 0.060504455
-0.08530378 -0.19980016 -0.13314614 0.084927484 -0.029052747 0.066701524 -0.03943853 -0.122233815
0.08360021 -0.10050632 0.030355979 0.22595768 0.06704096 0.0026514395 0.052515253 -0.005167352
-4.0432922e-05 -0.20783865 0.12666059 -0.060311455 0.18723151 0.07982291 0.002674153 0.20532738
0.093292005 0.026872791 0.13347901 -0.0014751737 -0.21881162 0.10148313 0.05325168 0.0946823
0.08115935 -0.004989676 0.06477737 0.0044696354 -0.12928745 0.23442924 0.086668745 -0.016624028
0.097971246 0.048744123 0.104760654 -0.1578151 -0.046588086 0.56832004 -0.091297865 0.06885678
0.10152209 -0.035917435 -0.11725809 -0.13532153 0.2162338 0.009946727 -0.0151715465 -0.0020396137
5.7458867e-05 -0.0075617046 0.016855545 -0.07940388 0.09028463 -0.04988696 -0.102236524 -0.11947093
0.08309949 -0.12998968 -0.25497425 -0.17314623 -0.09555367 0.012498895 -0.034740735 0.1820872
0.16362691 0.058924887 0.019725215 0.08830971 -0.15509318 -0.06631302 -0.17758328 -0.3609525
0.0019432971 0.07377537 0.102007486 0.107182205 -0.058632214 -0.022237984 0.22750923 -0.26702005
-0.09874741 -0.063577086 -0.0024012253 -0.006065735 -0.117876284 -0.09275719 0.016692048 0.0792771
-0.017535485 -0.07810089 -0.0035051014 -0.119876206 -0.1445844 0.34812036 0.041806486 0.07188757
0.015459413 -0.0008040903 -0.067665495 -0.10598951 0.033789355 -0.14194328 -0.028889585 0.13408405
-0.1650295 -0.04623998 -0.07142768 0.18289013 -0.0035235805 -0.077426076 0.051942855 -0.058585886
-0.103412546 0.18830305 -0.00096385233 -0.047121286 -0.09798009 0.27572748 0.011487223 0.026681086
-0.09900872 0.14220056 0.047626466 -0.202743 -0.0761081 0.016819656 -0.01858696 0.0370175
0.13397743 -0.31120333 0.09553518 0.115377426 -0.059657864 -0.05948034 0.1178924 0.098955795
-0.00046973402 0.1866023 -0.065810785 0.13734867 -0.20911175 -0.14879704 -0.001460691 -0.05904026
0.14175585 0.036886092 -0.07677454 0.0025971709 -0.0070013194 0.020812433 -0.0546681 0.11212539
0.01345353 0.0009149699 -0.11081943 -0.16088021 0.12242902 0.09847853 0.14319065 0.027927477
0.038855713 -0.107587665 0.0032921378 0.070778854 -0.084631935 -0.009906202 0.0280279 -0.23293477
0.18280788 0.23807773 -0.17442249 -0.07706212 -0.06726031 -0.15655659 0.21977809 0.1034248
-0.00094798184 0.0021619827 0.07697038 -0.02967137 -0.20739082 -0.2458309 -0.024750188 0.012168024
-0.06357475 -0.005582391 -0.12527801 -0.052306212 0.07482108 -0.07562827 -0.014466278 0.19314389
0.058347624 -0.018878656 0.03899993 -0.11729012 -0.1477901 0.049686834 -0.13354641 0.093369015
-0.0014206094 0.06263204 -0.0897437 0.18952484 0.06647612 -0.22844611 -0.30317476 0.1445827
-0.16015056 0.07889854 0.003976341 -0.070887655 0.19807583 -0.052261792 0.13495919 0.008618553
0.22444128 -0.059118222 -0.0017778423 -0.16617692 0.071480684 0.1237452 -0.10635886 -0.1409872
-0.13628136 0.0016180947 0.07051641 0.16822731 -0.1674775 -0.105373085 -0.12240775 -0.04497321
0.08489075 -0.1337092 0.0072473637 0.14377896 0.002290695 0.0089721875 -0.19134042 -0.052732732
00000000: 43cd 133d dcbd 713e 6902 e23a 3283 033e
00000010: b586 62bd fea6 183d de5e 2a3d 85d3 773d
00000020: c0b3 aebd 6a98 4cbe 7657 08be 76ee ad3d
00000030: 0700 eebc cf9a 883d 4c8a 21bd b955 fabd
00000040: 9636 ab3d 42d6 cdbd 1aad f83c 7361 673e
00000050: c54c 893d c6c3 2d3b 3c1a 573d e452 a9bb
00000060: 8596 29b8 a8d3 54be 50b3 013e 2509 77bd
00000070: 9eb9 3f3e 327a a33d d840 2f3b 5741 523e
00000080: e10f bf3d 5424 dc3c b9ae 083e 9e5a c1ba
00000090: 2710 60be 63d6 cf3d 6f1e 5a3d cbe8 c13d
000000a0: e036 a63d 7080 a3bb ffa9 843d 0576 923b
000000b0: ee63 04be 380e 703e 627f b13d 1d2f 88bc
000000c0: 26a5 c83d eba7 473d c18c d63d 489a 21be
000000d0: 26d3 3ebd 6c7d 113f 60fa babd c904 8d3d
000000e0: d0ea cf3d 291e 13bd 0225 f0bd ba91 0abe
000000f0: 656c 5d3e 99f7 223c 1492 78bc 0aab 05bb
00000100: fdff 7038 2dc8 f7bb a414 8a3c 809e a2bd
00000110: 26e7 b83d 4556 4cbd 6261 d1bd 2dad f4bd
00000120: 1130 aa3d 041c 05be fc8b 82be 3f4d 31be
00000130: a4b1 c3bd 2ac8 4c3c 4d4c 0ebd 1175 3a3e
00000140: d08d 273e 395b 713d c696 a13c b9db b43d
00000150: bfd0 1ebe 1fcf 87bd 64d8 35be c4ce b8be
00000160: 3bb6 fe3a 8b17 973d 4de9 d03d 5882 db3d
00000170: 5528 70bd 6f2c b6bc 2ef8 683e dab6 88be
00000180: 153c cabd b434 82bd e05d 1dbb 13c3 c6bb
00000190: 1f69 f1bd 7bf7 bdbd c3bd 883c 085c a23d
000001a0: 94a6 8fbc 5cf3 9fbd d8b5 65bb a881 f5bd
000001b0: ef0d 14be d53c b23e 473d 2b3d ca39 933d
000001c0: 7a49 7d3c 96c9 52ba 3594 8abd 0711 d9bd
000001d0: b566 0a3d 9459 11be daa9 ecbc 544d 093e
000001e0: 7efd 28be 2266 3dbd ad48 92bd 8d47 3b3e
000001f0: dfeb 66bb 9091 9ebd 08c2 543d c1f7 6fbd
00000200: f5c9 d3bd 84d2 403e 09ab 7cba 4002 41bd
00000210: c9a9 c8bd 272c 8d3e e834 3c3c 4b92 da3c
00000220: 15c5 cabd 069d 113e f813 433d dc9b 4fbe
00000230: 90de 9bbd 60c9 893c ae43 98bc a99f 173d
00000240: 6131 093e 0b56 9fbe f3a7 c33d 004b ec3d
00000250: ce5b 74bd a8a1 73bd 9271 f13d 56a9 ca3d
00000260: a246 f6b9 ac14 3f3e cec7 86bd 21a5 0c3e
00000270: 6421 56be 405e 18be a874 bfba 33d4 71bd
00000280: 7228 113e df15 173d f83b 9dbd 4c35 2a3b
00000290: 536b e5bb d67e aa3c a8eb 5fbd ffa1 e53d
000002a0: 326c 5c3c 97da 6f3a 4cf5 e2bd c8bd 24be
000002b0: 11bc fa3d 1daf c93d 92a0 123e 2ac8 e43c
000002c0: 2b27 1f3d ec56 dcbd e8c0 573b 81f4 903d
000002d0: 8253 adbd 9f4d 22bc c49a e53c 7486 6ebe
000002e0: fd31 3b3e a6ca 733e cf9b 32be bfd2 9dbd
000002f0: c6bf 89bd 5f50 20be 820d 613e 62d0 d33d
00000300: fc81 78ba 0db0 0d3b a6a2 9d3d 5f11 f3bc
00000310: 425e 54be 18bb 7bbe e8c0 cabc 645c 473c
00000320: 7b33 82bd 7dec b6bb e148 00be 0a3f 56bd
00000330: cb3b 993d ffe2 9abd f803 6dbc 83c7 453e
00000340: ebfd 6e3d 69a7 9abc 64be 1f3d cd35 f0bd
00000350: 4a56 17be 6c84 4b3d 64c0 08be 4138 bf3d
00000360: be33 baba 3a45 803d 8ccb b7bd cd12 423e
00000370: a224 883d c7ed 69be b939 9bbe 7d0d 143e
00000380: 82fe 23be 8f95 a13d f74b 823b 8c2d 91bd
00000390: 64d4 4a3e 7610 56bd be32 0a3e d534 0d3c
000003a0: efd3 653e f325 72bd 7d06 e9ba 482a 2abe
000003b0: 7764 923d 206e fd3d add2 d9bd f35e 10be
000003c0: 578d 0bbe 4016 d43a e86a 903d c843 2c3e
000003d0: 397f 2bbe d8cd d7bd eab0 fabd d435 38bd
000003e0: 34db ad3d 11eb 08be 4b7b ed3b cb3a 133e
000003f0: 7c1f 163b 1500 133c beee 43be 47fe 57bd

action_model._continuous_distribution.mu.bias f4 [2]
0.023006093 0.017955309
00000000: 4677 bc3c 0317 933c
