ML-Agents/Examples/results/movetogoal/MoveToGoal/MoveToGoal-6499956.pt (torch, 518538 bytes, 44 tensors)

network_body._body_endoder.seq_layers.0.weight f4 [128, 6]
00000000: 0a0b 223f 936f f0be 13df 7b3e b56c 87be
00000010: 5000 41bf d0e2 1f3e 8ce0 53be c1a4 a23c
00000020: a242 a83e 68c9 1d3f 4648 0c3f 0e22 15bf
00000030: 3bf2 353f fe61 423e a73a 65bf 08f8 f4be
00000040: 81a3 e33d 739f 033f 1fde 64bf cdc5 7fbe
00000050: 44a1 02bf a6bc c03c 7cac 113f 3c3a 023f
00000060: 47c0 e93e 16c0 f7bd ef87 383f 3627 633e
00000070: cc5a c53e 1f6c 0abf 8f2d 4a3f acd2 43be
00000080: a447 863d 0f90 49bf 1e3b 1cbf ac64 953d
00000090: b079 453e 8612 ad3e 7575 02be 112d 5e3e
000000a0: 0002 e1be fe33 c8be 2dc8 07bf 1511 e5bd
000000b0: 912f a33d 0bcc 94bf 0d16 31bf 39e0 35be
000000c0: 6a35 04bb 4697 1fbe 3504 b8be baa0 7b3e
000000d0: af0f 323f a53a a0be 0a64 75be abca 22bb
000000e0: ad0b dcbd 88f1 ab3e 8ddb 56bf daaf 03be
000000f0: 9688 f63e 25b9 023f 483d 7dbe cb19 e93e
00000100: 7514 5cbf 8e33 b2bd 5eed 99be fe02 353d
00000110: 13c1 b23e 5af9 973e 0e33 f1be 2829 cabe
00000120: 34aa ef3e 384b af3e 1b61 f9bd a209 ac3d
00000130: e2a9 e03e 15ed 0b3e 4711 29bf 8526 003e
00000140: f123 3bbf b8cb 0ebf aa95 12be b742 9b3e
00000150: ef0c 78be 623a 25be d72f 1a3f a9c3 21bf
00000160: 3fa7 183f 2211 693e 9cfa 7f3e 679b 27be
00000170: cc8e 6c3f d108 dc3e 8cf8 45bf 9dd7 d4bd
00000180: 2319 183f ebbd e63e 0afb 99be ec4d 013f
00000190: 6b52 9c3e 2fc0 0abf a07d 9e3d acd5 803f
000001a0: 5b74 19be 3057 0cbf b84a b8be a921 94be
000001b0: 3f5a 66be 558a 28bf 70ce d5bd 45d9 0ebd
000001c0: 34e2 fe3e 7346 333e e04d 2f3f db77 b93e
000001d0: 8938 493e e4d2 0c3e a2e0 f13d 4f11 4b3f
000001e0: dbb2 a63e e8c7 8bbd be11 31bf 8c7e 1cbf
000001f0: 5b7b 4d3e 0387 7f3e 99cc 4ebf 8afc 8e3c
00000200: 520a 51bf 2559 873f 98eb f5be 1c22 3b3f
00000210: 1101 1b3f 48ef 9d3d 6b03 313e 3b77 053f
00000220: 1ace 513f 447c 623f f902 253f 8f47 6e3d
00000230: cc74 b6be 4237 fcbe 7796 933e 71b3 ed3e
00000240: 92a2 6fbe 60ce d2bd bbdf d63e e2d9 243f
00000250: cb50 db3c 802a 7fbf d9e3 95be 6ec3 e5be
00000260: 682a d6be 846c 8abe 176d b33e 9245 3e3e
00000270: a9db 80bf 2d4e d2be 67a9 833c b123 1c3f
00000280: a87e a8bf b8a8 883e 22ad 44bf a766 20bf
00000290: 59b3 073f f26a 033f c4c8 f2bc 5e0b e8be
000002a0: fc27 41be 043a 513f 72fc 29bf 0b8e 163f
000002b0: 3e31 f1be 6fef 61be d1b5 323f 842a 8b3f
000002c0: e7bc 93be 1618 75bf 9297 2abe d343 f83d
000002d0: 04dd 153f ec81 8fbe 191c c6be e3f0 4c3f
000002e0: 55cd d9bc c973 fabe ef9d a4bd 4a2e 3d3e
000002f0: 02f2 da3e 9d84 473f 4047 e03d 2fef cebd
00000300: 48e6 813e 2220 df3e 6f6b 82bf 7488 e73d
00000310: 6dab 4dbe 3f1f 99be a71d f73d 526e 803e
00000320: 0d2f 613f 7acc 7f3d f249 9abe 4680 69bf
00000330: 44f0 be3e c5f2 98bd 1830 85bf 3919 993e
00000340: 28cf e5bd 9c8e b13e dfad 40be 0444 99bc
00000350: a7a7 0bbf 6468 b0bd b28d 4fbe 2229 3c3f
00000360: bbca 85bf edf0 98be 54ee 75be f281 2c3f
00000370: 52d1 dd3d 0b85 253c 20d8 d0be 79e1 42be
00000380: b639 ab3e 4cbe 493e 4ca5 a2bd db1f 2dbe
00000390: ac9d ab3e d176 acbe 523c b7be 231d 1dbf
000003a0: 2278 093f 308d 96be d291 37bd b0da e53b
000003b0: d974 b83e d68e b9be f5a4 91be b67d 6f3f
000003c0: eca3 42be ea72 8bbe d33d d33d d202 a13c
000003d0: ca22 a5bf 91d2 dbbd 1fd9 34be df79 a23f
000003e0: b1d3 6e3e 93cf 84be cef6 87bd 81b5 42bf
000003f0: 282f 413f ca5d d5bc 8ba3 dc3d de12 973e
0.63298094 -0.46960124 0.24596815 -0.26450124 -0.753911 0.15613866 -0.20691127 0.019853951
0.32863337 0.61635447 0.5479778 -0.5825509 0.7107274 0.18982694 -0.8954262 -0.47845483
0.1111517 0.51415175 -0.8940143 -0.24977799 -0.5102732 0.023527455 0.56903815 0.5087011
0.45654508 -0.12097184 0.7208242 0.22182927 0.38545835 -0.5407123 0.78975767 -0.19123334
0.06556633 -0.7873544 -0.61027706 0.07294592 0.19284701 0.33803195 -0.12740119 0.21696879
-0.43946838 -0.39102167 -0.5303982 -0.11184899 0.07968057 -1.1624769 -0.6917427 -0.17761315
-0.0020173439 -0.1558505 -0.3594071 0.24573031 0.6955518 -0.31294742 -0.23963943 -0.0024840038
-0.107444145 0.3358271 -0.8392876 -0.12860051 0.48151082 0.5106376 -0.24730408 0.4552749
-0.85968715 -0.087012395 -0.3006391 0.044192307 0.3491293 0.29682428 -0.47109264 -0.39484525
0.46809542 0.34237075 -0.121767245 0.08400275 0.4387961 0.13664658 -0.6604199 0.12514694
-0.7310172 -0.557796 -0.14314905 0.30324337 -0.24223684 -0.16135553 0.6022925 -0.6318918
0.596302 0.22760442 0.24997944 -0.16367875 0.9240539 0.42975476 -0.7733238 -0.103926875
0.59413356 0.4506677 -0.3007434 0.50509524 0.3053163 -0.541995 0.07738805 1.0065207
-0.14985792 -0.5482054 -0.35994506 -0.2893193 -0.22495364 -0.6583608 -0.104397655 -0.034875173
0.49781954 0.17507343 0.684782 0.36224255 0.19650473 0.13752323 0.118104234 0.79323286
0.3255833 -0.068252385 -0.691677 -0.61130595 0.20066588 0.24953847 -0.8078094 0.017454404
-0.8165637 1.057408 -0.48031306 0.7309892 0.605485 0.07711655 0.1728646 0.52135056
0.8195511 0.88470864 0.6445766 0.058173712 -0.35635984 -0.49260908 0.28825733 0.46425965
-0.2340186 -0.10293269 0.41967568 0.6439496 0.026771924 -0.99674225 -0.29275396 -0.44875664
-0.41829228 -0.27035916 0.35044166 0.18581226 -1.0067035 -0.41075268 0.016071988 0.6099196
-1.3163652 0.26691222 -0.7682668 -0.62656635 0.5300804 0.5133506 -0.029636748 -0.45321172
-0.18862909 0.8172915 -0.66400826 0.5881049 -0.4710788 -0.22063993 0.6980868 1.087235
-0.2885506 -0.9573988 -0.16659382 0.121223114 0.5854037 -0.2802881 -0.38693312 0.80055064
-0.026587168 -0.48916462 -0.08037936 0.18474689 0.42762762 0.77936727 0.1095109 -0.101042144
0.25371003 0.43579203 -1.0189036 0.11305323 -0.20084925 -0.2990665 0.120662026 0.25084168
0.8796242 0.062450863 -0.3013454 -0.91211355 0.37292683 -0.074681796 -1.0405302 0.29902056
-0.112211525 0.34679115 -0.18816327 -0.01870919 -0.5455269 -0.08613661 -0.20268896 0.73500264
-1.0452493 -0.29871312 -0.24016696 0.6738578 0.1083094 0.010102521 -0.4078989 -0.19031323
0.33442467 0.19701499 -0.07941684 -0.16906683 0.33518732 -0.336844 -0.35788208 -0.61372584
0.53698933 -0.29404593 -0.0448168 0.007014595 0.36026648 -0.36241788 -0.28446165 0.93551195
-0.19007844 -0.2723611 0.103145264 0.019654665 -1.2901242 -0.10733522 -0.1766095 1.2693442
0.23322941 -0.25939617 -0.06638871 -0.76058203 0.7546258 -0.026045699 0.10773381 0.29506582

network_body._body_endoder.seq_layers.0.bias f4 [128]
00000000: cfdd 10bd 4b54 62be 858f 1abe c1ef fcbd
00000010: b011 703d ff52 f6bc 59e5 74be 657e 16be
00000020: 10c3 19be dac0 c339 8120 83bd fa36 66be
00000030: a9e6 d3bd 8e6d 1fbe 4826 afbd e90d 1abe
00000040: c7fe fbbd 5043 d33a 6209 02be 36f3 a03b
00000050: 2562 bfbc e0b1 0cbd 1621 22be d4db 1ebd
00000060: 1fc7 10be cd5a 933d f46c c5bd 5eed 853d
00000070: 5b32 d1bd d71b 06bd facc cdbd d844 0fbe
00000080: 2d10 6bbe 7925 d63a a7d5 c83c 42e5 2dbd
00000090: faa2 e8bd 5da2 48bb f1af f4bc 2d25 7cbe
000000a0: ccab 43bd 6989 f5bd 77ef 323b 0d7b 153e
000000b0: ebc3 d3bd 89e0 86be 94e9 20be aa5b dbbd
000000c0: 6c2c a6bd 2f75 4abe fbf8 c6bd c440 12bc
000000d0: 0a87 97bd 06e9 35be 6ab9 05be a143 05bd
000000e0: 033a 2bbe f398 2cbe c8a9 bdbd 8f2e d9bd
000000f0: be38 04bd c2fb 35be 6e4e 3fbc 11b5 80bd
00000100: 1605 2ebe 4b34 2abe 8fe0 0cbe eccb cabd
00000110: 4d9e 1dbe f4bb 74be b603 83be eec4 0abe
00000120: 3a90 8cbd 8408 e43c 5bea a3bd 0e86 14be
00000130: 5183 c4bd 3c83 f4bd e891 06be 364b 08bd
00000140: f944 46be 1d47 a5bd 816c f8bd 0dd2 08be
00000150: 1f47 30be ecdf 9bbd 7532 05bd d41b 3dbd
00000160: e845 2fbe 4f5b babd 9661 d1bd 9cec 0bbe
00000170: 20fb 82bd d550 fd3c c49f 0cbe 9ea4 b3bd
00000180: 240c 11be cdcc e5bd 026c 48be dcf1 30be
00000190: f830 acbd 0918 7ebd 55f2 98bd b74d 893c
000001a0: d74c 91bc bc2a 8dbe 0c4d c6bd 1f86 cc3b
000001b0: a6b5 473b be21 22be 6d88 1fbe 8845 07be
000001c0: f219 bebd a30c 36be b174 2fbd 4c09 2dbd
000001d0: 5ce3 dcbd b61e 5cbc f0f1 b0bd eb95 f5bd
000001e0: 22aa 6dbe 9462 09be 23f6 98bd 582b 17be
000001f0: b3f7 2bbe 70f4 80bc 93e0 a8bd 7c77 6fbd
-0.035367783 -0.22102468 -0.15093811 -0.12350417 0.058610618 -0.030068872 -0.23915614 -0.14696653
-0.15015817 0.00037336984 -0.06402684 -0.2248191 -0.10346729 -0.15569136 -0.085522234 -0.15044369
-0.12304454 0.0016118083 -0.12698892 0.0049118055 -0.023362229 -0.034349322 -0.15832934 -0.038783863
-0.14138459 0.07195053 -0.09639922 0.06539415 -0.10214683 -0.032741394 -0.10048862 -0.13991106
-0.2295539 0.0016338072 0.02451594 -0.042454965 -0.1135921 -0.0030614354 -0.029869052 -0.24623556
-0.04777126 -0.119890995 0.0027303377 0.14597721 -0.10340103 -0.26343182 -0.15714103 -0.10710843
-0.081139416 -0.19771264 -0.09715458 -0.008926574 -0.073988035 -0.17764673 -0.13059011 -0.0325352
-0.16721348 -0.1685522 -0.09260899 -0.106045835 -0.032280676 -0.17771819 -0.011676414 -0.06284536
-0.16994128 -0.1662151 -0.13757537 -0.09902176 -0.15392418 -0.23899823 -0.2558877 -0.13551685
-0.068634465 0.027836092 -0.08003684 -0.14504263 -0.09595359 -0.119390935 -0.13141596 -0.03327485
-0.19362248 -0.080702044 -0.121300705 -0.13361378 -0.1721463 -0.07611069 -0.032518823 -0.046169117
-0.17116511 -0.09099447 -0.10223691 -0.13664478 -0.063955545 0.030922333 -0.13732821 -0.087716326
-0.14164788 -0.11220703 -0.19572452 -0.17279762 -0.084077775 -0.06203464 -0.07468096 0.01676069
-0.017736835 -0.27571666 -0.09682664 0.0062415744 0.003047326 -0.15833184 -0.15579386 -0.13210118
-0.092822924 -0.17778258 -0.042835895 -0.042245194 -0.10785553 -0.013435056 -0.08639896 -0.11991485
-0.23209432 -0.13416511 -0.07468822 -0.14762628 -0.16793709 -0.015741557 -0.08245959 -0.05846356

network_body._body_endoder.seq_layers.2.weight f4 [128, 128]
00000000: f7f7 13bd cb19 c0be f074 a3bd 5a79 803d
00000010: 2ac6 13be 6f23 19be 807d 86bc 3a78 e3be
00000020: 07a0 123c 16ad a83d 8f6e 96be ad3d ffbd
00000030: aa9c 44be 3f6f f13c cfe7 22be 6e7e c8bd
00000040: afbc a4bd 9692 0bbc 199d ee3c 58e4 6dbd
00000050: 2f97 22be 394d b0bb 5c64 163d bca1 1bbe
00000060: b413 45bc 63df bfbd b02f 03be 70d5 75be
00000070: 5bd4 013c 88f4 473d 27af 9dbe 3e52 263e
00000080: 5231 17bd 2a2b 6a3d 9f22 a5bc 7dbf b63d
00000090: 1d52 5cbd 6097 85be df8a 363c 215d 8c3d
000000a0: 0f69 08be 9b22 403c 93e2 76be 6baf a5bd
000000b0: 6e44 3ebe d37d 843d 359d 0d3d 56b8 82bd
000000c0: a35d 463d 6244 dc3d fc70 a13d a7cf 98be
000000d0: 0dae b3bb 1a75 033e 3966 bebe d005 f5bc
000000e0: 2fbf d1bc c083 b7bc 250e 31be 39e4 8b3c
000000f0: 80f6 b23b d0a9 1d3e 268a 2dbe 2774 73be
00000100: 8314 143e 54b5 93be 0991 28bd 3cad cabc
00000110: 4a09 21be 3b07 4fbd f572 953e ddee 8fbd
00000120: e25d 90bd 0a75 f33c 4a14 afbd 0bff 093e
00000130: 9190 cabb d641 e03d 7565 183e ec9a 3f3d
00000140: 628b c2bd dd99 aa3d cce1 60bd 032e d4bc
00000150: 47fe 3fbe 93d0 2bbe 2cec abbd fcaa a5bd
00000160: 44fc bc3c 2c72 9b3c b778 eb3c 685a e1bc
00000170: 14b0 0bbe 0264 80be c6da 06be 6c05 253d
00000180: 17af 693d ca8c 3b3d d6cd 29bd d27a c2bd
00000190: 780f 883d b900 03be 5a50 c1bc a360 d4bd
000001a0: 116e 2a3e 869c 343d 0288 b7be 0116 2abd
000001b0: 0370 68be c9c0 98bd 8853 3abd cc7f 893d
000001c0: fcd5 42bc f3a1 40bd 6409 82be 7ce2 b0bc
000001d0: d521 4dbe cc6b 533c 7cf3 c73d 2ef3 8abb
000001e0: f59a 773d 75ed 8a3b 8c5e 8c3d 3c3b c3bd
000001f0: 7ed6 1d3d 6261 f5bc 9688 d2bd b972 03bd
00000200: 2664 53bd 7c64 e33d d7b6 0fbe e020 3abd
00000210: 5227 a5bb c4f6 3bbe a404 a8bb d967 d3bd
00000220: 7326 f33c 720e 27be 2b70 febb 265a 943d
00000230: de7b 1ebe 35bf 3dbd 71b8 1ebe c080 d43d
00000240: 60ef 32bd 7928 51bd 63ff adbd e456 e23d
00000250: 022b 62be 9fce 6fbf 12af 5cbd 01b1 10be
00000260: e73e cd3c fd4b 983c a917 f1be 3fba a43c
00000270: 88ab a1be eda4 2bbe e88e 1fbc 0315 0d3d
00000280: 516c eebd cd29 87be 8fa6 adbd e7fa 81be
00000290: 80af 9cbe 4ba5 9c3d d51f b33d 55a1 adbd
000002a0: 2b12 333d f6e3 98be 3c5c 58bd d5b8 dabd
000002b0: 0c6f 92be c5e7 013d 4040 0ebd e940 12be
000002c0: cafd 7bbe 764a 443d 9c66 283e c332 60be
000002d0: c0ac aebc 889d 38bd 2a4c 69be deab ffbd
000002e0: c259 e1bd af91 233e ce5b 30bd 15c8 29be
000002f0: 03a3 e43d 39d1 a0be c3a9 01be a670 57bd
00000300: 508f 1bbf 4087 45be c755 9e3c 184b 5b3d
00000310: bca8 bdbd 9569 92bc fcfa 74be e7f2 d1bd
00000320: de0a d3bd 69c7 7fbe e86e ce3d c5c4 3bbb
00000330: d11c f83d 3754 babe adc6 2dbe 3d51 d6bd
00000340: 9359 16bd 1461 27bc 12a4 e0bc eb1b 07bd
00000350: 7e3d a8bd 13c3 f4bd 8b62 4cbc 6142 b3bc
00000360: 0d04 80be 0ff4 92bd 34e8 25be 444e 12be
00000370: 05bb 123b 5b15 5cbe 8f49 90bd 81d5 08be
00000380: 8411 cabd e1b9 cb3b 0278 553d 8088 f0bd
00000390: 97d9 e8bd 6d6b 31be 71ae 40be 018d a9bd
000003a0: ba46 96bd 7fac cabd 3c34 6dbd 6fc8 c8bd
000003b0: f065 61bd 804b e4bc 1e7f c33c 1d33 1bbe
000003c0: 6013 2ebf 4897 aabc 20c6 8ebd 781a c73d
000003d0: 5aa0 69be b5f2 633b acea 0cbe 502b 453d
000003e0: 4f4a c9bc d11f 8b3a 1571 82be 1356 6dbe
000003f0: 31d3 e8bd 2423 15be 8b93 093c a237 6dbe
-0.03612515 -0.37519678 -0.079812884 0.06273146 -0.14431062 -0.14954923 -0.016417265 -0.44427663
0.008949286 0.082361385 -0.29381225 -0.124629356 -0.19200388 0.029471992 -0.1590874 -0.097897395
-0.08043801 -0.0085188355 0.029127644 -0.058079094 -0.15877984 -0.0053802994 0.036716804 -0.15198416
-0.012028623 -0.093687795 -0.1281116 -0.24007201 0.007924165 0.048817188 -0.30797693 0.1624231
-0.03691227 0.05717007 -0.02015811 0.08923242 -0.053789247 -0.26092052 0.011141508 0.068537004
-0.13321327 0.011727001 -0.24109869 -0.08090099 -0.18580791 0.064693116 0.034573752 -0.063828155
0.048429143 0.107552305 0.07882878 -0.29845926 -0.005483395 0.1283764 -0.37187365 -0.029909998
-0.025603859 -0.02240169 -0.17290552 0.017076598 0.005461514 0.1539681 -0.1694723 -0.23774777
0.1446095 -0.2884928 -0.04115394 -0.024740808 -0.157262 -0.050544005 0.29189268 -0.070279814
-0.07049157 0.029718895 -0.08548792 0.13476197 -0.0061817844 0.10950057 0.14882453 0.046778604
-0.094992414 0.08330128 -0.054902837 -0.025900846 -0.18749343 -0.16778784 -0.083946556 -0.08089253
0.023069508 0.01897534 0.028744085 -0.02750893 -0.13641387 -0.250763 -0.13169393 0.040288374
0.057051744 0.045788564 -0.041456066 -0.09496082 0.066435754 -0.12793244 -0.023597885 -0.103699945
0.1664355 0.044094585 -0.35845953 -0.04152489 -0.22698979 -0.07458646 -0.045489818 0.067138284
-0.011891838 -0.047029447 -0.2539779 -0.021592371 -0.20032437 0.012904119 0.09763238 -0.004240415
0.060450513 0.004239733 0.06853971 -0.095327824 0.038534634 -0.029953662 -0.10279958 -0.03209183
-0.05160918 0.1110315 -0.14034592 -0.04544151 -0.0050400877 -0.18355852 -0.0051275063 -0.10322542
0.02968142 -0.16314104 -0.0077648363 0.07243757 -0.15476939 -0.046324927 -0.15500046 0.103761196
-0.043685317 -0.05106399 -0.08495977 0.11051729 -0.22086719 -0.93674654 -0.053877898 -0.14130022
0.025054408 0.018590922 -0.47088364 0.02010834 -0.3157618 -0.16762133 -0.009738661 0.034443866
-0.116417535 -0.2639908 -0.08479034 -0.25386736 -0.30602646 0.07648715 0.08746306 -0.08478037
0.0437185 -0.2986142 -0.052822337 -0.10679785 -0.28600347 0.031715173 -0.034729242 -0.14282574
-0.24608532 0.047922574 0.16445392 -0.21894364 -0.021322608 -0.04507211 -0.2278296 -0.12483953
-0.11003448 0.15973543 -0.0430563 -0.16580231 0.111639045 -0.31409624 -0.12662415 -0.052597664
-0.6076555 -0.19289875 0.019328011 0.05353841 -0.09260699 -0.017872611 -0.23923868 -0.10251408
-0.10304807 -0.24978413 0.100797474 -0.002865122 0.12114871 -0.36392376 -0.1697032 -0.10464714
-0.03670652 -0.010216016 -0.027421985 -0.03298561 -0.08214854 -0.1195127 -0.012474666 -0.021882238
-0.2500309 -0.07175457 -0.1620186 -0.14287668 0.0022389304 -0.21492521 -0.0704528 -0.13362695
-0.09866622 0.006217227 0.0521164 -0.11744785 -0.11369627 -0.17326136 -0.18816544 -0.082788475
-0.07337709 -0.09896182 -0.057911143 -0.09803855 -0.055028856 -0.027868032 0.023864325 -0.15156217
-0.67998314 -0.02082409 -0.06971383 0.097218454 -0.22815076 0.0034782116 -0.13761395 0.04813701
-0.024571566 0.001061434 -0.254769 -0.23177366 -0.113684066 -0.14564186 0.008396993 -0.23165753

network_body._body_endoder.seq_layers.2.bias f4 [128]
00000000: 787c 1ebd bfc0 8d3d 4271 93bd 07db 6b3d
00000010: 7fec 213d cd12 113e ca26 d0bc 52c8 4bbd
00000020: fa7f 8f3d 437d 0bbd 67e3 a6bd 8185 a4bd
00000030: b5c5 163d ff18 40bd 7203 20be 50c5 c6bd
00000040: 1ca8 863d 6538 443d d61d 453d 0609 1cbc
00000050: 0e7f 8ebd 01ea 00bd 9705 d33b 4c45 84bc
00000060: 41f8 3c3c c81b ce3c 3ff5 85bd a227 c8bc
00000070: 0782 883c a897 82bd 9bb1 133b 10c2 9fbb
00000080: d4ed 9b3b 2457 e6bd 8975 abbd 7f5e 0ebd
00000090: 0321 133d 4df1 93bd b314 04be 0772 08be
000000a0: ae8d 9cbd d4e4 a6bb 90dc dabd 7069 bd3c
000000b0: ebde e83d b83b b1bc 9f2f 30bd b41c 1dbe
000000c0: f597 8f3c 6a6a c2bd b054 63bd 1527 613d
000000d0: 5d5e 9bbd 12d9 523d 5853 cdbb 4fb4 ad3d
000000e0: 5edf d63d 4878 273d c136 ebbc 5b00 d2bc
000000f0: f1e0 a03d a380 abbd c565 90bd b330 4bbd
00000100: b422 5fbd e51b f83c 2572 bdbb 157f 47bd
00000110: 1eaf 9e3c 0013 bf3d c813 10be 313a f93c
00000120: 7a52 b5bd 37b7 dabd ab7b 30bc 5de8 d9bc
00000130: ea83 e5bc 4f86 1ebe bd11 babd cbed fabb
00000140: bfe5 653c ae15 20be a816 66bd 5644 a33d
00000150: e4a5 bb3c 7b2c c5bb 657c 84bd 29d8 14bd
00000160: 05b5 d8bd 1fd9 4fbd 5f92 02bd 9aec 153e
00000170: 5501 83bd 0223 9d3d 2a32 d83d acf7 80bd
00000180: 5707 ae3d c0be b0bd bdc7 15bd 1e10 c2bd
00000190: 34a9 d7bc 5e64 463c e08c aabd d416 26bd
000001a0: 721d 2b3e 05af 10be c245 8fbc 2eca aabd
000001b0: 0b40 a6bc f5ca 203e a540 ebbc dc37 a1bd
000001c0: 9fba f4bc 4de6 4e3d e752 20bd 0773 bc3d
000001d0: 26c5 153d f060 cfbd cec7 6ebd 57bf f63c
000001e0: 82ef da3d c7cb 38bd ae72 adbb 5168 483d
000001f0: da7e 813d 6466 c3bd 631a 073b 04cb 93bd
-0.03869292 0.06921529 -0.071993366 0.057581928 0.03953218 0.14167328 -0.025409121 -0.049751587
0.070068315 -0.034055006 -0.08148842 -0.08033276 0.036809642 -0.046898838 -0.15626314 -0.09705603
0.06575033 0.047905345 0.048124157 -0.009523636 -0.069578275 -0.031473164 0.0064398753 -0.016146325
0.011533798 0.025159732 -0.065409176 -0.02443296 0.016663564 -0.063765824 0.002253628 -0.004875429
0.004758576 -0.112470895 -0.083720274 -0.034758087 0.035920154 -0.07223759 -0.12898521 -0.13324748
-0.07644211 -0.0050931964 -0.106866 0.023121566 0.11370643 -0.021634921 -0.043014165 -0.1534298
0.017528513 -0.09492953 -0.055500686 0.054968912 -0.07586358 0.051476546 -0.006266039 0.08481657
0.10491823 0.040886194 -0.028712632 -0.025634935 0.07855404 -0.08374145 -0.07050661 -0.04960699
-0.054476455 0.030286739 -0.0057814294 -0.04870518 0.019370612 0.09329796 -0.14070046 0.030423256
-0.08853622 -0.10679477 -0.010771672 -0.026600057 -0.028017003 -0.15480922 -0.090854146 -0.0076577417
0.0140318265 -0.1563327 -0.05617395 0.079720184 0.022906251 -0.0060172654 -0.06469039 -0.03633896
-0.10581402 -0.050744172 -0.03187787 0.14641038 -0.063967384 0.07672693 0.10556443 -0.0629724
0.08497494 -0.08630133 -0.03656744 -0.0947573 -0.0263258 0.01210889 -0.08327651 -0.040549114
0.16710451 -0.14129265 -0.017489318 -0.08339344 -0.02029421 0.15702422 -0.028717348 -0.078719825
-0.029874144 0.0505126 -0.03914156 0.09201627 0.03656497 -0.10125911 -0.058296017 0.030120535
0.10690214 -0.045116212 -0.005293212 0.04892761 0.06323023 -0.09541014 0.0020615093 -0.072164565

action_model._continuous_distribution.log_sigma f4 [1, 2]
00000000: e309 86bf 20ea 81bf
-1.0471767 -1.0149574

action_model._continuous_distribution.mu.weight f4 [2, 128]
00000000: e784 0a3d e5a3 593e f392 ceba 8201 f33d
00000010: ec25 5bbd 67c7 053d ec2b e43c 3fde 703d
00000020: 2aa1 b6bd 131a 51be e415 11be 8f8c 8b3d
00000030: 0ad8 d5bc b7f2 7d3d 9cb2 eebc 919d 0bbe
00000040: 1b5a 993d 2a7f c8bd 233e de3c 0904 583e
00000050: 76cd 903d e1d6 e93b 4894 473d 31cd f7bb
00000060: b0b0 7c39 c0cb 3dbe 1051 dd3d 8ca1 81bd
00000070: 38a3 2c3e 5738 813d 2175 363a dd90 5b3e
00000080: 7dff c93d cf1e 653c 58cd 033e 4e0c 8137
00000090: ed88 58be 49d7 b83d 862a 413d fca2 c63d
000000a0: 1579 8f3d 0ef5 34ba 7b0f 893d 69ca 45bb
000000b0: 937e 11be 01ee 743e 9bc5 893d c48e 07bc
000000c0: b93d bb3d 1908 463d c9e5 b03d 8150 2cbe
000000d0: 1f76 38bd 0253 0a3f 935a c2bd cccd b33d
000000e0: 7bf6 8f3d aa5a 2ebd d033 fcbd 253d f1bd
000000f0: 7483 563e 2e26 e43b 5ab8 49bc 1c30 743b
00000100: dca3 f5b8 946d cbb9 bbbf 883c 9982 8dbd
00000110: a757 ac3d 84d4 4dbd bf89 cbbd afd2 d8bd
00000120: 95a0 9f3d cd71 f9bd fd5e 74be 4e30 2ebe
00000130: fb88 bebd 39c7 323c acfa a6bc 8632 4c3e
00000140: 0ad6 1e3e 2440 643d fc08 873c 8246 ad3d
00000150: 74be 16be dda0 5ebd 0933 1fbe 43a0 acbe
00000160: a237 3b39 8695 8c3d 1802 bd3d 2954 bc3d
00000170: 0cd0 6cbd 590d f7bc 23eb 733e 4b54 8abe
00000180: e7f4 c7bd 6869 6bbd 9676 e739 bea0 9dbb
00000190: e3d1 f9bd 1b0d 9fbd 6b0b 3e3c bc5a 463d
000001a0: f509 76bc 11e8 a7bd 9f1f 93b9 f925 01be
000001b0: 79f9 0ebe 6300 af3e 2b72 143d cf35 9c3d
000001c0: ca11 f13c 4558 abb8 c8df 60bd 8c1c cdbd
000001d0: d6b4 2f3d 636e 05be cacb debc bf92 103e
000001e0: 82a2 24be a45b 20bd c3ba 66bd 722c 473e
000001f0: 0140 3c3a d09d 65bd 28bb 263d 3df5 5ebd
00000200: 258f c2bd 3d94 3d3e 86d4 edb9 7d51 60bd
00000210: 4c4b cebd 5f2d 8b3e bc9d d03c a672 d83c
00000220: 3a8d debd 50fe 1e3e 13b6 693d 77b3 4dbe
00000230: 6eaf 9dbd f665 583c 1642 e7bc ab42 043d
00000240: f5ed 013e fdf7 92be 8f28 ad3d 1992 e93d
00000250: a56d 61bd 39d7 7fbd 7fef 003e 0bc3 c13d
00000260: 094a 063a 4f11 3c3e 0c3b 5ebd 5cc8 073e
00000270: 9745 56be 66c7 1abe 4a90 afb7 1ef1 7cbd
00000280: e107 043e c075 073d 2b96 8ebd 3922 853a
00000290: 3046 92bc c7ca 883c d4d8 47bd 8e84 e73d
000002a0: 52f4 dc3b ab03 ddb9 7d83 e1bd 45dd 1dbe
000002b0: e44b e83d 2ddc b73d 3c5e 153e 2fb2 f43c
000002c0: 7b8a 4d3d 69fc e7bd 7f8f 7c3a 222f 723d
000002d0: b3df abbd 7a64 febc ea2d 103d da74 56be
000002e0: d704 483e 05f4 6f3e 7576 29be 5875 9bbd
000002f0: f687 92bd f850 1ebe 503f 623e 7928 b03d
00000300: 6224 1aba 3bd5 7239 f1cd a03d 94b9 d0bc
00000310: aa69 51be cf39 81be f603 a9bc 6d3f e23c
00000320: daf1 7cbd 00a7 35bc 2a27 ecbd 8b22 4cbd
00000330: 9f46 863d dd04 98bd 44e7 dbbc 677f 413e
00000340: 0ee3 633d efa4 e7bc 5487 3b3d 039e e3bd
00000350: ace8 1ebe 063b 4e3d 7716 0abe 7484 c33d
00000360: b913 89b9 aa1f 8a3d 10aa c4bd 473a 413e
00000370: b83a 973d 5f80 54be 8df8 9dbe f138 1f3e
00000380: 3f78 21be 5282 983d f196 d2ba f3c5 80bd
00000390: fab1 453e c672 7bbd 1d39 083e 7746 3f3c
000003a0: 0b97 6c3e 17f4 7dbd 0236 4fba e14f 25be
000003b0: 78d7 853d 7dec f43d 46ed c4bd 49fc 07be
000003c0: 4dcf 04be eeef 8038 0d31 403d 8c50 313e
000003d0: 5f9f 2dbe 8cde cebd 4703 f7bd 698e 55bd
000003e0: 97ad ab3d 51f0 07be 562f 0b3c 2f4e 1e3e
000003f0: d53d cbb8 ea9a 1d3c 5bcc 41be 14d5 3fbd
0.03381815 0.21253927 -0.0015760347 0.11865522 -0.053502962 0.032660868 0.027852975 0.0588057
-0.08917458 -0.20420103 -0.14168507 0.06813919 -0.026103992 0.06199905 -0.029137902 -0.13634326
0.074878894 -0.097898796 0.027129238 0.2109529 0.070704386 0.0071362113 0.048725396 -0.0075623025
0.00024098414 -0.18534756 0.10806477 -0.06329641 0.16859138 0.06309574 0.00069602026 0.2144198
0.09863184 0.013984396 0.12871301 1.5383728e-05 -0.21145983 0.090254374 0.047159694 0.096990556
0.070055164 -0.0006902971 0.06692406 -0.003018046 -0.1420844 0.23918916 0.067271434 -0.008273784
0.09142632 0.048347566 0.08637578 -0.16827585 -0.045034524 0.5403291 -0.09489932 0.08779487
0.07029434 -0.042566933 -0.1231457 -0.117792405 0.20948583 0.006962559 -0.012312019 0.003726012
-0.000117130316 -0.0003880082 0.016692987 -0.06909675 0.08415156 -0.0502515 -0.09938382 -0.1058706
0.077943005 -0.12179909 -0.2386436 -0.17010614 -0.09303471 0.010911756 -0.020383202 0.19941148
0.15511337 0.05572523 0.016483776 0.08460714 -0.1472109 -0.05435263 -0.15546812 -0.3371602
0.00017854435 0.06864457 0.09228915 0.0919574 -0.057815596 -0.030157732 0.23820166 -0.27017435
-0.09763508 -0.05747357 0.00044148107 -0.0048104217 -0.12198236 -0.077661715 0.011599402 0.048426375
-0.015017022 -0.0819856 -0.00028061584 -0.12612142 -0.13962354 0.34179983 0.03624169 0.07627451
0.029427428 -8.170357e-05 -0.054900914 -0.100152105 0.042897068 -0.1303039 -0.027196784 0.14118479
-0.16077617 -0.039149895 -0.056330454 0.19450548 0.0007181168 -0.056058705 0.04070583 -0.054433096
-0.09499959 0.1851358 -0.00045362505 -0.054765213 -0.100729555 0.27183053 0.025465839 0.026421856
-0.108667806 0.155267 0.057058405 -0.20087992 -0.07699476 0.013207903 -0.028229754 0.032290142
0.1268843 -0.28704825 0.084550016 0.11404819 -0.055036206 -0.06246111 0.1259136 0.094610296
0.00051227264 0.18365978 -0.05425553 0.13260025 -0.20924984 -0.15115127 -2.0928816e-05 -0.061753385
0.1289363 0.03307128 -0.06962236 0.0010157294 -0.017855734 0.016698254 -0.048790768 0.1130458
0.0067429924 -0.00042155138 -0.110114075 -0.15416439 0.113426 0.08977542 0.14586729 0.02987012
0.050180893 -0.1132744 0.00096344197 0.05912698 -0.083922766 -0.03105377 0.035200037 -0.20943013
0.19533096 0.2343293 -0.16549094 -0.07590741 -0.07154839 -0.15460575 0.22094464 0.086014695
-0.0005880055 0.00023158353 0.0785178 -0.025479116 -0.20450464 -0.25239417 -0.020631772 0.027618134
-0.061754085 -0.011087179 -0.115309075 -0.04983763 0.06556439 -0.074228026 -0.026843674 0.18896256
0.055636458 -0.028276889 0.045783356 -0.11114123 -0.15518445 0.050349258 -0.13485132 0.09546748
-0.0002614537 0.06744321 -0.09602749 0.18869887 0.073842466 -0.20752095 -0.30853692 0.15549065
-0.15768526 0.074467316 -0.0016066713 -0.06287756 0.19306174 -0.061388753 0.13303037 0.011674515
0.23104493 -0.06200036 -0.0007904471 -0.16143753 0.06535238 0.11959169 -0.09615569 -0.13279833
-0.12969704 6.148206e-05 0.04692178 0.17315882 -0.16955326 -0.10101041 -0.12061172 -0.052137766
0.08382719 -0.13275267 0.0084951725 0.15459512 -9.6913114e-05 0.009619454 -0.18925612 -0.046834067

action_model._continuous_distribution.mu.bias f4 [2]
00000000: 86aa be3c 46ed 883c
0.023274671 0.016714703

exp_avg f4 [128, 6]
00000000: d584 e93a 1175 e3b8 deff e239 55fa 893b
00000010: e24f 9437 cb7f be39 fc1d 0bbb 0ff3 68b9
00000020: fda7 c13a f4bf 223a ca0a 8ab6 ec2b e2ba
00000030: c6bd 2e3b fd60 2239 4599 b5ba 608e 5f3b
00000040: 318d 0037 122e 3fbb 40d1 043a 8e8c b0b6
00000050: ecc8 913b eb94 e03a fbf5 b1b6 eae4 5f3b
00000060: 3d33 353a 079e 9bba 5034 053b ecd4 373b
00000070: 7488 b9b6 e019 bd39 977f a9bb 04bb a538
00000080: e3c2 77bb 028c c6bb 3d97 ab37 29ca 64bb
00000090: 0197 98b9 77c8 0d38 3d69 60b8 d884 c539
000000a0: f322 9135 22c8 3eb9 cdba 4a3b e608 2a3a
000000b0: b209 38bb f9b9 64ba 2d7e 5f37 ff92 2f34
000000c0: 51a2 2dba 6457 1739 b9a3 6b3b 1a30 ce38
000000d0: 75a6 c3b6 bd5f 1e3b 30cc 993a 48a9 6339
000000e0: 7b78 d639 4e06 cdba 1fe1 14b6 14d0 963a
000000f0: 0c96 6abb 035a 5139 ba1c d03a 4c1e ddba
00000100: 5468 7cb4 a352 113b f4c5 ec3a 48e9 2db9
00000110: c61f 0cbb 3b32 ea3a 64b6 0bb7 282c 9bb9
00000120: aea3 0bbb df94 043a 9277 30ba 9e8a 2abb
00000130: 97c9 81b7 3982 06bb 0300 b73a f74a 0439
00000140: 55ea bdba bffb 1bbb 579b 1e36 6370 a0bb
00000150: 5f79 fe3a cfb5 8939 4ecc 8a3a b0af d33a
00000160: 6377 0737 8187 7039 bd94 ef3b 0860 d538
00000170: c38d c5bb 4509 5f3b 0d62 2db7 506e 7ab9
00000180: 63f8 8dbb 6cef 113a b0cc e7ba 1ac6 06bb
00000190: 7377 0f36 4b6c 2cbb 1997 93ba 5c41 0c39
000001a0: 776c 193a 01b0 56ba ed1a eb36 6aa5 133b
000001b0: 3622 b0ba 11e4 9737 ac52 143b faab b239
000001c0: 900c 73b7 7433 b73a 9293 c93b 9854 d3b9
000001d0: 78b4 00bb 535b 653b 4c01 6b37 6d08 21bb
000001e0: 0c98 d63b 8ee2 b639 35cb 603a 57bf df3b
000001f0: a43b f036 2280 3aba da6e fdbb af02 e03a
00000200: 0b9e 4bbc a683 22bc 1301 a1b7 8c1e 64bc
00000210: 810c 983b 1c5b 3339 a219 b1bb 8d1f 6839
00000220: bdc9 8bb6 a788 cebb f700 d6ba 99a4 0fb9
00000230: 5e2c 2bbb 1267 b337 b943 1837 1b79 0fbb
00000240: 5a7e 8939 b0da 403a 83ca 9539 d8d4 3cba
00000250: 811d 64b7 1083 553b 6005 623a 32d1 c139
00000260: 5b3f 2c3b 0dfb 653a dc59 b936 e126 b23a
00000270: 6b43 f539 529e 283a 4357 e4ba c24c b1ba
00000280: 9e41 94b7 8eb6 13bb 16f6 603b 5675 11b9
00000290: f212 22ba d63a 873b 59c4 aeb7 c3fc 2b39
000002a0: 81b1 8a3a eec6 8639 d64e 8bb9 7157 97ba
000002b0: 2357 2e36 5718 96ba a716 87ba 72ba 47b9
000002c0: a0a5 c9ba d0e9 95ba 30d7 9637 35d5 96ba
000002d0: efa0 6dbb c531 9ab7 9f1d 7f3a 6b36 5b39
000002e0: 81d3 16b6 692f 2d3a 2423 05bb 28a1 0cba
000002f0: 05e9 f739 fb30 3e3a 0b1a 9235 20ec 87bb
00000300: 2198 96ba ca73 013a 7e9c f03a fa42 a2ba
00000310: b7c6 2037 025c 153b f03e e83a 297f 2739
00000320: 1ca7 2b39 4bf3 003b 2427 9fb7 7f97 1bb9
00000330: 4124 19ba af02 023a 37b6 5b3a 4c94 5fbb
00000340: 4118 fc36 c027 d5ba 2976 3dbb dff8 3e3a
00000350: d631 c6ba 8a7d 51bb c64a 87b7 de2f 72bb
00000360: 95fc f83a c732 873a f468 8c3a 3b68 20ba
00000370: 473b 34b7 b921 853a 8987 1aba a4ed f5b9
00000380: 6272 78b9 dc18 ba3a 563e fbb6 6a5a 4bbb
00000390: 123e 1c3b 47b5 0239 a655 1dbb 0a79 8d3a
000003a0: fdba eeb4 63c8 a9ba 6f87 1cba 0e0f a539
000003b0: b3e5 08bb 4cab aaba 18ca f236 5c6d f3ba
000003c0: 5570 943b 8647 c539 ac31 d5bb 9175 8a3a
000003d0: 333d 61b7 0101 5fba 511a 08bc 6d43 11ba
000003e0: 0785 c9ba e67b dfbb 1d1c 8836 c0da 6cba
000003f0: 7adb 263a 3848 dab9 3de0 fe3a 9cbf 2e3a
0.0017816076 -0.00010846009 0.00043296715 0.00421075 1.7680173e-05 0.00036334837 -0.002122759 -0.0002221579
0.0014774796 0.0006208413 -4.1139765e-06 -0.0017255521 0.0026663407 0.00015485655 -0.0013854882 0.0034111962
7.662268e-06 -0.0029171747 0.0005066581 -5.2615715e-06 0.0044490006 0.0017134225 -5.303647e-06 0.0034163543
0.0006912237 -0.0011872657 0.002032537 0.0028050495 -5.529315e-06 0.00036068168 -0.0051726806 7.9026475e-05
-0.003780537 -0.0060591707 2.0455214e-05 -0.0034910536 -0.00029104206 3.3803717e-05 -5.3503773e-05 0.00037673744
1.0813513e-06 -0.00018194367 0.0030934096 0.00064863113 -0.002808195 -0.0008725222 1.3321213e-05 1.6351622e-07
-0.00066236133 0.00014433038 0.003595574 9.831805e-05 -5.830831e-06 0.0024165951 0.0011733826 0.00021711469
0.00040907026 -0.0015642138 -2.2184756e-06 0.0011506104 -0.0035795001 0.00019965325 0.0015877702 -0.0016869991
-2.3507283e-07 0.00221745 0.0018064366 -0.0001658547 -0.0021381243 0.0017867753 -8.327512e-06 -0.00029596803
-0.0021307277 0.0005057584 -0.00067316846 -0.0026022564 -1.5471871e-05 -0.0020524396 0.0013961795 0.00012616428
-0.0014489392 -0.0023801175 2.3634254e-06 -0.00489621 0.0019414834 0.00026266134 0.0010589452 0.0016150381
8.074424e-06 0.00022938663 0.007311432 0.00010174519 -0.006028862 0.0034032625 -1.0334433e-05 -0.00023882953
-0.0043325885 0.00055669877 -0.0017684903 -0.0020564855 2.137819e-06 -0.0026309665 -0.001126024 0.00013375789
0.00058526493 -0.0008189679 7.0066803e-06 0.0022529014 -0.001343793 1.8106804e-05 0.0022632284 0.00034078938
-1.4486854e-05 0.0013977126 0.006151625 -0.00040308083 -0.0019638818 0.003499706 1.40073935e-05 -0.0024571673
0.006548887 0.00034882542 0.0008575202 0.0068282294 7.1595005e-06 -0.000711443 -0.007734162 0.0017090644
-0.012427817 -0.009919083 -1.9193196e-05 -0.013923299 0.0046401625 0.00017104711 -0.005404667 0.00022136998
-4.1660082e-06 -0.0063029113 -0.0016327192 -0.0001369886 -0.0026118974 2.1386459e-05 9.075674e-06 -0.0021892253
0.00026224816 0.0007356806 0.00028570378 -0.0007203347 -1.3596728e-05 0.003257934 0.0008622017 0.0003696769
0.002628288 0.0008773066 5.5238906e-06 0.0013591909 0.00046780272 0.0006432283 -0.0017421026 -0.0013526904
-1.767353e-05 -0.002253923 0.0034326366 -0.00013871989 -0.00061826326 0.004126887 -2.0833848e-05 0.00016401992
0.0010581465 0.00025706686 -0.00026570883 -0.0011546445 2.597874e-06 -0.0011451346 -0.0010306434 -0.00019047575
-0.0015384443 -0.0011437479 1.7981598e-05 -0.0011507632 -0.0036259254 -1.8381406e-05 0.0009731892 0.0002090574
-2.2474853e-06 0.0006606491 -0.0020315135 -0.00053645903 0.00047285124 0.00072552235 1.0885427e-06 -0.0041480213
-0.001148943 0.00049382134 0.0018357185 -0.001237958 9.58301e-06 0.0022790437 0.0017718952 0.00015973732
0.00016370084 0.0019676264 -1.8972503e-05 -0.00014838389 -0.0005841889 0.00049595063 0.0008381339 -0.0034115491
7.5130088e-06 -0.0016262457 -0.002890954 0.00072850095 -0.0015121053 -0.0031965696 -1.6128073e-05 -0.00369548
0.0018996174 0.0010314815 0.0010712431 -0.0006119047 -1.0742638e-05 0.0010157145 -0.000589483 -0.00046907098
-0.00023693734 0.0014198082 -7.48764e-06 -0.0031029233 0.0023840708 0.00012465297 -0.002400735 0.0010793519
-4.4467006e-07 -0.0012953397 -0.0005971109 0.0003148247 -0.0020888865 -0.0013021021 7.235689e-06 -0.001857202
0.0045299926 0.00037628057 -0.0065061655 0.0010563602 -1.3425294e-05 -0.00085069245 -0.008307056 -0.0005541358
-0.0015374728 -0.0068201898 4.0563887e-06 -0.0009035282 0.0006365102 -0.00041634007 0.001944549 0.0006666125

exp_avg_sq f4 [128, 6]
00000000: 3b5b 9139 f303 b536 456b 6a39 8da7 8439
00000010: 9b13 8b31 a00e 8939 3d34 1f39 15b7 2b36
00000020: 21f9 cd38 617f 0339 3b96 0031 e1b5 ee38
00000030: f5ab 9b39 037c fa36 b423 9239 ceb2 9d39
00000040: 489c b531 0486 8c39 e1af 7339 8c93 bc36
00000050: f0c2 4639 1bb1 7239 e7ef 9231 9003 9f39
00000060: f073 b239 4523 c136 2a6b 5d39 a0d4 9239
00000070: 0a9e 8a31 7e6c 9039 8a55 df39 9a78 5437
00000080: 921f aa39 cfe6 ef39 7a45 1332 4b88 ca39
00000090: 3f48 5e38 5bef a835 b755 1938 a140 6938
000000a0: 0d58 6e30 5b71 3238 3a99 d839 0b72 1637
000000b0: 6c0b a239 a008 a039 f9e6 cd31 621b ce39
000000c0: 4d61 8838 3f9c 0136 5c93 ba38 fc65 8638
000000d0: 56a1 b630 c221 eb38 62d8 3038 67a6 c635
000000e0: 0251 4738 b51f 5f38 4bea 8a30 a65c 8438
000000f0: fe11 3638 22b2 d535 62ff 7e38 74f1 2d38
00000100: 4d3f a730 a46a be38 952f 8038 12ef 0536
00000110: fb4f 6d38 dbfe 8138 ccde ba30 dfc7 b338
00000120: 14f3 3439 b6b2 1536 4493 c938 22c1 1139
00000130: 2ce0 d830 8716 ee38 dac9 1339 e7e5 8c36
00000140: cdc0 1939 523f 0839 169a 2031 65c4 6539
00000150: f623 0e39 d117 1a36 9b61 b238 3280 0839
00000160: c7b2 c330 ea3e fb38 70e5 2539 828e 4f36
00000170: ba67 2139 86c3 1739 9059 1f31 9888 2339
00000180: 6f8e c138 87b6 1236 035c a738 bd03 8e38
00000190: f5f8 d530 9ce6 bf38 7bf1 e838 5dcc 4736
000001a0: 52bc ab38 fba4 ed38 df6a 0531 5ca5 fa38
000001b0: 12cc ff38 6bb3 8436 32fb b738 03fe d938
000001c0: 65a7 4c31 1329 0139 3835 8039 48ba 8736
000001d0: 60a5 1339 7597 6939 67f5 5931 e7ab 1c39
000001e0: 0386 fa39 7ca6 0d37 aa7c 8339 e3d6 0b3a
000001f0: 231b cd31 fd7d 8d39 dac2 773a ab3c 9c37
00000200: ea68 2e3a 04ef 6b3a 21d9 6d32 a592 653a
00000210: 4180 7239 47f1 4136 7617 0e39 98fc 4239
00000220: 9e38 0a31 14f7 0b39 7b7c fa39 cccc ee36
00000230: ed0f a439 91b1 cb39 3559 b631 ffd1 be39
00000240: 58d7 cb38 b3e6 5236 3bb3 c238 7a6c ca38
00000250: f2d5 0031 f2aa ce38 2d28 4139 579b 9e36
00000260: ad0d 3339 a966 4d39 7b41 6531 1603 8139
00000270: f122 143a df51 2637 a301 7c39 9b39 133a
00000280: 64cb d231 2586 c639 1d34 063a b6e6 1937
00000290: 47a2 7c39 a57d 043a 8721 cc31 4035 aa39
000002a0: 3209 e038 4edf 2336 b73e d438 aad2 e638
000002b0: e3a5 fd30 6123 0139 7268 7d39 44ed b036
000002c0: c534 3f39 001e 8639 bc42 8231 c2d8 3d39
000002d0: a171 0039 8632 a936 6b73 3439 6597 ff38
000002e0: 6cba 4d31 e378 8539 908b 2539 613e 4136
000002f0: df10 dc38 c3bd fc38 4591 1b31 83bb 0b39
00000300: abd3 ea38 a019 3736 243d c938 6516 0839
00000310: 6a4b 0e31 de21 fe38 c43d e039 dacc 1a37
00000320: 2f70 c439 aa60 b239 6f48 e031 4405 e339
00000330: 15b5 9239 b3e1 ca36 e26b 9a39 9409 a739
00000340: f14a 8e31 658b c239 9561 9039 672a 2137
00000350: a81e a539 c900 8b39 13c6 dd31 5779 023a
00000360: 4722 ea39 757c be36 43a6 2939 d412 f639
00000370: 1021 7b31 b3ab 6a39 b5b8 2a39 2398 5236
00000380: ab03 dc38 8d09 1d39 b8a1 0831 4789 0d39
00000390: 620b 4939 32ae 9536 d3fe 0639 5789 5939
000003a0: ba9c 4831 5fb0 2e39 f243 8938 779d ea35
000003b0: a11f 7638 c1d8 6438 b6fd a730 e8dc 8c38
000003c0: d290 213a dcef 0e37 245e 5e39 3529 193a
000003d0: 7ebd c831 52f1 7139 1c4d be39 2d13 a336
000003e0: 4bcb da38 e942 be39 3118 5c31 5575 1c39
000003f0: 10cb a838 8cbe fb35 e524 b038 c4d2 9a38
0.00027724527 5.39468e-06 0.0002235594 0.00025301837 4.0476613e-09 0.00026141573 0.00015182882 2.5587553e-06
9.8215656e-05 0.00012540586 1.8711848e-09 0.00011382602 0.00029692022 7.4650175e-06 0.0002787389 0.00030078593
5.2855604e-09 0.0002680273 0.00023239806 5.6200133e-06 0.00018955371 0.00023144895 4.276433e-09 0.00030329498
0.00034037186 5.755954e-06 0.00021116124 0.00028005708 4.0342956e-09 0.00027546653 0.00042597606 1.2664264e-05
0.00032448448 0.00045757598 8.572323e-09 0.0003862999 5.299621e-05 1.2586637e-06 3.655787e-05 5.561172e-05
8.6709023e-10 4.2544078e-05 0.00041312893 8.967249e-06 0.00030907558 0.00030524004 5.992544e-09 0.00039311784
6.503109e-05 1.9313445e-06 8.896619e-05 6.408614e-05 1.3288097e-09 0.00011211961 4.2163192e-05 1.4800579e-06
4.752074e-05 5.3196873e-05 1.0107412e-09 6.3115076e-05 4.3408938e-05 1.592158e-06 6.0796163e-05 4.1471285e-05
1.216884e-09 9.0797694e-05 6.1123785e-05 1.9957702e-06 5.657969e-05 6.19867e-05 1.3596604e-09 8.572614e-05
0.00017256691 2.2306754e-06 9.611857e-05 0.00013900225 1.5779782e-09 0.000113529204 0.00014094208 4.1990893e-06
0.00014663041 0.0001299356 2.3370652e-09 0.00021912305 0.00013555572 2.2961651e-06 8.505882e-05 0.00013017727
1.4238929e-09 0.00011980331 0.00015821098 3.0928354e-06 0.00015392798 0.0001447332 2.3188456e-09 0.00015595776
9.2294875e-05 2.186194e-06 7.980319e-05 6.771784e-05 1.5568548e-09 9.150544e-05 0.00011107601 2.9772266e-06
8.188993e-05 0.00011331771 1.9414796e-09 0.000119517295 0.000121973586 3.9547936e-06 8.772909e-05 0.0001039468
2.978106e-09 0.000123177 0.00024453714 4.0449995e-06 0.0001408062 0.00022277034 3.1717151e-09 0.00014941358
0.00047783562 8.443018e-06 0.0002507915 0.000533445 5.9693703e-09 0.00026987484 0.00094513374 1.86249e-05
0.00066532067 0.00090001547 1.3844585e-08 0.00087575085 0.00023126697 2.8899683e-06 0.00013550915 0.0001859538
2.0113826e-09 0.00013348117 0.0004777646 7.116794e-06 0.00031292383 0.00038851475 5.307039e-09 0.00036396083
9.719905e-05 3.1426723e-06 9.284025e-05 9.652316e-05 1.8748065e-09 9.8546865e-05 0.00018420881 4.726851e-06
0.00017075865 0.00019588567 3.3361107e-09 0.00024607097 0.00056509586 9.913433e-06 0.00024033202 0.0005616189
6.1349272e-09 0.00037865448 0.000511946 9.173227e-06 0.00024093046 0.0005054123 5.940993e-09 0.000324646
0.00010682865 2.4418873e-06 0.00010120629 0.00011006494 1.8455321e-09 0.00012315578 0.00024166869 5.27283e-06
0.00018234838 0.00025580823 3.791085e-09 0.00018105193 0.00012249361 5.042474e-06 0.00017209134 0.00012187547
2.9937395e-09 0.00025457804 0.00015787617 2.879555e-06 0.0001049356 0.00012051642 2.2638045e-09 0.00013325927
0.00011197416 2.728404e-06 9.595815e-05 0.00012978313 2.0706588e-09 0.00012117972 0.00042770628 9.226811e-06
0.00037467616 0.00034022826 6.5274928e-09 0.00043300737 0.00027982207 6.046344e-06 0.00029453548 0.00031859858
4.1412638e-09 0.0003710642 0.00027538525 9.60622e-06 0.00031494093 0.0002651273 6.454465e-09 0.00049771875
0.00044657497 5.67693e-06 0.00016179033 0.00046934804 3.65441e-09 0.00022379942 0.00016281272 3.1380994e-06
0.00010491101 0.00014976245 1.9882531e-09 0.00013497948 0.00019173094 4.460825e-06 0.00012874165 0.00020745896
2.919292e-09 0.00016659636 6.545325e-05 1.7480187e-06 5.8680427e-05 5.4561304e-05 1.2222958e-09 6.716867e-05
0.00061632425 8.519706e-06 0.0002120664 0.0005842627 5.842309e-09 0.0002307345 0.00036297075 4.860011e-06
0.00010432916 0.00036289476 3.2027965e-09 0.00014921029 8.0486876e-05 1.8756414e-06 8.399206e-05 7.3825504e-05

exp_avg f4 [128]
00000000: 0463 b939 4701 343a ee6c 8aba 907d 9239
00000010: 03b0 723b 68aa 35b8 efe0 17b9 b3aa 25bb
00000020: c54f afb9 cef5 4eba b638 4bba 62f0 be39
00000030: a119 e9ba 03c9 d6b9 9de7 66ba 37c3 fab9
00000040: 7c7a ebba 98e5 18ba 9d80 8c38 f413 6a3a
00000050: 0ed4 a9ba 0d16 acbb 891b 45ba 5eb0 e139
00000060: 3b27 0abb 3d61 95ba e820 caba 3f65 d539
00000070: bcb9 48ba 4e99 293a c8a7 b6b9 c262 d43a
00000080: af19 d2ba 550d 6539 abc2 9dba af9e 19bb
00000090: 6786 39bb f566 cc3a 8b2b e8b9 6b4d 87ba
000000a0: ef88 96ba b643 e43a 3d85 a43a 45e2 07bb
000000b0: 5c1b a03a e892 a43a 604d b639 7fbf 8835
000000c0: 9ef8 9c39 f571 a0ba 9c05 3dba 10ee 2cba
000000d0: aa99 1f38 7833 57ba 5302 85ba a45b 6fb9
000000e0: e2f5 03ba 36ea 7fba 0fc9 963a 7155 5439
000000f0: 1e1c ba3a dd4d d5ba aba2 86b9 c7df 9aba
00000100: 5c1e 64bb d7fe e2ba addc 63ba 6f55 b839
00000110: ef50 743a 1871 9cb8 3c8f 11bb dd56 ce3a
00000120: 6d64 133a 7077 cbb9 ecd6 653a 6144 8d39
00000130: d600 6a3a 1a29 b5ba 7b2a 253a e582 c839
00000140: e2c9 3039 fba6 a2ba 01d9 403a d6e9 be39
00000150: 7a0f 683a 1af2 11bb 38c1 013b 46f2 2d3a
00000160: 74bd 44ba dde1 b7ba 5ccd 75ba 2d0b c4b9
00000170: ee3d a53a 4f18 18bb 2787 5dba 382b b9ba
00000180: 4d8e 30ba 0405 edba 4d94 3c3a 8e85 89ba
00000190: f44b 2839 8bb5 9cb9 4c66 adba b050 6c3a
000001a0: 1dd3 d1b9 9907 29ba 11ea 8e39 dc1c 70ba
000001b0: 8f2b e539 a77f dfb9 20e2 78ba a3f5 63ba
000001c0: e83c 64bb febd 1bb8 7446 6f3a 3d7b 113a
000001d0: 7234 59ba 6618 b639 e88f 82ba 218c 7039
000001e0: 0b24 c439 f9bd 213a ef63 8439 ae5a 273a
000001f0: 170b 60ba a1e7 38b8 b71f d0ba dc13 6139
0.00035359722 0.00068666454 -0.0010561028 0.0002794084 0.003703118 -4.3312466e-05 -0.00014484276 -0.0025278747
-0.00033438034 -0.0007894904 -0.0007752286 0.00036418723 -0.0017784127 -0.00040967026 -0.0008808317 -0.00047829162
-0.001796558 -0.0005832552 6.699676e-05 0.0008929365 -0.0012956874 -0.005251652 -0.00075190567 0.00043046748
-0.0021080512 -0.0011396777 -0.0015421184 0.0004070196 -0.0007657071 0.00064696826 -0.00034838752 0.0016203749
-0.0016029383 0.00021844108 -0.0012036165 -0.002344053 -0.002830887 0.0015594648 -0.0004428293 -0.0010322755
-0.0011484901 0.0017415199 0.0012551915 -0.0020734232 0.0012215185 0.0012555989 0.00034771394 1.0188522e-06
0.00029939873 -0.0012240993 -0.00072106137 -0.00065967534 3.8051665e-05 -0.00082092686 -0.0010147787 -0.00022826955
-0.0005033893 -0.0009762378 0.0011504012 0.00020249725 0.0014199053 -0.0016273815 -0.0002567967 -0.0011815958
-0.0034808135 -0.001731838 -0.0008692246 0.00035158868 0.00093199214 -7.459725e-05 -0.0022210618 0.001574244
0.00056225696 -0.00038808165 0.00087676826 0.00026944562 0.0008926516 -0.0013821453 0.00063005806 0.00038244497
0.00016859875 -0.0012409383 0.0007356555 0.00036413845 0.0008852404 -0.0022269548 0.0019799005 0.0006635528
-0.00075050374 -0.0014029104 -0.0009376609 -0.0003739236 0.0012606957 -0.0023207848 -0.000845062 -0.001412726
-0.00067350717 -0.001808316 0.00071937294 -0.0010492073 0.00016050023 -0.000298899 -0.0013229339 0.0009014709
-0.00040020878 -0.00064479705 0.00027258744 -0.0009159574 0.00043710737 -0.00042628983 -0.00094941445 -0.00086959655
-0.0034826342 -3.7131824e-05 0.0009127625 0.0005549675 -0.0008285708 0.00034731923 -0.00099611 0.00022940386
0.00037410887 0.0006169971 0.00025251458 0.0006384057 -0.00085465744 -4.408474e-05 -0.0015878592 0.0002146507

exp_avg_sq f4 [128]
00000000: e2ba 5638 13f1 cf37 267f 9438 91c8 6738
00000010: 35fd 6838 4684 fa38 c2b6 4937 52b1 b538
00000020: 21eb 9937 02ea 6e37 b0bc 8037 52e1 9e37
00000030: c32e b437 4111 2a38 8127 be37 ca54 ff37
00000040: ee5e b137 42bb ef37 1f93 1d38 925a 2638
00000050: 7fcb a638 ad01 3d39 e9bb eb37 efd8 8d38
00000060: 1529 fd37 2ecf 3c38 88d1 c538 4d44 b738
00000070: 58b2 c637 e7a6 5438 06c7 4838 2f1f e737
00000080: 2f55 df37 b497 ba38 e42b 7638 b910 bf38
00000090: 183c 6538 be51 fb37 8b4c 3138 bc97 8d37
000000a0: 70dd aa38 80f6 4138 5595 9a37 52ec 0a39
000000b0: 3e9b c837 6bbb af37 bd98 9638 acc5 1b38
000000c0: 534a 8637 eae7 2b38 75e0 2d38 c495 cb38
000000d0: eb53 2c38 a5fb 7637 6f40 5538 de06 8138
000000e0: f5c1 8338 23c8 3a38 5a58 0838 d01a ac38
000000f0: e4c8 c337 6d9c 9338 8477 c637 f03f fa37
00000100: 4736 3d39 71d0 b937 2d95 9338 82a2 2837
00000110: 2717 b737 8339 4837 e3e9 0d38 0c95 d437
00000120: 7169 8238 4f49 e338 d2b2 f737 6c43 2137
00000130: e2b7 c837 0400 6e38 dcf9 8f37 04f9 2e38
00000140: cbde f537 dd0f 0938 e443 c337 dd2e 9338
00000150: ae3a f437 effe b037 4a94 bd38 6e3f 1837
00000160: ed62 6738 c6bf 3938 7cf9 1a38 e7ac 0c38
00000170: 90f4 1a38 e894 8338 73bb a137 032c 8738
00000180: 44f0 9038 3387 5c38 9861 2337 f555 a237
00000190: 1bab 8038 99eb de38 3d15 4638 7a57 7538
000001a0: 404f ba37 6ad0 1337 ed3e d237 a012 8438
000001b0: 391b db37 827f f936 eb32 b937 b6a7 0538
000001c0: 3c7b b338 df81 9037 5353 7938 d30e d937
000001d0: f15a b737 2c2a c637 0d4d 6038 233d 1d38
000001e0: d30a 8037 60e9 5438 b325 8438 b732 c937
000001f0: 16e8 2638 3f58 3f38 7397 aa37 4afb 3e38
5.1195624e-05 2.4788582e-05 7.080873e-05 5.5261484e-05 5.5548928e-05 0.00011945567 1.2023085e-05 8.663781e-05
1.8348512e-05 1.424039e-05 1.5346654e-05 1.893999e-05 2.1479447e-05 4.0547227e-05 2.266816e-05 3.0437852e-05
2.114425e-05 2.8578219e-05 3.7568734e-05 3.9661834e-05 7.953401e-05 0.00018025069 2.8101686e-05 6.763811e-05
3.017908e-05 4.5015644e-05 9.43272e-05 8.738842e-05 2.3686487e-05 5.070018e-05 4.786907e-05 2.7551867e-05
2.6623338e-05 8.897428e-05 5.8691847e-05 9.1107046e-05 5.465382e-05 2.9959596e-05 4.2271375e-05 1.6879167e-05
8.147478e-05 4.6244357e-05 1.8427769e-05 0.00013248742 2.3914148e-05 2.0948899e-05 7.181007e-05 3.7138976e-05
1.6008655e-05 4.0985564e-05 4.1455456e-05 9.70769e-05 4.108615e-05 1.4721333e-05 5.0843166e-05 6.1524785e-05
6.282694e-05 4.4532248e-05 3.250721e-05 8.206593e-05 2.3339358e-05 7.038643e-05 2.3659093e-05 2.9832096e-05
0.00018044664 2.2150782e-05 7.0372924e-05 1.0051417e-05 2.1826081e-05 1.1934319e-05 3.3834844e-05 2.5341775e-05
6.218523e-05 0.00010837858 2.9527964e-05 9.612046e-06 2.3927485e-05 5.6743636e-05 1.7163278e-05 4.1716747e-05
2.9310022e-05 3.267812e-05 2.3277425e-05 7.018235e-05 2.9114392e-05 2.1099548e-05 9.039843e-05 9.074674e-06
5.5166824e-05 4.428604e-05 3.694881e-05 3.353963e-05 3.6944228e-05 6.274303e-05 1.9279983e-05 6.4454995e-05
6.911208e-05 5.2578e-05 9.73828e-06 1.9351932e-05 6.1353865e-05 0.000106296684 4.722666e-05 5.849402e-05
2.2209832e-05 8.810408e-06 2.5063253e-05 6.29772e-05 2.6119511e-05 7.435622e-06 2.207743e-05 3.1865864e-05
8.558339e-05 1.7226614e-05 5.9443828e-05 2.5875319e-05 2.1857648e-05 2.3623077e-05 5.347752e-05 3.7488655e-05
1.526383e-05 5.0762086e-05 6.3012725e-05 2.3984683e-05 3.979363e-05 4.5620134e-05 2.0336103e-05 4.553356e-05
