ML-Agents/Examples/results/movetogoal/MoveToGoal/MoveToGoal-6999974.pt (torch, 518538 bytes, 44 tensors)

network_body._body_endoder.seq_layers.0.weight f4 [128, 6]
0	0x3f236a9e	0.6383456
1	0xbeec8492	-0.46194893
2	0x3e79e666	0.24404296
3	0xbe86659a	-0.2624939
4	0xbf42a4ec	-0.760329
5	0x3e1d4439	0.15358056
6	0xbe5a9023	-0.21344046
7	0x3cf80514	0.030275859
8	0x3eaae6d6	0.3337924
9	0x3f1dcaf1	0.6163779
10	0x3f1160a6	0.567881
11	0xbf15870d	-0.58409196
12	0x3f334f9b	0.70043343
13	0x3e46af7f	0.19402884
14	0xbf6453ae	-0.89190185
15	0xbef8665f	-0.48515603
16	0x3dfe42e1	0.124151
17	0x3f04b2b0	0.51835155
18	0xbf660a7a	-0.89859736
19	0xbe883e47	-0.26610014
20	0xbf015e27	-0.5053429
21	0x3cc3f77e	0.023921724
22	0x3f17a72f	0.59239477
23	0x3f0301e7	0.5117478
24	0x3ee5de04	0.44895947
25	0xbddbc6e4	-0.10731295
26	0x3f3abced	0.7294453
27	0x3e621078	0.22076595
28	0x3ed202fc	0.41017902
29	0xbf089ba5	-0.53362495
30	0x3f495873	0.7865059
31	0xbe39c8c5	-0.18142994
32	0x3da0a75b	0.078444205
33	0xbf4b6e6d	-0.7946537
34	0xbf1dbfb2	-0.6162063
35	0x3da00227	0.078129105
36	0x3e4793fd	0.19490047
37	0x3eac70f6	0.33679932
38	0xbe077820	-0.13229418
39	0x3e60e653	0.21962862
40	0xbeeae155	-0.4587504
41	0xbecb1072	-0.39660984
42	0xbf061e08	-0.52389574
43	0xbdd3758c	-0.10325155
44	0x3dab55f2	0.08366002
45	0xbf94c65a	-1.1623032
46	0xbf31ad22	-0.69404805
47	0xbe38d6b7	-0.18050657
48	0xbb085dc1	-0.0020807835
49	0xbe22f6ce	-0.15914461
50	0xbebafdef	-0.3652186
51	0x3e760e68	0.24028933
52	0x3f36f965	0.71474296
53	0xbea37b84	-0.31930172
54	0xbe7aacc2	-0.24479964
55	0x3c51136e	0.01276098
56	0xbde595be	-0.11210202
57	0x3ea7ca32	0.3277145
58	0xbf591865	-0.8480285
59	0xbe0351be	-0.12824151
60	0x3ef0b887	0.47015783
61	0x3f0448a7	0.5167336
62	0xbe7b0623	-0.2451406
63	0x3ee67e97	0.45018455
64	0xbf553d98	-0.8329711
65	0xbdb6d178	-0.08926672
66	0xbe9dd954	-0.3082987
67	0x3d3b6da8	0.045758873
68	0x3eb3bb71	0.35103944
69	0x3e96040c	0.29299963
70	0xbee26605	-0.4421846
71	0xbecbcaed	-0.39803258
72	0x3eecd5c0	0.46256828
73	0x3eb193fe	0.34683222
74	0xbe00a3f7	-0.12562548
75	0x3d9f7d96	0.077876255
76	0x3eebe1bf	0.46070668
77	0x3e053994	0.13010246
78	0xbf27d78b	-0.6556327
79	0x3e06ce08	0.13164532
80	0xbf39ad61	-0.7253018
81	0xbf105f61	-0.56395537
82	0xbe0b0214	-0.13575011
83	0x3e9a2ec4	0.30113804
84	0xbe78a8ce	-0.24283144
85	0xbe20c004	-0.15698248
86	0x3f19eb28	0.60124445
87	0xbf234fe8	-0.637938
88	0x3f1d082e	0.61340606
89	0x3e6890c8	0.2271148
90	0x3e8029e2	0.25031954
91	0xbe29d8c5	-0.16586597
92	0x3f6d2819	0.9263931
93	0x3edb18cf	0.42792365
94	0xbf4051ab	-0.75124615
95	0xbdd5643a	-0.10419507
96	0x3f15b21a	0.58474886
97	0x3ee83f92	0.45361
98	0xbe9aa4e2	-0.3020392
99	0x3f01d476	0.50714815
100	0x3eaa03c9	0.33206013
101	0xbf0b63bb	-0.5444905
102	0x3d9a7814	0.07542434
103	0x3f817ae2	1.0115626
104	0xbe1c31e2	-0.15253404
105	0xbf0c3fb8	-0.5478473
106	0xbebf289b	-0.37335667
107	0xbe9650fa	-0.29358655
108	0xbe68bf05	-0.22729118
109	0xbf2b7729	-0.669787
110	0xbddffa0e	-0.10936366
111	0xbd087f8d	-0.033324767
112	0x3f024e3e	0.5090064
113	0x3e367844	0.17819315
114	0x3f3123bf	0.6919517
115	0x3ebbd85b	0.36688504
116	0x3e4a5324	0.19758278
117	0x3e12b733	0.14327697
118	0x3df78e48	0.12087685
119	0x3f48e930	0.78480816
120	0x3ea3e5c8	0.32011247
121	0xbd7fdfbe	-0.062469237
122	0xbf30706f	-0.6892156
123	0xbf1d0b67	-0.61345524
124	0x3e48ca62	0.19608453
125	0x3e825319	0.25454023
126	0xbf507874	-0.81433797
127	0x3c9cdeda	0.019149233
128	0xbf510369	-0.8164583
129	0x3f871ebd	1.0556256
130	0xbef8d770	-0.48601866
131	0x3f3b2973	0.7311012
132	0x3f1a2fa5	0.6022895
133	0x3da8acee	0.08236109
134	0x3e353681	0.17696573
135	0x3f04ebdd	0.519224
136	0x3f51b0ab	0.819102
137	0x3f62df05	0.8862155
138	0x3f238c1e	0.63885677
139	0x3d9138d3	0.070909165
140	0xbeb39198	-0.35072017
141	0xbefe0c01	-0.49618533
142	0x3e8993b0	0.2687049
143	0x3ef0f24b	0.47059855
144	0xbe79386d	-0.24337931
145	0xbdd05ceb	-0.10173973
146	0x3eda03d3	0.42581043
147	0x3f23e496	0.6402067
148	0x3cf08de9	0.029364543
149	0xbf7f93b0	-0.9983473
150	0xbe948a15	-0.29011598
151	0xbee5f8ef	-0.44916484
152	0xbed67b04	-0.41890728
153	0xbe8a4b68	-0.27010655
154	0x3ebe3465	0.3714935
155	0x3e43e492	0.19130161
156	0xbf8196bf	-1.0124129
157	0xbed31ecc	-0.41234434
158	0x3bce7775	0.0063008615
159	0x3f1bf65d	0.60922796
160	0xbfa61fcc	-1.2978454
161	0x3e87a9e9	0.2649682
162	0xbf45eaa8	-0.7731118
163	0xbf219f79	-0.6313396
164	0x3f05b732	0.5223266
165	0x3f03225d	0.5122431
166	0xbc020eb9	-0.0079380805
167	0xbeeac63d	-0.4585437
168	0xbe433fc5	-0.19067295
169	0x3f52b491	0.8230677
170	0xbf2b12a8	-0.6682534
171	0x3f16662f	0.5874967
172	0xbef66080	-0.481205
173	0xbe5f1de6	-0.21788749
174	0x3f2e5e27	0.68112415
175	0x3f8da66d	1.1066414
176	0xbe8e39bb	-0.2777842
177	0xbf77be21	-0.9677449
178	0xbe2d709c	-0.16937488
179	0x3e09ba9b	0.1345009
180	0x3f177a2c	0.59170794
181	0xbe90087b	-0.2813147
182	0xbec5450d	-0.38529244
183	0x3f524bcd	0.8214691
184	0xbce0b8eb	-0.027431926
185	0xbef8238e	-0.48464626
186	0xbdaa66b7	-0.083203726
187	0x3e490954	0.19632465
188	0x3eddefe9	0.433471
189	0x3f473adf	0.77824205
190	0x3dfea3d8	0.124335945
191	0xbddd08bd	-0.10792682
192	0x3e856637	0.26054546
193	0x3ee141cf	0.4399552
194	0xbf81c021	-1.0136758
195	0x3de5ff25	0.112303056
196	0xbe506ab7	-0.20353208
197	0xbe95fa4b	-0.2929252
198	0x3de94f0f	0.11392032
199	0x3e860e56	0.26182812
200	0x3f639349	0.88896614
201	0x3d57f729	0.052725945
202	0xbe92cb6a	-0.28670818
203	0xbf688907	-0.9083409
204	0x3ebebae7	0.3725197
205	0xbd8d8f47	-0.069120936
206	0xbf85bee1	-1.0448877
207	0x3e98ffc1	0.29882625
208	0xbe047acc	-0.12937468
209	0x3eb10b1f	0.34578797
210	0xbe44423f	-0.19165896
211	0xbcb00a02	-0.021489147
212	0xbf0bdae3	-0.5463087
213	0xbdb35379	-0.087561555
214	0xbe52327e	-0.20527074
215	0x3f3d6523	0.7398245
216	0xbf86778b	-1.0505232
217	0xbe9c7a3f	-0.30562016
218	0xbe7b97c8	-0.24569619
219	0x3f2b2767	0.66857
220	0x3e0532cd	0.1300766
221	0x3c8b08c5	0.016971955
222	0xbed1a671	-0.40947297
223	0xbe3c1990	-0.18369126
224	0x3ea8ce17	0.32969734
225	0x3e4c45f7	0.19948564
226	0xbd462710	-0.048377097
227	0xbe312bc5	-0.17301853
228	0x3ea79eeb	0.32738432
229	0xbeabeb62	-0.3357802
230	0xbebb3806	-0.3656618
231	0xbf1c75d3	-0.61117285
232	0x3f07a31d	0.52983266
233	0xbe97d3c0	-0.2965374
234	0xbd6c1460	-0.05763662
235	0x3bc764b3	0.0060850023
236	0x3eb89052	0.36047608
237	0xbebab078	-0.3646276
238	0xbe90cc72	-0.2828098
239	0x3f6f92f2	0.93583596
240	0xbe46949d	-0.19392629
241	0xbe8aa83a	-0.27081472
242	0x3dd96d13	0.106165074
243	0x3c911dec	0.017714463
244	0xbfa1d451	-1.2642919
245	0xbddd2666	-0.107983395
246	0xbe3a41a2	-0.181891
247	0x3fa296ad	1.2702233
248	0x3e72a671	0.23696305
249	0xbe864c5a	-0.26230127
250	0xbdac059e	-0.08399509
251	0xbf434266	-0.7627319
252	0x3f3e9998	0.74453115
253	0xbc28f6c2	-0.010312738
254	0x3de48015	0.11157242
255	0x3e95e8c0	0.29279137

network_body._body_endoder.seq_layers.0.bias f4 [128]
0	0xbd29c5b7	-0.04144832
1	0xbe6b4c51	-0.22978331
2	0xbe20791b	-0.15671198
3	0xbded63d8	-0.11591309
4	0x3d3aedf9	0.045637105
5	0xbd00a708	-0.031409293
6	0xbe6fce71	-0.23418595
7	0xbe14796d	-0.14499445
8	0xbe18b740	-0.14913654
9	0xbc4754a0	-0.012166172
10	0xbd849432	-0.064735785
11	0xbe6b161f	-0.22957657
12	0xbdd9a8dd	-0.10627911
13	0xbe229952	-0.158788
14	0xbdaf69d3	-0.08565106
15	0xbe1482c1	-0.14503004
16	0xbdf4cfe1	-0.11953712
17	0xbacac035	-0.0015468659
18	0xbdf658e9	-0.12028677
19	0x3a94b459	0.0011345252
20	0xbcf46571	-0.029833527
21	0xbd0db8ef	-0.034600195
22	0xbe2710e4	-0.16315037
23	0xbd43b16b	-0.04777662
24	0xbe12482c	-0.14285344
25	0x3d9580de	0.0729997
26	0xbdc02b4d	-0.09383259
27	0x3d7afcfe	0.06127643
28	0xbddbee9a	-0.10738869
29	0xbd3e83f4	-0.04651256
30	0xbdc4236d	-0.095770694
31	0xbe186004	-0.14880377
32	0xbe6eed89	-0.233328
33	0xbb293607	-0.0025819556
34	0x3c992df0	0.018698663
35	0xbd17d98b	-0.0370727
36	0xbde73141	-0.11288691
37	0xbc53a0c8	-0.012916751
38	0xbd08572e	-0.033286266
39	0xbe7abae0	-0.2448535
40	0xbd581c7d	-0.052761544
41	0xbdfe3559	-0.12412519
42	0xbc23211b	-0.009956623
43	0x3e0f6b83	0.14005856
44	0xbddbdefd	-0.10735891
45	0xbe8938fb	-0.26801285
46	0xbe2034ec	-0.15645188
47	0xbdf90322	-0.12158801
48	0xbda00a2e	-0.078144416
49	0xbe4ddfc9	-0.20104899
50	0xbdc65df5	-0.0968589
51	0xbc6da381	-0.014504314
52	0xbd8eeaec	-0.069784015
53	0xbe38278a	-0.17983833
54	0xbe045335	-0.12922366
55	0xbd09ba43	-0.0336249
56	0xbe295d4c	-0.16539496
57	0xbe31be63	-0.17357783
58	0xbdc4e806	-0.096145675
59	0xbde0ab26	-0.10970144
60	0xbd0abe37	-0.03387281
61	0xbe3827b4	-0.17983896
62	0xbc67c04c	-0.014144968
63	0xbd866e97	-0.06564062
64	0xbe2d60a7	-0.16931401
65	0xbe300ce0	-0.17192411
66	0xbe0aab2d	-0.13541861
67	0xbdd4f128	-0.103975594
68	0xbe1f9158	-0.15582788
69	0xbe7886a6	-0.24270114
70	0xbe85fc52	-0.26169068
71	0xbe1087b6	-0.1411427
72	0xbd9647f0	-0.0733794
73	0x3cccbd69	0.024992662
74	0xbdb3aba4	-0.08772972
75	0xbe193a7f	-0.1496372
76	0xbdbcfce7	-0.09227925
77	0xbdf71cb4	-0.120660216
78	0xbe019175	-0.12653144
79	0xbd2612a2	-0.040545113
80	0xbe4d2a14	-0.20035583
81	0xbdaf1cca	-0.08550413
82	0xbe02e873	-0.12783985
83	0xbe072d5e	-0.132009
84	0xbe382341	-0.17982198
85	0xbd9d2038	-0.07672161
86	0xbd199522	-0.03749574
87	0xbd66150e	-0.056172423
88	0xbe3a5e2e	-0.18199989
89	0xbdd5e541	-0.10444117
90	0xbddef568	-0.10886651
91	0xbe12aa14	-0.14322692
92	0xbd8f7250	-0.07004225
93	0x3d0b5d10	0.0340243
94	0xbe0e5073	-0.13897876
95	0xbdb2ddf6	-0.08733742
96	0xbe1cb2a0	-0.15302515
97	0xbde8e25a	-0.11371298
98	0xbe52d4a1	-0.20588924
99	0xbe277404	-0.1635285
100	0xbdbb27ab	-0.091384254
101	0xbd753c4e	-0.059871964
102	0xbd8a97f6	-0.067672655
103	0x3c19ebd3	0.009394604
104	0xbc9dfb7e	-0.01928496
105	0xbe8c5e2e	-0.27415603
106	0xbdc537d9	-0.09629793
107	0x3b1ab46d	0.0023606077
108	0x3b727e41	0.0037001523
109	0xbe2d0e33	-0.16899948
110	0xbe23ba31	-0.15988995
111	0xbe06fb52	-0.13181809
112	0xbdb886b2	-0.09010066
113	0xbe372475	-0.17885001
114	0xbd3a6e68	-0.045515448
115	0xbd34833f	-0.04407048
116	0xbde59b39	-0.11211247
117	0xbce2f9ff	-0.027707098
118	0xbdba1a9e	-0.09087108
119	0xbdf80080	-0.1210947
120	0xbe7562dc	-0.23963493
121	0xbe098634	-0.134301
122	0xbda083ea	-0.078376606
123	0xbe162b6c	-0.14665002
124	0xbe39b0e3	-0.18133883
125	0xbcb0cf7a	-0.021583308
126	0xbdaf0bde	-0.08547185
127	0xbd84d30e	-0.06485568

network_body._body_endoder.seq_layers.2.weight f4 [128, 128]
0	0xbd2ce2ef	-0.04220861
1	0xbec1c5b2	-0.37846142
2	0xbd848eb3	-0.0647253
3	0x3d6da55b	0.058019023
4	0xbe0e9df5	-0.13927443
5	0xbe221456	-0.1582807
6	0xbbb3b30d	-0.005483991
7	0xbedf527d	-0.4361762
8	0x3cae7f2b	0.021300873
9	0x3d9c32f4	0.07626906
10	0xbe931af1	-0.28731492
11	0xbdfe2a1d	-0.12410376
12	0xbe41243e	-0.18861482
13	0x3d18c013	0.03729255
14	0xbe305243	-0.1721888
15	0xbdbd6236	-0.09247248
16	0xbd8b0f3e	-0.067900166
17	0x3c3a5eff	0.011375188
18	0x3cc8e357	0.024522467
19	0xbd787987	-0.060662773
20	0xbe0bf8e5	-0.13669164
21	0xbc2a1495	-0.010380884
22	0x3d0b353f	0.033986326
23	0xbe1d86e9	-0.15383495
24	0xbc385dec	-0.0112528615
25	0xbdb65384	-0.08902648
26	0xbe09ab8c	-0.13444346
27	0xbe7d0ec1	-0.2471266
28	0x3bec18ae	0.0072050905
29	0x3d64c85f	0.05585515
30	0xbe9b0de5	-0.30284038
31	0x3e24d747	0.16097747
32	0xbc67632b	-0.014122765
33	0x3d718d6d	0.058972765
34	0xbc7431de	-0.014904467
35	0x3dac7d01	0.0842228
36	0xbd7fa0c5	-0.06240918
37	0xbe88a18d	-0.26685753
38	0x3d1507bc	0.03638433
39	0x3d7cf6d6	0.06175884
40	0xbe06f7ad	-0.13180418
41	0x3ceaabd1	0.028646382
42	0xbe6fd56c	-0.23421258
43	0xbdadb827	-0.0848239
44	0xbe37acb1	-0.1793697
45	0x3da8d964	0.08244589
46	0x3ce78d2e	0.028265562
47	0xbd742000	-0.05960083
48	0x3d3344d0	0.043766797
49	0x3dd922a9	0.10602314
50	0x3d9eef23	0.077604555
51	0xbe97bad5	-0.2963473
52	0xbc407b96	-0.011748215
53	0x3e153f8b	0.14575021
54	0xbebb7220	-0.36610508
55	0xbcac3193	-0.021019733
56	0xbcfceff9	-0.030876147
57	0xbc0573b2	-0.00814526
58	0xbe3497cb	-0.1763603
59	0x3cd7b3b4	0.026330806
60	0x3bad3084	0.0052853245
61	0x3e186092	0.14880589
62	0xbe178e05	-0.1480027
63	0xbe6f062f	-0.23342203
64	0x3e0f2e4f	0.13982509
65	0xbe8c7909	-0.27436092
66	0xbd4f098d	-0.050546218
67	0xbcc3fe74	-0.023925044
68	0xbe283ff5	-0.16430648
69	0xbd0293a5	-0.031879086
70	0x3e92a947	0.28644773
71	0xbd63a096	-0.05557307
72	0xbd9cbdac	-0.076533645
73	0x3d177c40	0.03698373
74	0xbd84f9b5	-0.0649294
75	0x3e14037e	0.14454457
76	0xbadcd169	-0.0016847077
77	0x3dd695a5	0.10477761
78	0x3e12fda6	0.14354572
79	0x3d69a1f8	0.05703923
80	0xbdc67fa0	-0.09692311
81	0x3da4a770	0.08039749
82	0xbd473865	-0.048637766
83	0xbcf58003	-0.029968267
84	0xbe3cd96c	-0.18442315
85	0xbe272cd3	-0.16325693
86	0xbda8bee3	-0.08239534
87	0xbda425eb	-0.08015045
88	0x3cdbe2a1	0.026841464
89	0x3d05f504	0.03270437
90	0x3d5ef975	0.05443712
91	0xbd001fde	-0.03128039
92	0xbe0d6a5b	-0.13810103
93	0xbe8523a3	-0.2600375
94	0xbe081752	-0.13290146
95	0x3d210a7b	0.039316636
96	0x3d686a90	0.05674225
97	0x3d2d03ce	0.042239957
98	0xbd0d6d46	-0.03452804
99	0xbdcb3e51	-0.09923995
100	0x3db6696d	0.08906827
101	0xbe0876fb	-0.13326637
102	0xbcee11c1	-0.0290612
103	0xbdcaf570	-0.09910095
104	0x3e41cbe2	0.18925431
105	0x3d34cdbf	0.044141527
106	0xbebc7fd9	-0.3681629
107	0xbd1d28ee	-0.03836911
108	0xbe5ebbe2	-0.21751359
109	0xbdabc18a	-0.08386524
110	0xbd5830b6	-0.05278083
111	0x3d6850c0	0.056717634
112	0xbc9858f5	-0.018597106
113	0xbd56b5e5	-0.052419562
114	0xbe7efc0f	-0.2490084
115	0xbce8e19f	-0.028427897
116	0xbe370f86	-0.17877015
117	0x3c82c5ce	0.015963461
118	0x3dfff8e5	0.12498645
119	0x3c00381f	0.00782588
120	0x3da66995	0.08125607
121	0x3ca4b6a6	0.020106625
122	0x3d9ea5b8	0.07746452
123	0xbdd1a50d	-0.10236559
124	0x3d025eab	0.031828564
125	0xbd302286	-0.043001674
126	0xbdb37572	-0.08762635
127	0xbd1d5997	-0.038415518
128	0xbd296ede	-0.041365497
129	0x3db0a091	0.086243756
130	0xbe00ea4e	-0.1258938
131	0xbd3a4cb1	-0.045483295
132	0xbb90a9c7	-0.0044147703
133	0xbe341fc5	-0.17590244
134	0xbc747ec7	-0.014922804
135	0xbddb765a	-0.10715933
136	0x3c758404	0.014985088
137	0xbe3c3e77	-0.18383203
138	0xbac0542a	-0.001467352
139	0x3d56a81a	0.052406408
140	0xbe0ebde8	-0.13939631
141	0xbd46f62f	-0.048574623
142	0xbe26f093	-0.1630271
143	0x3dd6ca39	0.1048779
144	0xbd3e85ae	-0.046514206
145	0xbd6d33c5	-0.0579107
146	0xbdb54149	-0.08850343
147	0x3df032f2	0.11728467
148	0xbe641ebf	-0.22277354
149	0xbf7315d2	-0.9495517
150	0xbd43da02	-0.04781533
151	0xbe01afda	-0.12664738
152	0x3b5ba379	0.0033514185
153	0x3c489fe3	0.012245151
154	0xbef6358a	-0.48087722
155	0x3b1a95a5	0.002358773
156	0xbeaaaf57	-0.333369
157	0xbe2e40fa	-0.17016974
158	0xbc46f6f2	-0.012143837
159	0x3cdc3960	0.026882827
160	0xbe00c7b8	-0.12576187
161	0xbe8baeff	-0.2728195
162	0xbd960e2d	-0.073269226
163	0xbe8263ed	-0.25466862
164	0xbea3f90b	-0.32025942
165	0x3d73ed9d	0.059552778
166	0x3da749be	0.08168362
167	0xbdc4c2a8	-0.0960744
168	0x3cfdce00	0.030982018
169	0xbe9d1d34	-0.30686343
170	0xbd36c95a	-0.044625618
171	0xbdbde8dc	-0.0927293
172	0xbe94bfcb	-0.29052576
173	0x3d400a61	0.046884898
174	0xbd0d625e	-0.03451764
175	0xbe25a1e2	-0.16175035
176	0xbe7ac858	-0.24490488
177	0x3d3dc666	0.046331786
178	0x3e2a358f	0.16621993
179	0xbe67fd75	-0.2265528
180	0xbcf7584d	-0.030193472
181	0xbd819d48	-0.06328827
182	0xbe6f8ffa	-0.23394766
183	0xbdf2f2ea	-0.118627384
184	0xbdea52fd	-0.1144161
185	0x3e0bdfa1	0.13659526
186	0xbd39c33f	-0.045352217
187	0xbe2b5e15	-0.16735108
188	0x3de65fee	0.11248766
189	0xbea238c9	-0.3168395
190	0xbe069001	-0.1314087
191	0xbd6022ed	-0.054720808
192	0xbf1b38d5	-0.60633594
193	0xbe45dee7	-0.19323312
194	0x3c92ccdb	0.017919948
195	0x3d5dd869	0.054161463
196	0xbdbc0f29	-0.09182579
197	0xbcf211b4	-0.029549457
198	0xbe7d67c8	-0.2474662
199	0xbde38526	-0.111093804
200	0xbdbd40fb	-0.0924091
201	0xbe6e231c	-0.2325558
202	0x3dba1d5f	0.09087633
203	0xbc77fe75	-0.015136351
204	0x3dfa4879	0.12220854
205	0xbebb57da	-0.36590463
206	0xbe31a805	-0.1734925
207	0xbde52f80	-0.111907005
208	0xbd1ad867	-0.037804034
209	0xbc8db2b9	-0.017297136
210	0xbd2e13a6	-0.042499207
211	0xbd16bc9c	-0.036800966
212	0xbda35175	-0.07974521
213	0xbe003c97	-0.12523113
214	0xbc510dcc	-0.012759637
215	0xbc625274	-0.013813604
216	0xbe849241	-0.25892833
217	0xbdaa47fe	-0.08314513
218	0xbe1a41f7	-0.15064226
219	0xbe15037a	-0.14552107
220	0x3bd68c1e	0.006547465
221	0xbe5a7356	-0.2133306
222	0xbd81585e	-0.06315683
223	0xbe0d5027	-0.13800107
224	0xbda43d25	-0.08019475
225	0x3b2b3182	0.0026122038
226	0x3d429851	0.04750854
227	0xbdf28174	-0.118410975
228	0xbdfdd0e8	-0.12393361
229	0xbe34703f	-0.17620943
230	0xbe444506	-0.19166955
231	0xbdbc4542	-0.091928974
232	0xbda98d2a	-0.08278878
233	0xbdcccd5a	-0.10000105
234	0xbd7fc3f2	-0.062442727
235	0xbdb75c5d	-0.08953164
236	0xbd6a007c	-0.05712937
237	0xbcf34dbc	-0.029700153
238	0x3cfe1ce0	0.031019628
239	0xbe26a2df	-0.16273068
240	0xbf326f07	-0.69700664
241	0xbcc9194d	-0.024548197
242	0xbd99b3fa	-0.07505031
243	0x3dc66576	0.09687321
244	0xbe585736	-0.21127018
245	0x3bbe6565	0.005810427
246	0xbe0b1352	-0.13581589
247	0x3d3593c0	0.04433036
248	0xbd084119	-0.033265207
249	0xbb8e3989	-0.004340355
250	0xbe84b80a	-0.2592166
251	0xbe6fe98f	-0.2342894
252	0xbdef56f3	-0.11686506
253	0xbe103a2d	-0.14084692
254	0x3ba7f75f	0.0051259245
255	0xbe7ff6a0	-0.24996424

network_body._body_endoder.seq_layers.2.bias f4 [128]
0	0xbd2b9a26	-0.041895054
1	0x3d8a1892	0.06742968
2	0xbd99be47	-0.07506996
3	0x3d78dbd2	0.060756512
4	0x3d1b3047	0.037887838
5	0x3e17eaed	0.14835711
6	0xbcae4d9f	-0.021277247
7	0xbd3624af	-0.044468578
8	0x3d90f6a6	0.070782945
9	0xbd243240	-0.040086985
10	0xbda0edf1	-0.07857884
11	0xbda9608e	-0.082703695
12	0x3ce204f9	0.027590262
13	0xbd363b6a	-0.044490255
14	0xbe2627e2	-0.16226152
15	0xbdc3870a	-0.09547241
16	0x3d960fb1	0.07327212
17	0x3d533bd2	0.05157072
18	0x3d8e1894	0.06938282
19	0xbc5b7af9	-0.013396018
20	0xbda121b6	-0.07867758
21	0xbd240813	-0.040046763
22	0x3c4258dc	0.011862006
23	0xbbf11f63	-0.007358478
24	0x3c12467f	0.00892794
25	0x3d070583	0.03296424
26	0xbd8e33ab	-0.06943449
27	0xbca1c909	-0.019749181
28	0x3cabb117	0.020958466
29	0xbd807574	-0.062724024
30	0x3b00200a	0.0019550347
31	0xbc02caaa	-0.007982889
32	0x3c4628e5	0.012094711
33	0xbdecfb0e	-0.115713224
34	0xbdaf2933	-0.0855278
35	0xbd2c5244	-0.042070642
36	0x3d2f2a4c	0.042764947
37	0xbd7def5f	-0.06199586
38	0xbe000f3b	-0.1250581
39	0xbe0abdb9	-0.13548936
40	0xbd9e1be0	-0.077201605
41	0xbbf3bf71	-0.007438593
42	0xbdd6bd96	-0.104853794
43	0x3cb41a50	0.021985203
44	0x3dea349e	0.11435817
45	0xbccfb781	-0.025356056
46	0xbd457bd4	-0.048213795
47	0xbe1a8658	-0.1509031
48	0x3c54c8cf	0.01298733
49	0xbdbaaafb	-0.09114643
50	0xbd46c134	-0.048524097
51	0x3d773d00	0.06036091
52	0xbd959906	-0.073045775
53	0x3d64fd65	0.05590572
54	0xbc339b82	-0.010962369
55	0x3da8447e	0.08216189
56	0x3dd2881f	0.10279869
57	0x3d428e81	0.047499184
58	0xbce4406d	-0.027862752
59	0xbd140ce6	-0.036145113
60	0x3da8fc23	0.08251216
61	0xbd9fdb81	-0.07805539
62	0xbd9ac28d	-0.07556639
63	0xbd2f7629	-0.042837296
64	0xbd518df4	-0.051160768
65	0x3d11a478	0.03555724
66	0xba3dd220	-0.0007241089
67	0xbd2b4dd4	-0.04182227
68	0x3c7e1921	0.015508921
69	0x3dae3c18	0.08507556
70	0xbe14cbc3	-0.14530854
71	0x3cf586fb	0.02997159
72	0xbda934ad	-0.08262
73	0xbdd30e2d	-0.10305438
74	0xbc0152db	-0.007893289
75	0xbcaa12ed	-0.020760978
76	0xbcf7058a	-0.030154008
77	0xbe1b36b4	-0.15157586
78	0xbdd6ac16	-0.104820415
79	0xbc0f9109	-0.008762606
80	0x3cba4cbf	0.022741674
81	0xbe1d5e20	-0.15367937
82	0xbd50d2b0	-0.050982177
83	0x3dac50d5	0.08413855
84	0x3cca76ce	0.024714854
85	0xbc31334a	-0.010815451
86	0xbd919ef9	-0.071104
87	0xbcefe39a	-0.029283334
88	0xbddab9d9	-0.10679979
89	0xbd854451	-0.06507171
90	0xbd1be5bb	-0.038060885
91	0x3e14f460	0.14546347
92	0xbd862b01	-0.06551171
93	0x3d97c665	0.07410888
94	0x3dd49f13	0.103819035
95	0xbd72b464	-0.059254065
96	0x3daa837a	0.083258584
97	0xbdaa9633	-0.083294295
98	0xbd2b1654	-0.04176934
99	0xbdc4c2ec	-0.09607491
100	0xbc9d5e36	-0.019209962
101	0x3c748553	0.014924365
102	0xbda72368	-0.0816105
103	0xbcf28001	-0.029602053
104	0x3e2b6e2c	0.16741246
105	0xbe15af44	-0.1461764
106	0xbc65568f	-0.013997688
107	0xbdabe717	-0.08393686
108	0xbc677e96	-0.0141293015
109	0x3e295238	0.1653527
110	0xbceabdd6	-0.028654974
111	0xbd9d48e1	-0.07679916
112	0xbce3b1ee	-0.027794804
113	0x3d360a34	0.044443324
114	0xbd1ec265	-0.038759608
115	0x3dc143cb	0.094367586
116	0x3d118534	0.035527423
117	0xbdda0f59	-0.106474586
118	0xbd5eed28	-0.05442539
119	0x3d09da5b	0.033655506
120	0x3ddfb570	0.10923278
121	0xbd2b25eb	-0.04178421
122	0x3b2c91cc	0.002633202
123	0x3d5bd281	0.05366755
124	0x3d862061	0.065491445
125	0xbdb48343	-0.08814099
126	0x3ab7769f	0.0013997144
127	0xbd8a7389	-0.06760318

action_model._continuous_distribution.log_sigma f4 [1, 2]
0	0xbf8a0ff3	-1.0786117
1	0xbf854972	-1.0413039

action_model._continuous_distribution.mu.weight f4 [2, 128]
0	0x3d0af59b	0.033925634
1	0x3e690a38	0.22757804
2	0xba8d7dc3	-0.0010794926
3	0x3dfd739a	0.12375565
4	0xbd5e39c2	-0.0542543
5	0x3d071073	0.03297467
6	0x3ce74eb7	0.028235776
7	0x3d74a8eb	0.059731405
8	0xbdabb6d7	-0.08384483
9	0xbe494a67	-0.19657288
10	0xbe0e7d45	-0.13914974
11	0x3d9c6539	0.07636494
12	0xbcd9affe	-0.026573177
13	0x3d87e909	0.06636245
14	0xbd10e5a3	-0.03537525
15	0xbdfe6d5c	-0.124232024
16	0x3da9c6b8	0.08289856
17	0xbdca6368	-0.098822415
18	0x3cb70e05	0.022345552
19	0x3e5c5b38	0.21519172
20	0x3d916d85	0.07100967
21	0x3b810450	0.0039372817
22	0x3d50cf3e	0.05097889
23	0xbbd5352e	-0.0065065837
24	0xb8b32ab5	-8.54334e-05
25	0xbe4af708	-0.19820797
26	0x3df3ab6a	0.11897929
27	0xbd7b1e7f	-0.06130838
28	0x3e37853e	0.17921922
29	0x3d94a7bb	0.072585545
30	0xb92ac2b9	-0.00016285003
31	0x3e52b002	0.20574954
32	0x3dcb7e78	0.099362314
33	0x3c9b4546	0.01895393
34	0x3e04216e	0.12903377
35	0xb97af95a	-0.00023934749
36	0xbe5eea69	-0.21769108
37	0x3dc61846	0.096725985
38	0x3d55d8c0	0.052208662
39	0x3dc63f25	0.096800126
40	0x3d94ca82	0.07265188
41	0xba1de16a	-0.0006022664
42	0x3d89771a	0.0671217
43	0xbba5407e	-0.0050430885
44	0xbe0a259e	-0.13490912
45	0x3e6d88a9	0.23196663
46	0x3d990ea1	0.07473493
47	0xbc536689	-0.012902864
48	0x3dc69f4b	0.096983515
49	0x3d5f5dbd	0.054532755
50	0x3dbf5ca3	0.09343841
51	0xbe23d9fa	-0.1600112
52	0xbd43bd9d	-0.04778825
53	0x3f0d0c1c	0.550966
54	0xbdbadce6	-0.09124164
55	0x3d9f0fc2	0.077666774
56	0x3dba53fc	0.0909805
57	0xbd26ea81	-0.040750984
58	0xbde4999a	-0.1116211
59	0xbdfe499c	-0.124163836
60	0x3e5c8a63	0.21537165
61	0x3be1840c	0.0068821963
62	0xbc6ecdad	-0.014575404
63	0x3ac201f3	0.0014801606
64	0x39c8ed7a	0.00038323906
65	0xbaad44c6	-0.0013219349
66	0x3c9697e7	0.01838298
67	0xbd9deb87	-0.07710939
68	0x3db52061	0.088440664
69	0xbd5256f3	-0.051352452
70	0xbdc22006	-0.09478764
71	0xbded9ac2	-0.11601783
72	0x3da72cb8	0.08162826
73	0xbe0438af	-0.12912248
74	0xbe8156f5	-0.25261655
75	0xbe2ff1f2	-0.17182139
76	0xbdc97034	-0.09835854
77	0x3c48a422	0.012246164
78	0xbcdb4da5	-0.026770422
79	0x3e42bdad	0.19017668
80	0x3e237bff	0.1596527
81	0x3d75361c	0.059866056
82	0x3bb6092d	0.005555293
83	0x3dafd2cd	0.08585129
84	0xbe1396ca	-0.1441299
85	0xbd7cfd64	-0.06176509
86	0xbe2b2134	-0.16711885
87	0xbeb3bc0a	-0.351044
88	0x3a2edb38	0.00066702394
89	0x3d8da655	0.06916491
90	0x3dbe0c72	0.092797175
91	0x3dc36868	0.09541398
92	0xbd64cbf5	-0.05585857
93	0xbd0b64a4	-0.034031525
94	0x3e606572	0.21913698
95	0xbe882e57	-0.26597854
96	0xbdc8a326	-0.09796743
97	0xbd834fb6	-0.06411688
98	0x38d55f52	0.00010174386
99	0xbafd8c9e	-0.0019344275
100	0xbdf6c8fb	-0.12050053
101	0xbdaf20b7	-0.08551162
102	0x3c6b866a	0.0143753085
103	0x3d888a57	0.06667011
104	0xbca58f5d	-0.020209963
105	0xbdab1a2d	-0.08354602
106	0x398c4909	0.00026757296
107	0xbdfd70fd	-0.123750664
108	0xbe123ccd	-0.14281006
109	0x3eb0e1b9	0.34547213
110	0x3d235224	0.039873257
111	0x3d9278ec	0.0715197
112	0x3c9d1307	0.019174112
113	0xb96c2cae	-0.00022523358
114	0xbd8640a2	-0.065552965
115	0xbdd14689	-0.10218532
116	0x3d0f7bb3	0.03503008
117	0xbe0bb17d	-0.13641925
118	0xbcdcd682	-0.026957754
119	0x3e08600f	0.13317893
120	0xbe2d5a8c	-0.16929072
121	0xbd3462c7	-0.044039514
122	0xbd7a85ef	-0.061162885
123	0x3e459b09	0.19297422
124	0x39d0bc88	0.00039813318
125	0xbd8d4548	-0.0689798
126	0x3d570b37	0.05250093
127	0xbd6cbabf	-0.057795282
128	0xbdcb1175	-0.09915439
129	0x3e401e2e	0.18761513
130	0x3a78857d	0.00094803405
131	0xbd55aad5	-0.05216487
132	0xbdcb90ac	-0.09939703
133	0x3e8d9e61	0.27659896
134	0x3ca08aea	0.01959749
135	0x3ccd19a6	0.025036644
136	0xbdd71569	-0.105021305
137	0x3e1578b9	0.14596833
138	0x3d65d6d8	0.056113094
139	0xbe4abe9c	-0.19799274
140	0xbd98f913	-0.07469382
141	0x3c83b388	0.016076818
142	0xbca74f49	-0.020423548
143	0x3d27cbc3	0.040965807
144	0x3e05dc4f	0.13072322
145	0xbe9b27fa	-0.30303937
146	0x3dbd1c40	0.09233904
147	0x3de789ad	0.113055564
148	0xbd5a9f91	-0.05337483
149	0xbd6b4690	-0.05744034
150	0x3df44ed3	0.11929097
151	0x3dc55828	0.09635955
152	0xb9d28c7f	-0.00040159
153	0x3e3ea116	0.18616137
154	0xbd796356	-0.06088575
155	0x3e0a41e0	0.13501692
156	0xbe536b9d	-0.2064652
157	0xbe19ba24	-0.15012413
158	0xb9195fbd	-0.00014626882
159	0xbd80cdd7	-0.06289261
160	0x3e01dff8	0.12683094
161	0x3d0b8be3	0.034068953
162	0xbd90b7c9	-0.07066304
163	0xb7d5d31f	-2.548989e-05
164	0xbc21b53a	-0.009869868
165	0x3c9ba655	0.019000212
166	0xbd4eac63	-0.05045737
167	0x3dede687	0.11616235
168	0x3c2f73e8	0.010708787
169	0xb966c6bd	-0.00022008545
170	0xbde1e6b3	-0.110303305
171	0xbe20a14d	-0.15686531
172	0x3dfb8fae	0.12283264
173	0x3db3e468	0.087837994
174	0x3e1445bd	0.14479728
175	0x3cf26aed	0.029592002
176	0x3d3b2e16	0.045698248
177	0xbde1069d	-0.109875895
178	0x3b101e08	0.0021990556
179	0x3d8a0457	0.06739109
180	0xbdab2dcb	-0.08358344
181	0xbcabe3a4	-0.020982571
182	0x3cfda8d7	0.030964298
183	0xbe64875b	-0.22317259
184	0x3e3d6b2c	0.18497914
185	0x3e733a09	0.23752607
186	0xbe359f84	-0.17736632
187	0xbda235f5	-0.07920448
188	0xbd81655c	-0.06318161
189	0xbe1f3cc7	-0.15550528
190	0x3e5ef26b	0.21772163
191	0x3dbdfb80	0.092764854
192	0x391c9c37	0.00014935514
193	0x3ab758e4	0.0013988283
194	0x3d97e20e	0.074161634
195	0xbccb27fb	-0.024799338
196	0xbe573a3a	-0.21018305
197	0xbe7ab81e	-0.24484298
198	0xbc8f6c27	-0.017507626
199	0x3c260320	0.010132581
200	0xbd7d2635	-0.061804015
201	0xbb985a36	-0.004649426
202	0xbdf83767	-0.12119942
203	0xbd54fb41	-0.051997427
204	0x3d91d0f1	0.071199305
205	0xbd956d19	-0.07296199
206	0xbc6961c3	-0.0142445
207	0x3e4a6850	0.19766355
208	0x3d6e65d5	0.058202583
209	0xbcb392d5	-0.0219206
210	0x3d2a94c4	0.04164578
211	0xbde4729f	-0.11154675
212	0xbe1da3e7	-0.15394555
213	0x3d4e0b9f	0.05030405
214	0xbe08e4f2	-0.13368586
215	0x3dc5bed9	0.09655542
216	0xb92eb27c	-0.00016660424
217	0x3d75d594	0.060018137
218	0xbdbd22ff	-0.092351906
219	0x3e3fd302	0.18732837
220	0x3d94a834	0.07258645
221	0xbe650084	-0.22363478
222	0xbe9e4036	-0.30908364
223	0x3e1b6960	0.15176916
224	0xbe261a82	-0.1622105
225	0x3d9ede70	0.0775727
226	0x39196927	0.0001463039
227	0xbd8de8c6	-0.06929164
228	0x3e4a8db2	0.19780615
229	0xbd6b5e33	-0.057462882
230	0x3e0769b2	0.13223913
231	0x3c21f728	0.009885587
232	0x3e67a1e9	0.22620358
233	0xbd597094	-0.05308588
234	0x38cc4178	9.7396725e-05
235	0xbe2973b9	-0.16548051
236	0x3d994fd5	0.0748593
237	0x3e01b0d3	0.1266511
238	0xbdc97390	-0.09836495
239	0xbe0ce616	-0.13759646
240	0xbe11538f	-0.14192031
241	0xb721d2c2	-9.645419e-06
242	0x3d5ebd5c	0.054379806
243	0x3e2cd3b3	0.16877632
244	0xbe285d6e	-0.1644189
245	0xbde51135	-0.111849226
246	0xbdf69435	-0.12039987
247	0xbd4e2ff1	-0.05033869
248	0x3daa7d45	0.083246745
249	0xbe0830e6	-0.13299903
250	0x3be16835	0.0068788775
251	0x3e0ff197	0.14057003
252	0x3a64963a	0.0008719895
253	0x3bf82a77	0.0075734216
254	0xbe4681d4	-0.19385463
255	0xbd42d38c	-0.047565028

action_model._continuous_distribution.mu.bias f4 [2]
0	0x3cc1c4f3	0.023653483
1	0x3c99c9db	0.01877301

exp_avg f4 [128, 6]
0	0xbbed7ee5	-0.007247793
1	0xb99572bc	-0.00028504978
2	0x3a6f0907	0.00091184716
3	0xbbe7dae5	-0.007075655
4	0xb69ec905	-4.7321687e-06
5	0x3afab343	0.001912691
6	0xbb018b2b	-0.0019766788
7	0x37dbac4c	2.6187066e-05
8	0x3a8a0998	0.0010531424
9	0xba745272	-0.00093201466
10	0x37354139	1.08036265e-05
11	0x3ad0f02b	0.0015940716
12	0x3b72fd85	0.003707738
13	0xb9031e8d	-0.00012504515
14	0x3a7224ef	0.0009237071
15	0x3b6c7117	0.003607815
16	0x36a63525	4.9533724e-06
17	0xbb56af63	-0.0032758347
18	0x3b8ef133	0.0043622493
19	0x3a850a55	0.0010150174
20	0x3ae6f8a9	0.0017621714
21	0x3b275f9b	0.0025539163
22	0xb6dcf803	-6.5853833e-06
23	0xba41032f	-0.000736284
24	0xbb25a845	-0.0025277298
25	0x38aae9f1	8.149807e-05
26	0x3a289ade	0.00064317684
27	0xbb73b12d	-0.0037184462
28	0x378956ad	1.6372034e-05
29	0xba8a4ac1	-0.0010550843
30	0xbba58675	-0.005051429
31	0xba06d329	-0.00051431597
32	0xbaafa751	-0.0013401305
33	0xbb49f3bd	-0.0030815445
34	0x37bd4892	2.2564349e-05
35	0xba6af723	-0.0008963218
36	0xba51a0c8	-0.00079966756
37	0xb961c064	-0.00021529343
38	0xbaac0908	-0.001312525
39	0xbaa65498	-0.0012690006
40	0xb633ad0b	-2.6773803e-06
41	0xbaf105f7	-0.0018388618
42	0x383f5b8d	4.5623212e-05
43	0xba0e042f	-0.00054174935
44	0xbb177e28	-0.0023115966
45	0xbab16e3d	-0.0013536882
46	0x37b9e8a5	2.2162052e-05
47	0xba38bba6	-0.0007047005
48	0xba8958dd	-0.0010478754
49	0x39d2c951	0.00040204314
50	0x3b3ff063	0.0029287569
51	0x3a142843	0.00056517514
52	0xb6a98315	-5.0518524e-06
53	0x3ac2b472	0.0014854802
54	0x3a0655f3	0.0005124502
55	0xb8cc014b	-9.727719e-05
56	0xbac360e8	-0.00149062
57	0xb983c566	-0.0002513334
58	0x3713b56d	8.804124e-06
59	0xba87837c	-0.0010338868
60	0x3a58f0b0	0.00082756113
61	0x3924e411	0.0001572522
62	0x3a59fe29	0.0008315766
63	0x3adb0fd2	0.0016713089
64	0xb5829459	-9.72893e-07
65	0xba1fb517	-0.0006092353
66	0xba9a067c	-0.00117512
67	0xb9ef50ab	-0.00045645735
68	0x3ab19626	0.0013548776
69	0x3ab31ac7	0.0013664596
70	0x368095de	3.832144e-06
71	0xbab39ef8	-0.0013703993
72	0x3bab0edb	0.005220277
73	0xba16cf4e	-0.00057529367
74	0x39928b2b	0.00027950978
75	0x3b87d389	0.00414509
76	0x36dd63e2	6.597941e-06
77	0x38d054e6	9.9340265e-05
78	0x3b36ca0a	0.002789142
79	0x3a128c28	0.0005590343
80	0x3b2ef893	0.0026698455
81	0x3b3ed484	0.0029118368
82	0xb81f5aa4	-3.799297e-05
83	0x3babbdfd	0.005241154
84	0x3b4cd77f	0.0031256375
85	0x39e62cf4	0.0004390251
86	0x39e2e385	0.00043275594
87	0x3a927220	0.0011172928
88	0xb712e3ca	-8.755314e-06
89	0xbb8fbbbf	-0.0043863948
90	0x39ef1542	0.0004560147
91	0xb99cf1cd	-0.00029934794
92	0xbadf22a6	-0.0017023876
93	0x3ae21c70	0.0017250907
94	0xb5f7bf35	-1.8458583e-06
95	0xbae45b81	-0.001742229
96	0xba872655	-0.0010311106
97	0xb8caed05	-9.676259e-05
98	0x38bab141	8.902187e-05
99	0x3ac71ec5	0.0015191665
100	0x36e0f19a	6.7038463e-06
101	0x3af750f4	0.001886873
102	0xba401a35	-0.0007328124
103	0xb92f42d5	-0.00016714197
104	0xb9bf923a	-0.00036539306
105	0xba8e539b	-0.0010858657
106	0x36bba091	5.5917267e-06
107	0x3b1e1759	0.0024122803
108	0xbaac83bd	-0.001316182
109	0xb7e28b63	-2.7006206e-05
110	0x39fd9f87	0.00048374778
111	0xba9452b3	-0.001131615
112	0x377c03b3	1.5021232e-05
113	0xba96ec8d	-0.001151459
114	0x3a24dd3c	0.000628907
115	0xb9ae3f4c	-0.00033235026
116	0xbb42634c	-0.0029661236
117	0xba8ec7d5	-0.0010893295
118	0xb78d9bf5	-1.6881133e-05
119	0xbaca4902	-0.0015433135
120	0xb8b3c9f8	-8.573005e-05
121	0xb8dae56d	-0.00010437784
122	0x3b796665	0.0038055417
123	0xb8e81bc0	-0.00011067791
124	0xb6d22590	-6.2628606e-06
125	0x3b7f4a77	0.0038954297
126	0x3c091f19	0.008369231
127	0xbad937c9	-0.0016572411
128	0x3b08807d	0.0020828538
129	0x3bf8ec70	0.007596545
130	0x379b310a	1.8500275e-05
131	0x3c0d3842	0.00861937
132	0x3ba2e0ed	0.004970661
133	0xba465fde	-0.0007567386
134	0x3a8a1b5e	0.001053672
135	0x3aec3a70	0.0018022787
136	0xb673b989	-3.6317817e-06
137	0x3b02effe	0.0019979472
138	0xba74426b	-0.00093177584
139	0xba994579	-0.0011693678
140	0xba9c9b1a	-0.0011948079
141	0xba751a83	-0.0009349959
142	0x370ec949	8.510725e-06
143	0x3b62495a	0.0034528584
144	0xb94fafe3	-0.00019806581
145	0x39d0824b	0.00039769927
146	0x3ad0ef4c	0.0015940457
147	0x3a63ac63	0.00086850504
148	0x371875c1	9.087323e-06
149	0x3b41642e	0.0029509175
150	0x3b16b814	0.0022997903
151	0x3a434088	0.00074482756
152	0x3ba193d9	0.004930955
153	0x3b37f9bd	0.002807244
154	0xb730b7a0	-1.0533171e-05
155	0x3b9cf21c	0.004789604
156	0x399ca531	0.00029877716
157	0xb9418ca4	-0.00018458307
158	0x3b226d10	0.0024784245
159	0x3b81df0d	0.0039633573
160	0xb6107ab6	-2.15291e-06
161	0x3b2c0254	0.0026246505
162	0x3a03d4bc	0.00050289533
163	0xba1f3726	-0.00060735864
164	0xb9a3c652	-0.00031237543
165	0x3af7417a	0.0018864118
166	0x35dc6c0d	1.6422724e-06
167	0xbbbda58c	-0.005787557
168	0x3b2d2fc5	0.0026426178
169	0xb91f268e	-0.00015177784
170	0xbada6024	-0.0016660732
171	0x3aa86da7	0.0012850062
172	0xb685b2bf	-3.9845177e-06
173	0x3ab950e2	0.0014138485
174	0x38c9ba16	9.619088e-05
175	0xbab1e630	-0.001357263
176	0xbb732216	-0.0037099174
177	0xbbc8d38c	-0.006128734
178	0x36f11d15	7.1857453e-06
179	0xb91bf281	-0.00014872292
180	0xbb1a83fe	-0.0023577209
181	0xb98633f6	-0.00025597186
182	0xba89fa03	-0.001052678
183	0x3a8af593	0.0010601751
184	0xb64a2656	-3.012266e-06
185	0xba22b3ef	-0.0006206622
186	0x3b2fa9c5	0.0026804071
187	0xb9971040	-0.00028813072
188	0x3a946f15	0.0011324609
189	0x3b0c6317	0.0021421367
190	0x3719b6f0	9.162104e-06
191	0x3b371ad3	0.0027939572
192	0x3b512d34	0.0031917812
193	0x39426129	0.00018537477
194	0xb9b6b33f	-0.00034847294
195	0x3ae67599	0.0017582654
196	0xb768d5e0	-1.3878074e-05
197	0x3b301474	0.002686766
198	0x3b2b0e0c	0.0026100902
199	0xb980edc5	-0.00024591215
200	0x3a16b2ce	0.000574869
201	0xba8c4a32	-0.0010703264
202	0x38033b69	3.1288164e-05
203	0x3aa8cca0	0.0012878366
204	0x3b75beb0	0.0037497692
205	0x39ea71f2	0.00044716854
206	0x3b314943	0.0027051724
207	0x3b24f6ff	0.0025171635
208	0xb7e9c5f2	-2.786794e-05
209	0x3bd8db4d	0.0066179396
210	0x3b5e8e2e	0.0033959257
211	0x39d86995	0.00041277395
212	0xbaff4945	-0.0019476792
213	0x3b2ad5ce	0.002606738
214	0x37a96b60	2.019637e-05
215	0xbb12ce8b	-0.0022400941
216	0x3ad108ea	0.0015948091
217	0x38a1ccb5	7.715208e-05
218	0x3a111d5e	0.0005535687
219	0x3b0d8da6	0.0021599322
220	0xb444af8b	-1.8317785e-07
221	0xba2e0e1d	-0.0006639676
222	0x3afb9e9b	0.0019197048
223	0xb7ca1d1a	-2.4093828e-05
224	0x378f3515	1.7071647e-05
225	0x3b896f84	0.004194202
226	0xb74d3615	-1.2231544e-05
227	0xbba5091b	-0.005036486
228	0xb98f25b3	-0.00027303174
229	0x388a55d0	6.5963366e-05
230	0x3afb960f	0.0019194501
231	0x399f1fd1	0.00030350548
232	0x366087f3	3.3457734e-06
233	0x3a8a3ac2	0.0010546076
234	0x3a4c329f	0.00077895256
235	0xb9a46bf0	-0.00031360937
236	0x3aa9210f	0.0012903529
237	0xba218b18	-0.0006162389
238	0x350cb663	5.241947e-07
239	0x3b2d66b1	0.0026458914
240	0xbaf5384a	-0.0018708792
241	0xba2574c9	-0.0006311653
242	0xb8bcc490	-9.001151e-05
243	0x3a5415ef	0.00080904266
244	0x36053331	1.9848342e-06
245	0xbb2e87ba	-0.0026631192
246	0xb85b23db	-5.2247062e-05
247	0xb9560fde	-0.00020414541
248	0xb9e41e2d	-0.00043510032
249	0xba6f4fc4	-0.00091290125
250	0x36f0d1b6	7.176971e-06
251	0xba689ecf	-0.0008873762
252	0xb9c6377a	-0.00037806836
253	0xb8136ee4	-3.5150806e-05
254	0x3a70c0cb	0.0009184002
255	0xba8f8db3	-0.0010952264

exp_avg_sq f4 [128, 6]
0	0x39ccbdab	0.00039051226
1	0x36f13213	7.188189e-06
2	0x39886c6f	0.0002602073
3	0x39ce2067	0.00039315523
4	0x31a1a2ba	4.7042166e-09
5	0x39953236	0.00028456905
6	0x399382e5	0.0002813555
7	0x3679039c	3.7105992e-06
8	0x39039731	0.00012549457
9	0x398760ac	0.00025821233
10	0x31497ffb	2.9322098e-09
11	0x39024d4e	0.00012426564
12	0x3a3bbf04	0.00071619474
13	0x374fc2bf	1.2383504e-05
14	0x39d5c64c	0.0004077427
15	0x3a370ab2	0.000698249
16	0x320f592d	8.343972e-09
17	0x39ac77a5	0.0003289554
18	0x39c262b5	0.00037076106
19	0x3727592b	9.974737e-06
20	0x39be2331	0.00036265844
21	0x39b7b079	0.00035035962
22	0x31d6b0c6	6.2483165e-09
23	0x3a0ddd1b	0.00054116704
24	0x39c2f305	0.00037183627
25	0x370159e4	7.7099285e-06
26	0x39458b3a	0.0001883925
27	0x39bc6b0f	0.0003593792
28	0x31c21326	5.64832e-09
29	0x395e4687	0.00021197843
30	0x3a186caa	0.0005814532
31	0x37a9705f	2.0198697e-05
32	0x39c40832	0.0003739014
33	0x3a2993d4	0.00064688665
34	0x324fef01	1.2103329e-08
35	0x39d0cd77	0.00039825935
36	0x38ceba4c	9.857546e-05
37	0x35b793b2	1.3677547e-06
38	0x3850741b	4.9699196e-05
39	0x38c9df5b	9.62603e-05
40	0x3099f191	1.1200872e-09
41	0x386c0f3d	5.6280976e-05
42	0x39c3d2d7	0.00037350386
43	0x37592522	1.2942854e-05
44	0x39c0793d	0.00036711423
45	0x39c5a48b	0.00037697362
46	0x32105349	8.40084e-09
47	0x39fa0f90	0.0004769531
48	0x391a132a	0.00014693724
49	0x36261eeb	2.4753924e-06
50	0x38c90b93	9.586583e-05
51	0x390c125e	0.00013358283
52	0x30e25b28	1.6469572e-09
53	0x38e1234b	0.0001073541
54	0x3887d180	6.476324e-05
55	0x35f26d37	1.8062191e-06
56	0x38501cb2	4.961779e-05
57	0x38a10e19	7.679704e-05
58	0x30a82dc4	1.2236616e-09
59	0x388915fb	6.536763e-05
60	0x385a5342	5.205279e-05
61	0x35e845e2	1.7305686e-06
62	0x3841ad88	4.61764e-05
63	0x385104a8	4.983382e-05
64	0x30ac55dd	1.2539051e-09
65	0x38904fbc	6.881307e-05
66	0x38a19328	7.704488e-05
67	0x360b7a34	2.0783746e-06
68	0x38887a48	6.507762e-05
69	0x38aa2005	8.112196e-05
70	0x30de8d1d	1.6192733e-09
71	0x38c561fc	9.411943e-05
72	0x394df862	0.00019642853
73	0x362b483b	2.552303e-06
74	0x38b1fb39	8.4868116e-05
75	0x392b883b	0.0001635858
76	0x30f82a21	1.8056349e-09
77	0x38a75659	7.979264e-05
78	0x392a0eaf	0.00016217933
79	0x3701de21	7.740718e-06
80	0x39580464	0.00020601001
81	0x3938fd64	0.00017642003
82	0x31aa0dd4	4.9492233e-09
83	0x39951ac9	0.0002843945
84	0x38c4984e	9.374377e-05
85	0x3612cfa7	2.1876565e-06
86	0x388a0e06	6.582965e-05
87	0x38ce4709	9.836077e-05
88	0x30daccda	1.591981e-09
89	0x38dc17a2	0.000104948194
90	0x392bafa2	0.00016373259
91	0x3677a330	3.6900856e-06
92	0x392b95e9	0.00016363677
93	0x3949ce18	0.0001924563
94	0x31221207	2.358435e-09
95	0x394ab183	0.0001933035
96	0x38edd5bc	0.00011340852
97	0x362218a6	2.4154228e-06
98	0x38af21a2	8.350915e-05
99	0x38c80249	9.537169e-05
100	0x30e7895a	1.68465e-09
101	0x38c6bd90	9.4766845e-05
102	0x3901ca0c	0.00012377667
103	0x3674077c	3.636319e-06
104	0x38c6decb	9.482874e-05
105	0x390ea7dc	0.00013604708
106	0x31384817	2.6816502e-09
107	0x38fab2f6	0.00011954263
108	0x38f36a35	0.000116069255
109	0x36be4fe7	5.671743e-06
110	0x38c7ad4c	9.5213385e-05
111	0x38e6f4f6	0.00011012882
112	0x3183a917	3.831825e-09
113	0x3911dfce	0.00013911651
114	0x3a55bde3	0.00081536005
115	0x370a11b1	8.22956e-06
116	0x39939459	0.00028148553
117	0x3a441ae6	0.0007480815
118	0x31bd7b1f	5.514621e-09
119	0x398e95ef	0.0002719606
120	0x39d74eb0	0.00041066622
121	0x371a5a3d	9.2001255e-06
122	0x39986809	0.0002906921
123	0x39ef6e79	0.0004566794
124	0x31c9d540	5.8741136e-09
125	0x399e2bd2	0.00030168757
126	0x3a7a3bfa	0.00095456804
127	0x379b300f	1.8499819e-05
128	0x3a1ccb14	0.0005981189
129	0x3a81281e	0.0009853875
130	0x325619f4	1.24623405e-08
131	0x3a3018a5	0.00067175395
132	0x3a064fd1	0.0005123588
133	0x36bf60e9	5.7035254e-06
134	0x396f9a81	0.00022850373
135	0x39dedf5b	0.00042509552
136	0x31877b98	3.943068e-09
137	0x39413780	0.0001842659
138	0x3a047c66	0.0005053937
139	0x371d1b87	9.364338e-06
140	0x3996b4a1	0.00028744809
141	0x39eaef83	0.00044810408
142	0x31c967df	5.8616787e-09
143	0x398d90df	0.00027001553
144	0x3988d6d9	0.00026100015
145	0x36bc006d	5.602886e-06
146	0x39327047	0.0001701723
147	0x3986646a	0.00025633286
148	0x3182db1b	3.8084074e-09
149	0x393fc770	0.00018289476
150	0x39853499	0.00025406925
151	0x37110cf4	8.645689e-06
152	0x39ad8728	0.0003309783
153	0x398fb078	0.00027406565
154	0x31be407e	5.5370597e-09
155	0x39e49e59	0.00043605527
156	0x39ec540b	0.00045076045
157	0x373fcc51	1.1432058e-05
158	0x39a5f398	0.00031652744
159	0x3a005086	0.00048948114
160	0x320233f2	7.578807e-09
161	0x39ee4d7c	0.00045452628
162	0x39f9bcf1	0.00047633753
163	0x3721dcf9	9.647797e-06
164	0x39c24282	0.00037052116
165	0x3a058003	0.00050926226
166	0x31ea3623	6.816451e-09
167	0x39fdfaca	0.00048442773
168	0x3999e2e8	0.00029351492
169	0x368d89b9	4.2181605e-06
170	0x3941826b	0.00018454499
171	0x399078c0	0.00027555786
172	0x31465947	2.886354e-09
173	0x3962958a	0.00021608747
174	0x39b0b012	0.00033700519
175	0x37201a15	9.542816e-06
176	0x399365f0	0.00028113974
177	0x39d8dda7	0.00041363874
178	0x31e2ddb0	6.6026686e-09
179	0x398c924f	0.0002681189
180	0x390c017f	0.00013351998
181	0x36b4fd5b	5.3939125e-06
182	0x39359d17	0.00017320026
183	0x3912ad74	0.00013988261
184	0x319fb2e3	4.647846e-09
185	0x399216de	0.00027864327
186	0x395ad738	0.00020870275
187	0x366ef94a	3.560987e-06
188	0x38dfe31a	0.000106757696
189	0x39353520	0.00017281296
190	0x311d4024	2.2882967e-09
191	0x390a28cd	0.00013175905
192	0x39b07a07	0.00033660253
193	0x369333e4	4.3869823e-06
194	0x3922d0cc	0.00015527307
195	0x39aac513	0.00032571758
196	0x315eac6a	3.2403258e-09
197	0x39501f90	0.00019848184
198	0x39e549c0	0.00043733232
199	0x374d63c2	1.2242179e-05
200	0x39a288ea	0.00031001057
201	0x39e50727	0.00043683613
202	0x322467cd	9.569658e-09
203	0x39cb0f3b	0.00038730525
204	0x398fc6a0	0.00027423073
205	0x36fce999	7.5373796e-06
206	0x39bbf05a	0.00035846495
207	0x39a18441	0.0003080685
208	0x31bea5fe	5.548599e-09
209	0x39f40166	0.0004654035
210	0x397dc4cf	0.00024201277
211	0x373418bf	1.0734598e-05
212	0x397fff0c	0.00024413707
213	0x3985bbd9	0.00025507694
214	0x3200394a	7.463607e-09
215	0x39ba3979	0.00035519505
216	0x39e1a69a	0.00043039472
217	0x36e7cbfc	6.9080834e-06
218	0x398f5fe8	0.0002734654
219	0x39eb9935	0.0004493684
220	0x31b72ea1	5.331302e-09
221	0x39b915e3	0.00035302257
222	0x3911eb78	0.00013915997
223	0x36759b73	3.6598328e-06
224	0x3913fe5b	0.00014113767
225	0x391edc45	0.00015150111
226	0x3123020e	2.372079e-09
227	0x394bcc97	0.00019435804
228	0x399c2d79	0.00029788518
229	0x36b5ddd6	5.4200455e-06
230	0x393cf557	0.00018020473
231	0x399cfe2d	0.00029944014
232	0x317f7fdb	3.7180061e-09
233	0x396196fa	0.00021513915
234	0x3823de39	3.906919e-05
235	0x360e896c	2.123964e-06
236	0x3850ced9	4.9783706e-05
237	0x38120db6	3.4821882e-05
238	0x30d1c3f5	1.5262446e-09
239	0x387a10a7	5.9620153e-05
240	0x3a026bed	0.00049751886
241	0x3722a9f8	9.695526e-06
242	0x3981fb40	0.00024791993
243	0x3a04e3c6	0.0005069341
244	0x31dc1e41	6.406282e-09
245	0x399cd69a	0.0002991453
246	0x39695907	0.00022253777
247	0x368a207d	4.1165026e-06
248	0x38f0d859	0.0001148439
249	0x3966586a	0.00021967446
250	0x31703415	3.4954202e-09
251	0x392db026	0.00016564186
252	0x39033959	0.00012514497
253	0x3629d448	2.5306526e-06
254	0x38b3738a	8.556906e-05
255	0x38fd3549	0.00012073905

exp_avg f4 [128]
0	0x3a2ec646	0.0006667118
1	0x35829d55	9.731544e-07
2	0x3a3fe115	0.00073196116
3	0xbb5199a0	-0.0031982437
4	0xb9e0bb54	-0.0004286418
5	0x3adc2247	0.0016794883
6	0x3a3b73a2	0.00071507145
7	0x3aadb2c0	0.0013252124
8	0xbaa9d28c	-0.0012956425
9	0x3951f7a5	0.00020024048
10	0xb9e0b838	-0.00042861863
11	0x3ac0cfbf	0.0014710351
12	0x3b0016bb	0.0019544798
13	0xbad90a13	-0.0016558788
14	0xbab72640	-0.0013973191
15	0x3a809d43	0.0009812493
16	0x39c1cde2	0.00036965223
17	0x39a86de4	0.00032125332
18	0x39b11667	0.00033776762
19	0x3a4b9553	0.00077660865
20	0x394bbb38	0.00019429333
21	0x3bbad21a	0.0057013156
22	0x3b18068b	0.002319726
23	0x3b707e02	0.00366962
24	0xba9b51ee	-0.0011849978
25	0xbb1efab2	-0.0024258313
26	0x3a30b5b7	0.0006740945
27	0x3aeffdc7	0.0018309884
28	0x397fa5e3	0.00024380493
29	0x3b826a06	0.003979924
30	0x3a3b2560	0.0007139053
31	0x3a469bb4	0.0007576302
32	0xba2bd9a3	-0.0006555563
33	0x39fce8f6	0.00048238755
34	0xba8884c3	-0.0010415543
35	0xba1a2252	-0.0005879748
36	0xb9f14836	-0.00046020903
37	0x3985f4bd	0.0002555008
38	0xb9a5cd0b	-0.0003162402
39	0x3a8be2c6	0.0010672442
40	0x3b0357bc	0.0020041307
41	0x39fa5ed5	0.0004775437
42	0x380a2816	3.2939097e-05
43	0x3ace2cc0	0.0015729889
44	0x3a2ba495	0.0006547657
45	0xb543855e	-7.2837236e-07
46	0x3a830b1f	0.0009997821
47	0xbaa88320	-0.0012856461
48	0xba973787	-0.0011536934
49	0x3ad6e456	0.0016394954
50	0x3ab958cc	0.0014140843
51	0x3a8c7671	0.0010716451
52	0x3a003e82	0.0004892127
53	0x3a0b0b1a	0.00053040835
54	0x3a3ee5a3	0.00072821433
55	0x3acc4134	0.0015583397
56	0x3a326963	0.0006805865
57	0x39fd864a	0.00048355974
58	0x3860b9f0	5.357893e-05
59	0x3b809c60	0.0039248914
60	0xbaf5f956	-0.0018766325
61	0x3ac6c340	0.001516439
62	0xba9eb5f8	-0.0012108674
63	0xb94da683	-0.00019612354
64	0x3b2166d7	0.0024627948
65	0xb9db7cdd	-0.00041863965
66	0x3a6c1245	0.0009005408
67	0xb8dbcd12	-0.00010480931
68	0x380dfc79	3.3852153e-05
69	0x3ac4cdd6	0.0015014957
70	0x3afd857b	0.0019342148
71	0x3a71d9dc	0.0009225884
72	0x3af6c412	0.0018826744
73	0x3aa7f3c8	0.0012813741
74	0x3aeafef0	0.001792876
75	0xb9605e7c	-0.00021397503
76	0xbad6f9c1	-0.0016401337
77	0xb9fdd117	-0.00048411704
78	0x381e90a6	3.780485e-05
79	0x3a900e04	0.0010990505
80	0x39b49b6b	0.0003444807
81	0x3a49f7f1	0.00077044877
82	0x3a878d52	0.0010341799
83	0x3a0d89b0	0.000539924
84	0xb7a8dffb	-2.013146e-05
85	0xbabbde27	-0.0014333174
86	0xb9d5b163	-0.0004075869
87	0x39ab5624	0.0003267984
88	0x3a2da6cc	0.0006624281
89	0xb605a2b8	-1.991326e-06
90	0x3ab60031	0.0013885555
91	0x3a7f8366	0.0009747058
92	0xba38da1a	-0.00070515426
93	0xba1c32d5	-0.00059585023
94	0x3a40e6fc	0.0007358638
95	0xba69a675	-0.00089130487
96	0x3b2e008d	0.0026550621
97	0x398c5505	0.00026766225
98	0x3a8a2890	0.0010540653
99	0xbad91e3f	-0.00165648
100	0x3a83776d	0.0010030098
101	0xbaa07e0d	-0.0012244597
102	0xbb020618	-0.0019840058
103	0x3b16b1ec	0.0022994233
104	0x379ad196	1.8455827e-05
105	0xb9a518cf	-0.00031489736
106	0xba10d048	-0.00055242004
107	0x3a0823f5	0.00051933463
108	0xba03cb89	-0.00050275825
109	0xb95acb06	-0.00020865732
110	0x388a914f	6.6074186e-05
111	0x39cf92ac	0.00039591396
112	0x3b5d25e9	0.003374452
113	0x3a2ed06f	0.0006668632
114	0xb9f3bbb7	-0.0004648843
115	0x3a749357	0.00093298167
116	0x3acf757e	0.0015827862
117	0x37a2041c	1.9313818e-05
118	0x3ad8c1c2	0.0016537237
119	0x3ad1ceab	0.0016007026
120	0x3743422c	1.1638313e-05
121	0xba5c88dd	-0.0008412728
122	0x3b07d5ed	0.0020726875
123	0x39de25ba	0.00042371248
124	0xbaf5d15d	-0.0018754412
125	0x3712e647	8.755894e-06
126	0xba651ce5	-0.00087399624
127	0x3a753d77	0.0009355167

exp_avg_sq f4 [128]
0	0x3892151e	6.965756e-05
1	0x381c52b9	3.727034e-05
2	0x38fbc199	0.00012004673
3	0x38c9c903	9.621868e-05
4	0x389be432	7.433481e-05
5	0x394a7ef1	0.0001931151
6	0x376735ab	1.37811685e-05
7	0x3904887d	0.00012639347
8	0x37c5614b	2.3529536e-05
9	0x37934552	1.7556045e-05
10	0x378ec04f	1.701727e-05
11	0x37aaa6be	2.0343225e-05
12	0x37d05c6f	2.4838575e-05
13	0x389d61aa	7.504535e-05
14	0x37b4d563	2.1557038e-05
15	0x3814e060	3.5494915e-05
16	0x37d0ef9f	2.4907114e-05
17	0x38192785	3.6514848e-05
18	0x386261ea	5.397379e-05
19	0x38aa1fbc	8.112143e-05
20	0x38b67c3c	8.701577e-05
21	0x393a332c	0.00017757405
22	0x3867b058	5.5238925e-05
23	0x38ba164e	8.873326e-05
24	0x3868d2cf	5.550944e-05
25	0x38ada234	8.2794955e-05
26	0x38e56364	0.00010938084
27	0x38c3ff66	9.345896e-05
28	0x3831de7a	4.2407286e-05
29	0x38c5754b	9.4155395e-05
30	0x385a2e76	5.201852e-05
31	0x38131e27	3.5075613e-05
32	0x3835a819	4.3310316e-05
33	0x38f969ac	0.00011892928
34	0x389e1662	7.538196e-05
35	0x38d6836a	0.00010228793
36	0x388d9da0	6.752764e-05
37	0x38150a89	3.553418e-05
38	0x385c9242	5.25883e-05
39	0x37af870a	2.0924508e-05
40	0x38c4a6da	9.377087e-05
41	0x3833c9bd	4.286481e-05
42	0x37cc0e8d	2.432547e-05
43	0x39035ee4	0.00012528483
44	0x3806a7f8	3.2104523e-05
45	0x379f61b3	1.8999772e-05
46	0x3881b800	6.185472e-05
47	0x384dca78	4.9064372e-05
48	0x37b5d887	2.167771e-05
49	0x3834671c	4.3011372e-05
50	0x38523698	5.0118746e-05
51	0x3903a425	0.00012554282
52	0x385ed652	5.3128526e-05
53	0x3798f530	1.8233986e-05
54	0x387e13f3	6.05769e-05
55	0x38b45c1c	8.6002256e-05
56	0x389319e6	7.01433e-05
57	0x38843299	6.303675e-05
58	0x37e4ad94	2.7260547e-05
59	0x39428eb9	0.0001855445
60	0x37f05a1d	2.8652192e-05
61	0x388228b4	6.2064646e-05
62	0x382d0e61	4.1259806e-05
63	0x38446449	4.682344e-05
64	0x392335d8	0.0001556495
65	0x37edac4b	2.8332832e-05
66	0x38b375ad	8.557304e-05
67	0x3732fa29	1.0667872e-05
68	0x37bf6c52	2.2819415e-05
69	0x37a05512	1.91131e-05
70	0x380d3fd4	3.3676464e-05
71	0x37fa1d55	2.9815981e-05
72	0x38fc6928	0.00012035883
73	0x38fffe2c	0.00012206691
74	0x383a52ef	4.4423094e-05
75	0x374b2772	1.2108927e-05
76	0x3824d4cf	3.929884e-05
77	0x38676665	5.5170054e-05
78	0x37b41607	2.146793e-05
79	0x3890caf9	6.904262e-05
80	0x37c546c0	2.3517176e-05
81	0x37fb7fc9	2.9981036e-05
82	0x3814efc4	3.550925e-05
83	0x384cdb03	4.884136e-05
84	0x37ce9b6f	2.4629493e-05
85	0x381b2393	3.698801e-05
86	0x38b8487e	8.7873064e-05
87	0x37385fc7	1.09895545e-05
88	0x3883bbea	6.2815685e-05
89	0x38302e45	4.200476e-05
90	0x3888672b	6.504202e-05
91	0x386943a0	5.561451e-05
92	0x381db584	3.7600767e-05
93	0x38d12ad0	9.973871e-05
94	0x3800ad2c	3.0678857e-05
95	0x38ac2ec5	8.2103106e-05
96	0x387fa5c9	6.0951137e-05
97	0x389235bb	6.9718306e-05
98	0x3760b700	1.3394048e-05
99	0x3808ec1c	3.264482e-05
100	0x38c13c62	9.214204e-05
101	0x38d16d9f	9.986315e-05
102	0x38706da3	5.7322566e-05
103	0x38781a64	5.9152386e-05
104	0x37e4cafd	2.7274242e-05
105	0x374f55db	1.2358151e-05
106	0x37ea3968	2.7921706e-05
107	0x38e935e0	0.00011120341
108	0x383c1613	4.484325e-05
109	0x3709dfc1	8.217933e-06
110	0x38097d63	3.278012e-05
111	0x380fa234	3.424492e-05
112	0x38f4f450	0.000116803334
113	0x37955140	1.780002e-05
114	0x38be4179	9.072101e-05
115	0x38104dd5	3.4404762e-05
116	0x37f49b0e	2.915927e-05
117	0x3806c2e7	3.2129607e-05
118	0x38a23db4	7.736255e-05
119	0x386d5393	5.6583038e-05
120	0x37c35c65	2.3288836e-05
121	0x3882a738	6.23003e-05
122	0x38d72de9	0.0001026055
123	0x379fb20d	1.9037188e-05
124	0x38490b3a	4.793259e-05
125	0x38572794	5.1296855e-05
126	0x37c7c05e	2.3812227e-05
127	0x383504d8	4.3158274e-05
