ML-Agents/Examples/results/movetogoal/MoveToGoal/MoveToGoal-8000023.onnx (onnx, 75098 bytes, 7 tensors)

network_body._body_endoder.seq_layers.0.weight f4 [128, 6]
0.64077175 -0.4513291 0.24798094 -0.26304057 -0.74139756 0.15218866 -0.21677302 0.028893638
0.33921307 0.61469555 0.5702722 -0.5841808 0.693815 0.20125088 -0.8915557 -0.48800573
0.12302422 0.52201146 -0.8988473 -0.26862434 -0.5038794 0.030089322 0.57409245 0.5131898
0.43920133 -0.09751423 0.73439384 0.21036391 0.3918723 -0.53573036 0.7875616 -0.16997437
0.07857909 -0.7948444 -0.60732937 0.077759035 0.20105524 0.33708566 -0.1326453 0.21904853
-0.4519114 -0.40080136 -0.53021944 -0.10794029 0.09026215 -1.1608745 -0.661704 -0.17455839
0.0054351804 -0.16867405 -0.37229067 0.24427697 0.7010618 -0.32195434 -0.24647668 0.03362424
-0.10092593 0.3265488 -0.85915375 -0.11758001 0.4633453 0.5254152 -0.24538812 0.43421483
-0.8239028 -0.090745874 -0.31541246 0.044446614 0.35088152 0.29308227 -0.44426236 -0.3979585
0.46053576 0.35544455 -0.12700945 0.07797781 0.4535712 0.13066766 -0.6503688 0.13782716
-0.7267041 -0.5550582 -0.1359846 0.29987493 -0.24656102 -0.15228382 0.60650843 -0.6427584
0.61481065 0.22806324 0.23936655 -0.16447563 0.92822117 0.419307 -0.7634295 -0.10876821
0.5830369 0.45847163 -0.29900527 0.50147575 0.3488858 -0.54555964 0.07805122 1.0217005
-0.15898499 -0.5401409 -0.34980226 -0.2953801 -0.23210102 -0.671298 -0.10805083 -0.033919208
0.5060713 0.18229131 0.69473636 0.37453324 0.1955198 0.14305045 0.14007895 0.7811546
0.31987718 -0.05099148 -0.6898787 -0.60657036 0.19502327 0.25898802 -0.82591987 0.022809949
-0.8113908 1.0536261 -0.5049798 0.7333436 0.598235 0.09403286 0.17350745 0.51152414
0.82898676 0.8822733 0.63526833 0.08953245 -0.35150367 -0.4957711 0.27126798 0.47336152
-0.24243933 -0.104874164 0.4326727 0.633023 0.053297356 -1.0028224 -0.28809783 -0.45076916
-0.42039555 -0.2722423 0.3686432 0.19294511 -1.0120898 -0.41354257 0.0044029243 0.61511755
-1.3081605 0.2612003 -0.7765821 -0.63247395 0.51990944 0.5111886 -0.021769939 -0.4558132
-0.19157764 0.83237547 -0.6683947 0.5872035 -0.48850986 -0.21411717 0.6884746 1.129426
-0.27225748 -0.95623225 -0.16205375 0.13636461 0.5966791 -0.28743064 -0.3894829 0.83044523
-0.018007262 -0.4823012 -0.09173151 0.19488657 0.43234876 0.7737699 0.11139059 -0.11257376
0.26261705 0.451247 -1.0096982 0.11014434 -0.20135233 -0.2923762 0.114235505 0.26779097
0.89097965 0.053111307 -0.2845342 -0.91456354 0.3726718 -0.058171354 -1.0485164 0.2888859
-0.12554699 0.34887797 -0.19049828 -0.019239537 -0.5496234 -0.08219029 -0.21589155 0.74309593
-1.0495797 -0.30830035 -0.24614656 0.670674 0.11505719 0.021546932 -0.41306296 -0.18208927
0.32692423 0.20325682 -0.06737068 -0.17629196 0.32326478 -0.32954514 -0.36407307 -0.6116493
0.55182207 -0.2942004 -0.049156774 0.015452636 0.35995534 -0.36003706 -0.28324875 0.9314953
-0.19842286 -0.27198896 0.108845 0.017044595 -1.2476513 -0.1089493 -0.18099363 1.2713159
0.23130909 -0.25799105 -0.07071744 -0.76656026 0.7448997 -0.01075431 0.11657291 0.28879812
00000000: 9e09 243f 9c14 e7be b7ee 7d3e 41ad 86be
00000010: 3bcc 3dbf 58d7 1b3e bff9 5dbe 5ab2 ec3c
00000020: 56ad ad3e b05c 1d3f 5cfd 113f df8c 15bf
00000030: dc9d 313f b614 4e3e ff3c 64bf e3db f9be
00000040: 1ff4 fb3d 8ba2 053f db1a 66bf 2189 89be
00000050: 3efe 00bf e27d f63c b9f7 123f 6860 033f
00000060: ffde e03e 8ab5 c7bd 3c01 3c3f a369 573e
00000070: 7ca3 c83e a025 09bf a39d 493f c30d 2ebe
00000080: 13ee a03d ec7a 4bbf f079 1bbf 2140 9f3d
00000090: 6de1 4d3e 7e96 ac3e 2bd4 07be 424e 603e
000000a0: ee60 e7be d635 cdbe 76bc 07bf cc0f ddbd
000000b0: 5ddb b83d 8997 94bf 6f65 29bf 6fbf 32be
000000c0: 9919 b23b e4b8 2cbe e29c bebe be23 7a3e
000000d0: c978 333f 33d7 a4be 6264 7cbe 92b9 093d
000000e0: 41b2 cebd 6831 a73e 80f1 5bbf cacd f0bd
000000f0: 983b ed3e 9c81 063f 0647 7bbe 6851 de3e
00000100: 4beb 52bf f9d8 b9bd be7d a1be a70d 363d
00000110: bea6 b33e e10e 963e 5b76 e3be 37c1 cbbe
00000120: 58cb eb3e d4fc b53e c40e 02be d4b2 9f3d
00000130: 7c3a e83e becd 053e 927e 26bf 9022 0d3e
00000140: 4809 3abf 4b18 0ebf 8c3f 0bbe 3589 993e
00000150: 7e7a 7cbe 4af0 1bbe 2344 1b3f d18b 24bf
00000160: 3b64 1d3f 6989 693e 811c 753e 4d6c 28be
00000170: e79f 6d3f 68af d63e 1e70 43bf dec1 debd
00000180: e841 153f cbbc ea3e 3817 99be b760 003f
00000190: 29a1 b23e cca9 0bbf 51d9 9f3d 15c7 823f
000001a0: f6cc 22be ad46 0abf 4819 b3be 0f3c 97be
000001b0: e4ab 6dbe 30da 2bbf c149 ddbd deee 0abd
000001c0: e48d 013f 93aa 3a3e 3eda 313f d2c2 bf3e
000001d0: 5836 483e d17b 123e db70 0f3e bff9 473f
000001e0: f1c6 a33e 71dc 50bd e49b 30bf 3248 1bbf
000001f0: 2eb4 473e 149a 843e 7c6f 53bf eedb ba3c
00000200: 4fb7 4fbf 38dd 863f 5b46 01bf 68bc 3b3f
00000210: ee25 193f 4d94 c03d f0ab 313e 3ff3 023f
00000220: 7a38 543f aadc 613f f2a0 223f ca5c b73d
00000230: 4af8 b3be b6d5 fdbe a3e3 8a3e 715c f23e
00000240: 0442 78be 44c8 d6bd 4787 dd3e cc0d 223f
00000250: 544e 5a3d 7c5c 80bf 8f81 93be 37cb e6be
00000260: 163e d7be 5863 8bbe cdbe bc3e 6793 453e
00000270: 298c 81bf dabb d3be 6846 903b 5878 1d3f
00000280: ce71 a7bf 0cbc 853e 16ce 46bf d0e9 21bf
00000290: c918 053f 42dd 023f df56 b2bc 5960 e9be
000002a0: ee2c 44be 8f16 553f ea1b 2bbf f852 163f
000002b0: f71d fabe 8841 5bbe df3f 303f 0891 903f
000002c0: 5565 8bbe a3cb 74bf 6bf1 25be 2aa3 0b3e
000002d0: f6bf 183f 1c2a 93be 4d6a c7be 0f98 543f
000002e0: f783 93bc 2ff0 f6be bbdd bbbd 5890 473e
000002f0: d15c dd3e c915 463f c020 e43d 128d e6bd
00000300: be75 863e d909 e73e ca3d 81bf 5b93 e13d
00000310: 4e2f 4ebe 55b2 95be 4ef4 e93d e61b 893e
00000320: 3e17 643f 3e8b 593d 77ae 91be d620 6abf
00000330: d7ce be3e 1645 6ebd c935 86bf dae8 933e
00000340: 648f 00be 22a0 b23e fb11 43be 3c9c 9dbc
00000350: 1fb4 0cbf 6253 a8bd ad12 5dbe 893b 3e3f
00000360: a158 86bf 8bd9 9dbe d80d 7cbe 4bb1 2b3f
00000370: 1ba3 eb3d 3183 b03c fd7c d3be 9c75 3abe
00000380: 9d62 a73e 8e22 503e a4f9 89bd e185 34be
00000390: f682 a53e 24ba a8be c967 babe 0c95 1cbf
000003a0: 3644 0d3f 6fa1 96be 9d58 49bd 0e2d 7d3c
000003b0: 114c b83e c756 b8be fb05 91be 7a76 6e3f
000003c0: 5d2f 4bbe 2342 8bbe 21ea de3d 1ba1 8b3c
000003d0: 0ab3 9fbf d020 dfbd 6556 39be 7bba a23f
000003e0: 4adc 6c3e 6717 84be 4ed4 90bd 4b3d 44bf
000003f0: bfb1 3e3f d832 30bc c7bd ee3d 59dd 933e

network_body._body_endoder.seq_layers.0.bias f4 [128]
-0.049329173 -0.2345555 -0.16295467 -0.111718886 0.03789716 -0.04041394 -0.23388588 -0.1409483
-0.14281534 -0.031327885 -0.07286812 -0.23342729 -0.11555158 -0.15973853 -0.08864495 -0.14421856
-0.124331065 -0.011440568 -0.11878443 -0.00041573995 -0.03908659 -0.038327605 -0.17273355 -0.06436747
-0.1423246 0.07516104 -0.096001536 0.060705934 -0.1142681 -0.06661142 -0.09048598 -0.15142648
-0.24305937 -0.0072074863 0.012462334 -0.040110197 -0.114030614 -0.014988586 -0.03713437 -0.2562335
-0.054312874 -0.12605695 -0.013121262 0.12801412 -0.115229495 -0.27494538 -0.16235274 -0.12736484
-0.07464753 -0.20362979 -0.09374943 -0.009931409 -0.07576736 -0.18549262 -0.12681918 -0.046464533
-0.17269182 -0.17504077 -0.099656634 -0.11847325 -0.024612455 -0.18756284 -0.017286569 -0.06974243
-0.17681672 -0.1740684 -0.13728671 -0.11596683 -0.16253908 -0.24638017 -0.27902314 -0.14636813
-0.07861772 0.015400676 -0.092203744 -0.15133508 -0.08028114 -0.12563711 -0.12379139 -0.04457357
-0.20328078 -0.08515367 -0.13171016 -0.13014852 -0.18646169 -0.07946696 -0.036071762 -0.06438012
-0.19310604 -0.11182332 -0.12127555 -0.15269758 -0.06819591 0.031959318 -0.14830019 -0.08696678
-0.16881654 -0.11968315 -0.22242403 -0.16795403 -0.096862495 -0.06159985 -0.06684943 0.005138136
-0.019558165 -0.2826437 -0.09224126 -0.008690881 0.0031106076 -0.17561047 -0.17017941 -0.14180385
-0.09655381 -0.18079935 -0.045296192 -0.04803384 -0.12432366 -0.041508462 -0.10039271 -0.118778504
-0.24651985 -0.13395862 -0.08178062 -0.14885715 -0.19136135 -0.026171697 -0.084435485 -0.07457619
00000000: 630d 4abd 512f 70be 97dd 26be dfcc e4bd
00000010: 0d3a 1b3d 1689 25bd c87f 6fbe c054 10be
00000020: 2f3e 12be ab51 00bd e23b 95bd 9007 6fbe
00000030: 4fa6 ecbd 7f92 23be 7c8b b5bd 08ae 13be
00000040: 49a1 febd 3871 3bbc 4045 f3bd acf7 d9b9
00000050: 4319 20bd 68fd 1cbd 10e1 30be 18d3 83bd
00000060: 8abd 11be 08ee 993d 749c c4bd c9a6 783d
00000070: 6505 eabd 916b 88bd b750 b9bd 8b0f 1bbe
00000080: 8ee4 78be c72c ecbb d12e 4c3c 974a 24bd
00000090: e288 e9bd b092 75bc 361a 18bd 0a31 83be
000000a0: 2d77 5ebd 1315 01be 90fa 56bc 2216 033e
000000b0: 71fd ebbd a4c5 8cbe cc3f 26be ee6b 02be
000000c0: cee0 98bd 5484 50be b3ff bfbd 59b7 22bc
000000d0: eb2b 9bbd c7f1 3dbe e3dc 01be 9851 3ebd
000000e0: 20d6 30be e33d 33be c718 ccbd 1aa2 f2bd
000000f0: 0fa0 c9bc 7910 40be 909c 8dbc 1ed5 8ebd
00000100: 710f 35be fd3e 32be e394 0cbe 0480 edbd
00000110: a570 26be 154b 7cbe 1fdc 8ebe 87e1 15be
00000120: 5402 a1bd 1e53 7c3c 51d5 bcbd 95f7 1abe
00000130: 706a a4bd 04a7 00be 5786 fdbd c792 36bd
00000140: d628 50be 0c65 aebd 07df 06be a745 05be
00000150: d0ef 3ebe 93bf a2bd fcbf 13bd b9d9 83bd
00000160: 97bd 45be a003 e5bd 515f f8bd c15c 1cbe
00000170: 4caa 8bbd c6e7 023d 01dc 17be a41b b2bd
00000180: 3ede 2cbe 701c f5bd 20c3 63be 24fc 2bbe
00000190: d85f c6bd 2050 7cbd 5be8 88bd cf5d a83b
000001a0: 7238 a0bc adb6 90be fce8 bcbd 3264 0ebc
000001b0: 56db 4b3b 3bd3 33be 8343 2ebe 0735 11be
000001c0: 01be c5bd 7723 39be 8088 39bd 22bf 44bd
000001d0: 679d febd c704 2abd b19a cdbd 2542 f3bd
000001e0: b36f 7cbe 732c 09be 997c a7bd 026e 18be
000001f0: 3bf4 43be 0766 d6bc 83ec acbd 67bb 98bd

network_body._body_endoder.seq_layers.2.weight f4 [128, 128]
-0.04206307 -0.3834243 -0.051508687 0.057538103 -0.14789411 -0.15810376 -0.0025936428 -0.43972424
0.024215844 0.06988444 -0.286648 -0.13216656 -0.18839638 0.0368513 -0.16870092 -0.098293
-0.061903913 0.0077895345 0.025590785 -0.058839988 -0.12735537 -0.014412299 0.03438536 -0.14182904
-0.0134183355 -0.08667782 -0.14009568 -0.25643948 0.0077648186 0.05552896 -0.29859546 0.15224965
-0.0071289223 0.046023168 -0.010312266 0.0872564 -0.06906227 -0.27699953 0.03632561 0.06588225
-0.14108993 0.023192087 -0.23801488 -0.080703385 -0.1920925 0.08616904 0.033410843 -0.059684254
0.04160061 0.099990636 0.07660342 -0.30894414 -0.007416319 0.1502741 -0.37125668 -0.029452393
-0.029702079 -0.002633023 -0.18135212 0.01211469 0.0014741883 0.14745569 -0.14698367 -0.2303128
0.13802384 -0.2689984 -0.045339607 -0.030627776 -0.16338904 -0.030389708 0.27883178 -0.067737184
-0.07472488 0.048498746 -0.064965375 0.1428935 -0.0012421755 0.10336583 0.14379117 0.045274593
-0.10196736 0.07693859 -0.055796094 -0.030552574 -0.1907037 -0.16168305 -0.08772019 -0.085762724
0.024354668 0.031016525 0.059562974 -0.030753957 -0.1423539 -0.26544797 -0.12954517 0.038652375
0.06753011 0.040074226 -0.039877266 -0.10094343 0.08890399 -0.13414392 -0.030890064 -0.10511138
0.1896583 0.04058465 -0.36431518 -0.046138342 -0.21757671 -0.08436701 -0.059314348 0.06268322
-0.025824757 -0.05681449 -0.25521952 -0.025227353 -0.1688273 0.008101252 0.123132095 0.001911812
0.082456544 0.01733459 0.06223127 -0.10171497 0.030552307 -0.041481905 -0.088147394 -0.04748917
-0.038040455 0.06316589 -0.104570955 -0.040388852 -0.014142831 -0.15914251 -0.020201491 -0.0907003
0.013788279 -0.19981235 -0.002341393 0.029342603 -0.13843052 -0.038671453 -0.14562239 0.09184921
-0.04560086 -0.048955213 -0.075787194 0.117166616 -0.2006128 -0.9610888 -0.050168697 -0.104294226
-0.009487586 0.027204117 -0.49275404 -0.01645943 -0.340071 -0.142083 -0.012628602 0.008511804
-0.12317323 -0.28669077 -0.062031947 -0.24106929 -0.3340945 0.03864266 0.09825184 -0.08480418
0.024916168 -0.30915937 -0.0464061 -0.07530879 -0.31051913 0.053705256 -0.021937003 -0.16870473
-0.24045235 0.032647174 0.15866598 -0.23028484 -0.009724417 -0.06434396 -0.2521413 -0.097426146
-0.10604024 0.13192251 -0.049363077 -0.15090999 0.11008289 -0.31708845 -0.12229707 -0.053145237
-0.6090208 -0.18619101 0.02741368 0.039517708 -0.082399674 -0.03153409 -0.25849834 -0.11186476
-0.08795702 -0.21322858 0.0955431 -0.021884553 0.13229026 -0.37091967 -0.17438501 -0.11417913
-0.052421395 -0.031916987 -0.061975982 -0.04241403 -0.09321315 -0.12405704 -0.027084477 -0.02137661
-0.26677474 -0.087282225 -0.13159984 -0.14916734 3.2892345e-05 -0.21338739 -0.03359907 -0.13753816
-0.062383857 -0.0048732874 0.03894899 -0.11648688 -0.11569121 -0.17359519 -0.19394344 -0.08958468
-0.07293145 -0.106514506 -0.04612903 -0.0809709 -0.06279858 -0.033266846 0.025272556 -0.14415719
-0.7119433 -0.03531818 -0.072274305 0.102854595 -0.19849636 0.0019881304 -0.117110744 0.04870223
-0.032769475 -0.009351152 -0.25771293 -0.22551896 -0.10090693 -0.1320922 0.014377613 -0.28151795
00000000: 534a 2cbd 3150 c4be c6fa 52bd 13ad 6b3d
00000010: 8e71 17be f4e5 21be 1bfa 29bb 8923 e1be
00000020: 4e60 c63c 931f 8f3d 87c3 92be ac56 07be
00000030: fbea 40be 64f1 163d efbf 2cbe d74d c9bd
00000040: f58e 7dbd 5a3f ff3b c4a3 d13c 3302 71bd
00000050: 7269 02be 9021 6cbc aad7 0c3d a23b 11be
00000060: 94d8 5bbc 2484 b1bd 3e75 0fbe 094c 83be
00000070: 0570 fe3b 5672 633d 81e1 98be 55e7 1b3e
00000080: bc99 e9bb ca82 3c3d c7f4 28bc 7cb3 b23d
00000090: 8570 8dbd e2d2 8dbe 2aca 143d 46ed 863d
000000a0: e179 10be 55fd bd3c 2cba 73be d147 a5bd
000000b0: e5b3 44be 6579 b03d cfd9 083d 7a77 74bd
000000c0: 6765 2a3d e4c7 cc3d 41e2 9c3d ed2d 9ebe
000000d0: 9804 f3bb 74e1 193e 5b15 bebe 2546 f1bc
000000e0: c651 f3bc cc8e 2cbb 5fb4 39be b17c 463c
000000f0: 8d39 c13a a0fe 163e e382 16be 1ed7 6bbe
00000100: 1f56 0d3e 29ba 89be 06b6 39bd 1ae7 fabc
00000110: 754f 27be d6f3 f8bc 0ac3 8e3e cbb9 8abd
00000120: 5c09 99bd 9fa6 463d 910c 85bd ac52 123e
00000130: 7ed0 a2ba 77b1 d33d fe3d 133e da71 393d
00000140: 43d4 d0bd fb91 9d3d 728a 64bd 6449 fabc
00000150: d547 43be 3e90 25be a5a6 b3bd 5ea4 afbd
00000160: 7183 c73c 5e16 fe3c 4ef8 733d b9ef fbbc
00000170: 39c5 11be cce8 87be 7da7 04be f451 1e3d
00000180: 3a4d 8a3d df24 243d 5856 23bd 6ebb cebd
00000190: 4c13 b63d 065d 09be 290d fdbc a344 d7bd
000001a0: c935 423e 173c 263d 8587 babe 8ffb 3cbd
000001b0: 6ecc 5ebe 9cc8 acbd 9af3 72bd 0f60 803d
000001c0: 718e d3bc 50b6 68bd 22ac 82be 98a9 cebc
000001d0: 10e1 2cbe 1dbb 043c ae2c fc3d c495 fa3a
000001e0: fade a83d 4501 8e3c 37e6 7e3d f04f d0bd
000001f0: d548 fa3c eee8 29bd 9f86 b4bd 0184 42bd
00000200: 4fd0 1bbd 1e5d 813d 4c29 d6bd c86e 25bd
00000210: 55b7 67bc 41f6 22be 997d a5bc 14c1 b9bd
00000220: 3ce8 613c 9c9b 4cbe 0e72 19bb e65f f03c
00000230: bbc0 0dbe f565 1ebd 091e 15be 701b bc3d
00000240: f8c7 3abd 4385 48bd 5136 9bbd 0df5 ef3d
00000250: 716d 4dbe ea09 76bf b17d 4dbd 3698 d5bd
00000260: d271 1bbc 2bdb de3c 424a fcbe edd5 86bc
00000270: c91d aebe 357e 11be 32e8 4ebc 1875 0b3c
00000280: 3f42 fcbd 22c9 92be 3615 7ebd deda 76be
00000290: 6f0e abbe c447 1e3d 4338 c93d d0ad adbd
000002a0: fe1c cc3c 234a 9ebe 5314 3ebd 7f3b 9abd
000002b0: 5dfc 9ebe 0bfa 5b3d 3bb5 b3bc efc0 2cbe
000002c0: 2439 76be 0bb9 053d 5679 223e cacf 6bbe
000002d0: 2953 1fbc c4c6 83bd aa18 81be 5c87 c7bd
000002e0: a02b d9bd b216 073e f030 4abd 2688 1abe
000002f0: 2373 e13d 6b59 a2be e376 fabd d2ae 59bd
00000300: cae8 1bbf dba8 3ebe a792 e03c 52dd 213d
00000310: 29c1 a8bd e429 01bd e559 84be 5a19 e5bd
00000320: cf22 b4bd 9858 5abe 1aac c33d 3c47 b3bc
00000330: 1977 073e 2fe9 bdbe fc91 32be bfd6 e9bd
00000340: d1b7 56bd 63bb 02bd 87da 7dbd 55ba 2dbd
00000350: 89e6 bebd 9e11 febd 44e0 ddbc 001e afbc
00000360: b396 88be 06c1 b2bd 1cc2 06be 53bf 18be
00000370: e3f5 0938 3982 5abe 2e9f 09bd ced6 0cbe
00000380: 3786 7fbd 19b0 9fbb fa88 1f3d ac90 eebd
00000390: 83ef ecbd f0c2 31be 1c99 46be 2c78 b7bd
000003a0: 165d 95bd 4724 dabd cbf1 3cbd 12d4 a5bd
000003b0: 8b9c 80bd d142 08bd 6408 cf3c f19d 13be
000003c0: eb41 36bf cca9 10bd 8d04 94bd 6ea5 d23d
000003d0: a142 4bbe 4b4b 023b c2d7 efbd fd7b 473d
000003e0: 4939 06bd 9335 19bc f3f2 83be 71ee 66be
000003f0: 4ba8 cebd 2d43 07be 1490 6b3c 1f23 90be

network_body._body_endoder.seq_layers.2.bias f4 [128]
-0.037618425 0.07455713 -0.07607967 0.070753515 0.03828575 0.15561363 -0.014025079 -0.03761609
0.07406915 -0.04954412 -0.08404007 -0.07957564 0.028167313 -0.034055203 -0.16459945 -0.10570639
0.081148244 0.05344811 0.079125434 -0.0049587246 -0.084102154 -0.042371396 0.021397496 -0.0048743617
0.007771485 0.040756036 -0.06630232 -0.017333927 0.034283984 -0.058590654 0.0034905209 -0.011285053
0.017449643 -0.10956283 -0.08743017 -0.041050836 0.047811452 -0.050054394 -0.11436181 -0.13231102
-0.0709235 -0.007525539 -0.09880342 0.022519963 0.10674683 -0.02334301 -0.046519898 -0.16164415
0.008859079 -0.08328241 -0.03666143 0.057972774 -0.071141444 0.06905018 -0.00477546 0.07460255
0.10577784 0.047973033 -0.028043978 -0.044882357 0.087283 -0.07588221 -0.07623996 -0.035016093
-0.051496994 0.038173858 -0.0029592384 -0.032162726 0.015641907 0.083153196 -0.14529024 0.026672984
-0.06978917 -0.098346986 -0.0064543574 -0.012582832 -0.030039845 -0.14878862 -0.1134691 -0.0033893732
0.026320525 -0.14475656 -0.0445252 0.08853218 0.0261035 -0.021031804 -0.07008121 -0.02470648
-0.10726536 -0.068669535 -0.037627146 0.1474669 -0.077063896 0.07413779 0.113933064 -0.06113241
0.0794795 -0.07775631 -0.04119351 -0.10780578 -0.024207897 0.023376968 -0.082366966 -0.011390427
0.16933578 -0.15558033 -0.0143247 -0.08560737 -0.009294717 0.17673197 -0.025571834 -0.06876037
-0.030558899 0.044064768 -0.037339926 0.0993767 0.04207075 -0.11298935 -0.04800156 0.04401352
0.10935401 -0.03654649 0.008033845 0.054412313 0.06849108 -0.07962019 -0.0010365553 -0.059428535
00000000: c715 1abd 69b1 983d a8cf 9bbd 38e7 903d
00000010: 85d1 1c3d 2e59 1f3e 72c9 65bc 5413 1abd
00000020: 91b1 973d c6ee 4abd 331d acbd 8ef8 a2bd
00000030: 23bf e63c 787d 0bbd c28c 28be 987c d8bd
00000040: 0d31 a63d 68ec 5a3d 840c a23d cc7c a2bb
00000050: c03d acbd a18d 2dbd cd49 af3c 1cb9 9fbb
00000060: f1a7 fe3b cdef 263d 83c9 87bd e1ff 8dbc
00000070: 5d6d 0c3d c1fc 6fbd 39c1 643b f1e4 38bc
00000080: 8ef2 8e3c 7a62 e0bd 970e b3bd ec24 28bd
00000090: f1d5 433d d605 4dbd 8636 eabd 8a7c 07be
000000a0: 5740 91bd cc98 f6bb 7359 cabd c97b b83c
000000b0: 159e da3d d739 bfbc a68b 3ebd 0b86 25be
000000c0: ac25 113c f88f aabd 4c2a 16bd dc74 6d3d
000000d0: 9bb2 91bd 2e6a 8d3d 767b 9cbb 39c9 983d
000000e0: 0da2 d83d 5f7f 443d 7cbc e5bc 90d6 37bd
000000f0: 6ec1 b23d 2268 9bbd b223 9cbd 096d 0fbd
00000100: 83ee 52bd 315c 1c3d c8ef 41bb 10bd 03bd
00000110: 7523 803c 394c aa3d f7c6 14be 4d81 da3c
00000120: a0ed 8ebd 256a c9bd 137f d3bb 3928 4ebc
00000130: 1f16 f6bc 0b5c 18be 7d62 e8bd 3f20 5ebb
00000140: 249e d73c 103b 14be 0e60 36bd 5c50 b53d
00000150: 02d7 d53c e44a acbc bd86 8fbd 3e65 cabc
00000160: f1ad dbbd 9da2 8cbd ec1e 1abd 9001 173e
00000170: add3 9dbd 8ed5 973d bd55 e93d fa65 7abd
00000180: 26c6 a23d b33e 9fbd 87ba 28bd 47c9 dcbd
00000190: a44f c6bc 0e81 bf3c 03b0 a8bd ea9e 3abc
000001a0: 5c66 2d3e 7350 1fbe 26b2 6abc eb52 afbd
000001b0: de48 18bc 3af9 343e 067c d1bc 3dd2 8cbd
000001c0: a856 fabc 427d 343d c0f1 18bd 0386 cb3d
000001d0: 6152 2c3d f666 e7bd 499d 44bd 8547 343d
000001e0: fff4 df3d c6b1 15bd 63a0 033c 72df 5e3d
000001f0: 0d45 8c3d e90f a3bd 06dd 87ba 566b 73bd

action_model._continuous_distribution.log_sigma f4 [1, 2]
-1.1129283 -1.0653985
00000000: 6f74 8ebf fa5e 88bf

action_model._continuous_distribution.mu.weight f4 [2, 128]
0.038854513 0.24233913 0.0012480473 0.13042694 -0.056901157 0.03715443 0.046741437 0.063791566
-0.085750245 -0.2017765 -0.13410251 0.08949836 -0.02882493 0.06789233 -0.043109786 -0.117582634
0.0846442 -0.094022706 0.030634299 0.23320687 0.06868635 0.0033374354 0.052361477 -0.005070397
-0.0012524305 -0.21262066 0.13037421 -0.061182182 0.19001357 0.0838459 0.0051549585 0.20638143
0.097334705 0.031446997 0.13394897 -0.001099296 -0.21966548 0.10596427 0.054478098 0.095214434
0.084727675 -0.0073380736 0.065890856 0.006345301 -0.13013403 0.2347492 0.09266849 -0.017143298
0.1010253 0.049135722 0.11297433 -0.1533215 -0.048337363 0.5791151 -0.09027783 0.074231856
0.10624309 -0.033972196 -0.11806274 -0.1381974 0.21972989 0.010466397 -0.016819593 -0.003048677
0.00024979791 -0.01233956 0.018682804 -0.08242692 0.09612967 -0.049394265 -0.10461087 -0.11984969
0.08514879 -0.13246033 -0.2614468 -0.17312315 -0.09933114 0.011582475 -0.037684157 0.18077779
0.16647506 0.058980454 0.026965447 0.08860596 -0.16068728 -0.06728118 -0.19039646 -0.3711545
0.004599745 0.076907426 0.105894364 0.11359669 -0.058277026 -0.010389052 0.2309893 -0.26568857
-0.09881284 -0.06825917 -0.0069622532 -0.0046016756 -0.11138599 -0.0971254 0.016105823 0.08916437
-0.013115978 -0.07862006 -0.0066488376 -0.11876898 -0.14615583 0.35081652 0.042833447 0.071852684
0.0121229235 -0.0020577442 -0.07125995 -0.10633918 0.036764923 -0.14064695 -0.028563961 0.13527939
-0.16412859 -0.048449647 -0.07477461 0.18685067 -0.0076697753 -0.07986398 0.05431062 -0.060181428
-0.1089892 0.19226938 -0.003016781 -0.045182303 -0.09778958 0.27846915 0.008385057 0.028618287
-0.09475302 0.13979997 0.049910344 -0.20458658 -0.077937275 0.018859647 -0.02021788 0.037673973
0.13773768 -0.3167399 0.09534879 0.11866993 -0.0604897 -0.05989581 0.119843714 0.099246494
-0.004292746 0.18713531 -0.070020154 0.1383972 -0.21166645 -0.1482362 -0.0049180547 -0.057008002
0.14206354 0.038706202 -0.07975457 -0.002414485 -0.0061408384 0.02082795 -0.055097565 0.11648511
0.017762044 0.00085265643 -0.109926604 -0.16150786 0.12504393 0.09662044 0.1453998 0.027877273
0.037227433 -0.11010147 0.004345569 0.068717204 -0.08431372 -0.0053259237 0.030918783 -0.23775816
0.17597662 0.23935947 -0.17524745 -0.0794178 -0.063899465 -0.15944076 0.22136521 0.10693596
0.001597167 0.001686674 0.078471854 -0.031494316 -0.20794936 -0.24716458 -0.028028283 0.004556878
-0.06502327 -0.0055390657 -0.12861188 -0.051013865 0.07674669 -0.078149535 -0.015641497 0.19646643
0.05872636 -0.018566662 0.044796307 -0.12083595 -0.1468915 0.04851758 -0.1361544 0.09498197
-0.0034011777 0.05927268 -0.0892454 0.18536258 0.06740379 -0.23491117 -0.30238354 0.14372434
-0.16084981 0.08041493 0.0030788905 -0.06907147 0.19724858 -0.0533435 0.13797498 0.0077822385
0.22483201 -0.058763713 -0.0054875836 -0.16722292 0.0708673 0.123441115 -0.106379785 -0.14170887
-0.13863306 0.0011338834 0.07729306 0.16967882 -0.16718608 -0.10444003 -0.123199664 -0.046083163
0.08293952 -0.13595976 0.0041248486 0.14496551 0.0027796167 0.009292162 -0.18980557 -0.05516443
00000000: e925 1f3d c027 783e 8595 a33a a48e 053e
00000010: 3011 69bd 3e2f 183d f373 3f3d 27a5 823d
00000020: d39d afbd 809e 4ebe 2b52 09be eb4a b73d
00000030: 4222 ecbc 220b 8b3d e393 30bd 2acf f0bd
00000040: f059 ad3d fa8e c0bd c8f4 fa3c c8cd 6e3e
00000050: 6eab 8c3d e0b8 5a3b fd78 563d 9325 a6bb
00000060: 9828 a4ba 3bb9 59be d180 053e 2b9a 7abd
00000070: eb92 423e 66b7 ab3d edea a83b a755 533e
00000080: 6b57 c73d 91ce 003d eb29 093e 4116 90ba
00000090: fdef 60be cc03 d93d 6d24 5f3d c9ff c23d
000000a0: b485 ad3d 3974 f0bb c9f1 863d 3eec cf3b
000000b0: db41 05be 1862 703e fac8 bd3d 1a70 8cbc
000000c0: 5ae6 ce3d 8a42 493d 165f e73d 5000 1dbe
000000d0: 66fd 45bd e340 143f 95e3 b8bd df06 983d
000000e0: fa95 d93d 6e26 0bbd e1ca f1bd 9f83 0dbe
000000f0: df00 613e 407b 2b3c 3ec9 89bc 50cc 47bb
00000100: 4ff7 8239 de2b 4abc ae0c 993c 72cf a8bd
00000110: a2df c43d a451 4abd 393e d6bd c173 f5bd
00000120: 7d62 ae3d aea3 07be 5bdc 85be 3247 31be
00000130: 206e cbbd 6cc4 3d3c b45a 1abd d01d 393e
00000140: 7078 2a3e 7d95 713d a4e6 dc3c 0b77 b53d
00000150: 358b 24be b7ca 89bd 4af7 42be f607 bebe
00000160: 75b9 963b a481 9d3d 25df d83d 62a5 e83d
00000170: e4b3 6ebd d836 2abc 7688 6c3e 5508 88be
00000180: 635e cabd 77cb 8bbd 9d23 e4bb a7c9 96bb
00000190: 571e e4bd afe9 c6bd 5cf0 833c cf9b b63d
000001a0: 66e4 56bc 8e03 a1bd 7ede d9bb 273d f3bd
000001b0: e0a9 15be 399e b33e 2072 2f3d 8027 933d
000001c0: 3a9f 463c 38db 06bb bdf0 91bd 5bc8 d9bd
000001d0: d196 163d c105 10be f8fe e9bc ae86 0a3e
000001e0: 5311 28be 2373 46bd 6e23 99bd c855 3f3e
000001f0: bd52 fbbb ba8f a3bd d074 5e3d cd80 76bd
00000200: bb35 dfbd 44e2 443e 30b5 45bb 1411 39bd
00000210: e745 c8bd 8293 8e3e 7a61 093c e670 ea3c
00000220: df0d c2bd b927 0f3e ca6e 4c3d 257f 51be
00000230: 949d 9fbd 8c7f 9a3c f89f a5bc 0650 1a3d
00000240: 1b0b 0d3e bb2b a2be 3a46 c33d 3809 f33d
00000250: 0cc4 77bd 4f55 75bd 9f70 f53d bf41 cb3d
00000260: 2aaa 8cbb 66a0 3f3e ba66 8fbd ffb7 0d3e
00000270: 17bf 58be 3bcb 17be a227 a1bb 3981 69bd
00000280: 1b79 113e 658a 1e3d 5d56 a3bd 563c 1ebb
00000290: 1639 c9bb 619f aa3c fcad 61bd bf8f ee3d
000002a0: b581 913c ce84 5f3a 3321 e1bd 5162 25be
000002b0: 840b 003e f0e0 c53d afe3 143e e15e e43c
000002c0: cb7b 183d e17c e1bd 4665 8e3b 9bbb 8c3d
000002d0: acac acbd 1685 aebb 6349 fd3c e076 73be
000002e0: 3733 343e a61a 753e 1174 33be cda5 a2bd
000002f0: b9dd 82bd 7044 23be 90ad 623e 3e01 db3d
00000300: 0858 d13a 6313 dd3a dab5 a03d 2f00 01bd
00000310: adf0 54be b618 7dbe 929b e5bc dd51 953b
00000320: ec2a 85bd 0d81 b5bb d5b2 03be eaf3 50bd
00000330: 5e2d 9d3d dd0c a0bd 9922 80bc 7f2e 493e
00000340: 0d8b 703d 1d19 98bc 557c 373d d778 f7bd
00000350: ba6a 16be 5fba 463d 0f6c 0bbe e885 c23d
00000360: 4be6 5ebb e9c7 723d 4bc6 b6bd b0cf 3d3e
00000370: 000b 8a3d 8e8c 70be 04d2 9abe 792c 133e
00000380: d0b5 24be 95b0 a43d 36c7 493b 5875 8dbd
00000390: 88fb 493e b77e 5abd 5049 0d3e 2602 ff3b
000003a0: 5d3a 663e 38b2 70bd 30d1 b3bb 7c3c 2bbe
000003b0: e022 913d b2ce fc3d a5dd d9bd 211c 11be
000003c0: d3f5 0dbe d09e 943a d34b 9e3d 49c0 2d3e
000003d0: d432 2bbe a8e4 d5bd 1b50 fcbd b3c1 3cbd
000003e0: 32dc a93d 0939 0bbe bd29 873b d771 143e
000003f0: 3b2a 363b 273e 183c 645c 42be 19f4 61bd

action_model._continuous_distribution.mu.bias f4 [2]
0.023257872 0.017926086
00000000: 4b87 be3c bad9 923c
