ML-Agents/Examples/results/SphereHunt/SphereHunt/checkpoint.pt (torch, 537826 bytes, 50 tensors)

network_body._body_endoder.seq_layers.0.weight f4 [128, 10]
000000 d8 82 5e 3e c8 c6 95 3d fe 7c 24 be cc 7f 4f 3d
       0.217296 0.07313305 -0.16063306 0.050658986
000010 62 d7 b6 be d8 66 71 3e 49 46 06 bf 9d 14 28 be
       -0.357112 0.23574388 -0.52450997 -0.16414113
000020 38 f0 72 bc f8 bc 3f 3e 16 0f 59 3e c3 b8 32 3e
       -0.01482778 0.1872443 0.21197161 0.17453294
000030 19 ac 86 3e 72 3e be 3c 18 c1 3b 3e 39 02 9f be
       0.26303175 0.023223136 0.18335378 -0.31056383
000040 55 5a 53 bf 2a d5 81 3d 22 31 8d be 7f e1 44 3d
       -0.8255971 0.06339486 -0.27576548 0.048066612
000050 0e dd e4 3d f5 ee 94 be 36 bb 77 be 2d e9 5c be
       0.11174975 -0.2908856 -0.24192509 -0.21573325
000060 a8 c7 a2 bc a5 9b 6f be f4 c8 85 3e 49 df 06 3f
       -0.019870594 -0.23399217 0.26129878 0.52684456
000070 20 2d f5 3d 50 d7 0d 3f 9d 58 d4 3d 8c 3c 53 be
       0.119714975 0.55406666 0.10368464 -0.20628566
000080 c4 86 4d 3f 34 0c 35 3e 3d 10 37 be c6 34 02 bf
       0.8028376 0.17680436 -0.17877288 -0.50861776
000090 be b1 dd bc c9 9d 90 be 0b 91 1f bc 29 19 e5 3e
       -0.027062293 -0.2824538 -0.009739171 0.44745758
0000a0 79 b3 87 bd 00 fc b3 be 30 fc 6d 3e ad 71 d2 3d
       -0.066260286 -0.35153198 0.23240733 0.10275588
0000b0 10 79 87 3c 5b a2 e2 be ad e7 38 3f e9 3c 0e bc
       0.01653722 -0.44264492 0.7222851 -0.008681514
0000c0 b5 64 3b 3f 20 34 b0 3a 10 1e 09 bf 9b e8 a8 3e
       0.7320054 0.0013443269 -0.53561497 0.32989964
0000d0 1a 8c 1c 3f b7 65 64 3d 3f 3e bb ba ce db d6 bd
       0.6115128 0.055761065 -0.0014285519 -0.10491143
0000e0 06 5a c1 3b fc ed 97 3e 20 a8 0a be 4d 7e 6a be
       0.005900624 0.29673755 -0.13540697 -0.22899742
0000f0 ef 43 1b bf 55 e5 86 be 42 73 d3 bd fe ba 77 3d
       -0.60650533 -0.2634684 -0.10324718 0.060481064
000100 c2 ab ae be e6 2a 80 3e 2c b3 dd 3e 98 2d 4e be
       -0.34115416 0.2503273 0.4330076 -0.2013458
000110 1b e9 19 3f 4e 75 6f 3e 31 32 a9 be 3a 87 58 be
       0.60121316 0.23384592 -0.33046106 -0.21145335
000120 55 cf 72 bf 8d 11 2b 3f 6f 3f 77 bc 50 57 4c 3e
       -0.94847614 0.66823655 -0.015090807 0.19955182
000130 0f ce 0d 3f a6 d5 f5 bd fb 49 e0 3d 45 0c 2c 3e
       0.55392545 -0.12003641 0.10951611 0.16801555
000140 cc bf 4b bf 47 8c 68 be fd 02 98 3e 83 5f fc 3d
       -0.79589534 -0.22709762 0.2968978 0.12322905
000150 31 59 e3 3e 42 23 ed 3e 81 a4 d3 3e ea 41 5f bd
       0.44403985 0.46315962 0.41336444 -0.05450622
000160 09 55 2f bd 1e 33 4b 3d 7f ad a9 3d 67 df 6c be
       -0.042805705 0.049609296 0.08285045 -0.23132096
000170 87 4d 73 3e 31 c1 00 3d f3 20 3b be 01 3b 8e be
       0.23760043 0.03143424 -0.18274288 -0.2777939
000180 44 93 82 be b9 81 02 bf e9 44 9c be dd 7e 93 3d
       -0.2550298 -0.5097919 -0.30521324 0.072019316
000190 46 7c 39 3e e9 c0 7a 3d 2d 7d a9 3e d9 80 c1 3d
       0.18113813 0.06121913 0.33103314 0.09448404
0001a0 f9 2e 10 3f c4 3e 2a be 55 28 a0 be 44 9a 1d bf
       0.56321675 -0.16625506 -0.3128077 -0.61563516
0001b0 c6 3e 90 be 73 f5 7d be a9 ef c9 be 60 a9 02 3e
       -0.28172892 -0.24800663 -0.3944066 0.12759924
0001c0 3c 9a cf bd 5d 96 e4 3e 2a f4 90 3d 73 a1 58 3e
       -0.1013684 0.44645968 0.070778206 0.21155338
0001d0 52 b0 77 bd 4d a0 9b bd 5e 3b 28 be 0d 8b ba bd
       -0.060470887 -0.07598934 -0.16428897 -0.09108553
0001e0 40 a6 84 be 6b 63 9e 3e a0 45 b9 bd bd 3e 90 3e
       -0.2590809 0.30935225 -0.09046483 0.28172866
0001f0 db 90 61 3e 15 a4 36 3e ae c3 58 3f e2 e2 b8 3c
       0.22027914 0.1783603 0.84673584 0.022569124
000200 e6 e2 1c 3f 90 ce 37 3e 91 57 50 bd 2c d0 52 be
       0.6128372 0.17949891 -0.05086476 -0.20587224
000210 da 06 b2 be c6 5b 16 3e 95 b2 8f 3e 80 fd c5 be
       -0.34770852 0.14683446 0.28065935 -0.38669968
000220 63 9f 06 be e3 cf 50 bf 3f a0 6f 3e 58 96 0a 3e
       -0.13146739 -0.8156721 0.23400973 0.13533914
000230 3e 0d 95 3d e1 55 c3 3d c9 66 83 be 7c e1 c4 b9
       0.07277916 0.095378645 -0.25664356 -0.00037552032
000240 1a cd b9 3c e2 1e 21 bd 41 cd 06 bd 84 98 bc 3d
       0.022680808 -0.039336093 -0.03291059 0.092087775
000250 ba 3c 58 be ac e0 e1 bd 13 9d 1a 3e e8 43 89 3e
       -0.21116915 -0.11029181 0.15098982 0.2680962
000260 5d c3 5f be a6 93 c4 3e c3 10 e7 3d 48 e4 e7 bd
       -0.21851869 0.38393897 0.11282494 -0.11322838
000270 4c b8 5c be af 11 7f be cf b0 20 bd 2e 83 76 3e
       -0.21554679 -0.2490909 -0.039231118 0.24073479
000280 c9 df 14 3e 28 f7 1e bf 2e 02 d5 be fc 0a e3 bd
       0.14538492 -0.6209588 -0.41603225 -0.110860795
000290 f1 b6 88 3e a4 7f cf be 86 3f fc be 8c 49 90 3e
       0.26702073 -0.4052707 -0.49267215 0.28181112
0002a0 d4 d3 9d be a8 30 ec 3e 94 7b 1b 3e 37 7c 0f 3e
       -0.30825675 0.46130872 0.1518386 0.14012228
0002b0 42 4d bd 3e 4e 75 35 be 66 d4 87 be 11 89 4f be
       0.36973006 -0.1772053 -0.26529235 -0.2026713
0002c0 fe c8 e3 3e 5e df 9a bd a4 51 08 bd fa 4d f4 be
       0.44489282 -0.07562135 -0.033280984 -0.4771574
0002d0 58 a8 70 3e 6d e7 5f bc 59 6c 1a 3f 98 02 dd 3c
       0.23501718 -0.013666016 0.60321575 0.026978776
0002e0 a9 90 57 bf 57 9e 3f 3d a8 50 d1 3e 1f d4 64 be
       -0.8420511 0.046781864 0.40881848 -0.22346543
0002f0 d3 a2 aa 3e 66 87 df be 87 de b0 3e 53 2e 84 bd
       0.3332735 -0.43657988 0.34544775 -0.06454148
000300 df 17 2e be b3 d9 8d 3a 7f 5f 79 3e 24 89 61 be
       -0.17001294 0.0010822326 0.24352835 -0.22024971
000310 37 0d e0 3e 1f 3f 61 3e 9c 0b 30 bf dd 5d e1 3e
       0.43760082 0.21996735 -0.68767715 0.44016925
000320 08 31 b2 be 0a f1 2b bd 9c 63 52 3d 83 5f 17 bf
       -0.34803033 -0.04197792 0.051364526 -0.59130114
000330 27 78 e6 3d 32 75 4d 3e 68 9f cb be 7f ed 33 3d
       0.11253386 0.20064238 -0.39770055 0.043927666
000340 a4 a5 b8 3d 60 71 91 3e 30 cd 33 be ba 12 06 bf
       0.090159684 0.2840681 -0.17558742 -0.52372324
000350 28 aa 51 be 21 9c 61 3e dd 40 a7 3d 70 05 91 3e
       -0.20475066 0.22032215 0.081666686 0.2832446
000360 45 9d 08 3f 4f cc d0 be 12 3e b3 bd a8 9d 0a 3f
       0.53364974 -0.40780875 -0.08752073 0.54146814
000370 da c8 00 bc 16 66 48 be 8a 5e dd 3e ea 4e 31 3e
       -0.007860387 -0.19570193 0.4323619 0.1731526
000380 f2 ef 18 bd a0 62 90 be e6 6e 16 3f a2 0f f3 be
       -0.037338205 -0.28200245 0.5876297 -0.47472864
000390 b8 81 b7 3e bc f1 2c 3e eb 59 68 bf 20 3f 25 3e
       0.35841155 0.1688909 -0.90762204 0.16137362
0003a0 86 eb 38 3e 80 e3 0c bf 04 4f 90 3e 4a 4c ec be
       0.18058595 -0.5503464 0.28185284 -0.46151954
0003b0 f8 0d 01 bd b3 eb 96 be b0 a3 9c be df a7 08 3f
       -0.031507462 -0.294767 -0.30593634 0.5338115
0003c0 f1 4d 9e be 2b 36 2e be 2b cd ec 3d f2 e7 c0 bd
       -0.3091884 -0.17012851 0.1156257 -0.0941924
0003d0 6a 2c 33 3e 7b 8a 9d 3d b4 be 14 bf a7 d7 83 3e
       0.17497411 0.07692429 -0.5810349 0.25750467
0003e0 13 3a 59 3e ee 98 80 bd de b1 2a 3f 1a cf c1 bd
       0.2121356 -0.06279169 0.66677654 -0.094633296
0003f0 e8 0e fc be 46 28 1f bf 28 f0 5a be 51 45 3e 3e
       -0.49230123 -0.6217083 -0.21380675 0.1858113

network_body._body_endoder.seq_layers.0.bias f4 [128]
000000 07 80 39 3d 76 36 80 3d b2 6b 89 b9 72 86 54 bd
       0.045288112 0.062603876 -0.00026210916 -0.05188603
000010 72 a8 7d bc 7d ba fa 3d 62 06 34 bd 1b 4a 40 bd
       -0.015482055 0.12242601 -0.0439514 -0.046945672
000020 f1 1c 47 bc 11 d8 53 bd 14 5c 46 3c e7 4d 13 3d
       -0.012152896 -0.05171973 0.012106914 0.035962965
000030 45 76 77 3a a7 b7 20 3d 63 e7 20 3d c3 5f 16 bd
       0.0009439926 0.039237645 0.039283168 -0.03671242
000040 39 06 5b bd f3 2c c2 3b 3b 78 0b 3d 0c 93 ef bc
       -0.05347273 0.0059257685 0.034050208 -0.029244922
000050 e5 08 9f bd 7f 08 e1 bc 76 88 05 bd b4 4c 12 bc
       -0.07765368 -0.027469872 -0.032600842 -0.00892942
000060 fc 0d bb 3c a9 64 84 3b 55 e2 d1 bd 16 c2 13 3d
       0.022833817 0.00404032 -0.102482475 0.036073767
000070 bb 8e 39 bd fd c8 83 bc a0 19 c6 3d 67 a4 2f bd
       -0.045302134 -0.01608705 0.09672856 -0.042881396
000080 fc 21 f1 bd b6 49 0d bd cb 80 e4 3a 32 dd 92 3c
       -0.1177406 -0.034494124 0.0017433403 0.01792774
000090 53 6e 6c bc 46 0c 58 3d c3 12 a5 bc cc de 7a bc
       -0.0144306 0.05274608 -0.020150548 -0.015311908
0000a0 fa 8e 8c bd be b4 6b bd b4 02 d2 3d 9b d6 f2 bc
       -0.06863208 -0.057545416 0.10254422 -0.029643347
0000b0 6a 1c d3 bb 74 a2 a0 3c e8 bb f3 bd 02 4a 2c bd
       -0.006442596 0.019608714 -0.11901075 -0.042062767
0000c0 e2 22 8d 3d 56 73 be bc 31 03 5d bd 91 e0 c4 bc
       0.06891419 -0.023248356 -0.05395812 -0.024032863
0000d0 c3 ab 68 bd bc 4c d3 bd e6 54 a3 bd 4b 1b 0b be
       -0.05680443 -0.1031737 -0.079751775 -0.1358463
0000e0 f1 5f 3b ba 41 da 9b bd 74 ab b0 bc f2 1d f7 3c
       -0.000714778 -0.07609988 -0.02156613 0.030165646
0000f0 c8 f3 80 bd 4b 5f 48 bb 50 38 cf bd df 66 f4 bc
       -0.062964976 -0.0030574377 -0.10118163 -0.029834209
000100 db ae 92 bc ee 55 0e bd a1 17 00 be 45 35 8f bc
       -0.017905643 -0.034749918 -0.12509014 -0.017481456
000110 4c 9c 36 3d b2 45 3a bd 0f 9e 35 bd ad f3 88 3b
       0.04458265 -0.045476623 -0.04434019 0.004179439
000120 89 3e bd bb e1 3a 67 3b 14 e0 9f bc 95 f4 b4 3b
       -0.005775277 0.0035282897 -0.019516028 0.0055223205
000130 e4 a3 22 bb ec b3 b7 bd bd 45 ed bc 52 fa 3f bc
       -0.0024816925 -0.08969864 -0.028963918 -0.011717396
000140 79 80 ae 3c 40 10 16 bc c9 f8 03 3d 3b 51 9d bd
       0.021301495 -0.009159148 0.032219682 -0.07681509
000150 fd c4 d8 bd fc 81 45 3d 8d 83 55 3c ff f7 89 bd
       -0.105844475 0.048219666 0.013031852 -0.067367546
000160 6f a6 26 3e a2 fc 3b bd 2e 68 cc 3b 6f a3 44 3d
       0.16274427 -0.045895226 0.006238005 0.048007425
000170 d2 7c 99 bb 32 74 a3 bc aa a0 3c bd c1 d7 b1 bc
       -0.004684069 -0.019952867 -0.04605166 -0.021709325
000180 0e c9 9a bc e7 6b eb bc 8b 25 28 bd cf 6a 84 3d
       -0.018894698 -0.028737975 -0.04105143 0.064656846
000190 4e 00 ac bc 63 06 2b 3d a0 97 1d bd de 55 26 bd
       -0.020996239 0.041754138 -0.03847468 -0.040609233
0001a0 12 aa eb bd 33 31 82 bc d4 61 74 bc de cf 7e bd
       -0.11507048 -0.0158926 -0.014915902 -0.062209956
0001b0 ab 2e 9d bd 53 b4 93 bd 37 5c a8 bd a6 3d 56 bd
       -0.07674917 -0.072121285 -0.082207136 -0.052304886
0001c0 25 ee 45 bc f3 5c 67 bd 0b 80 a3 bc 1f 75 b1 bc
       -0.012080704 -0.056485128 -0.019958517 -0.021662293
0001d0 7a 94 5c bd b3 e6 8b 3d 5b 6d 78 bb db a6 d4 bc
       -0.053852536 0.06831112 -0.0037906978 -0.02595847
0001e0 a9 cf 2b be 9d f8 c9 ba 4e 06 2a be 38 4c eb 3c
       -0.16778435 -0.0015409176 -0.16603968 0.028722867
0001f0 0a 3d 19 3d 61 6d 04 3e a7 91 1d bd 4a 5a cf ba
       0.037411727 0.1293235 -0.038468983 -0.0015819755

network_body._body_endoder.seq_layers.2.weight f4 [128, 128]
000000 bb 39 e2 bd 7a ff 07 be e0 17 40 be 87 28 6c 3d
       -0.110461675 -0.1328105 -0.18759108 0.057655837
000010 13 16 51 3d 06 7d 2f 3e 3e 38 96 bd fa 78 21 3e
       0.051046442 0.17137536 -0.07334946 0.15768805
000020 c5 61 81 bd 98 fa ff bc d2 c0 27 3e 94 53 c2 3d
       -0.06317476 -0.031247422 0.16382149 0.094885975
000030 6f dc 41 3e 66 8d 97 3d d7 78 b9 bc 16 a0 bc 3c
       0.18931745 0.074000165 -0.022640629 0.023025554
000040 95 06 0b be f6 4b 01 3e 80 84 61 3c a1 2c dc 3d
       -0.1357673 0.12626633 0.013764501 0.107507
000050 52 f8 69 bd cb 27 09 3e ee fb 06 bd 66 17 c6 bc
       -0.057121582 0.13394086 -0.032955103 -0.02418108
000060 93 53 81 3d a6 70 8d bc a1 78 e8 bc bb fb 0d 3d
       0.06314769 -0.017265629 -0.028377833 0.034663897
000070 16 ca df 3d 1c 0c c2 bc 76 fc bb 3d 95 f4 86 bd
       0.10927217 -0.023687415 0.091790125 -0.06589619
000080 d5 bf cb bc 50 f4 ef 3d 86 f4 0e bc 91 13 9f 3d
       -0.024871746 0.11716521 -0.008725291 0.07767404
000090 d3 62 85 3d 7d db 7d bc 05 89 e8 3c bb 24 17 ba
       0.0651299 -0.015494225 0.028385649 -0.0005765666
0000a0 ef ae c4 bd 91 29 1b 3e 0a 23 bc bd 37 af 99 bd
       -0.096036784 0.15152575 -0.09186371 -0.07504123
0000b0 a0 6a 8e bb 8c 48 78 3d 86 9f 34 3e e1 89 8b 3e
       -0.004346207 0.06061606 0.17638978 0.2725363
0000c0 fe 22 08 3e 37 39 56 3e fa 4d 97 bd 11 d4 89 3c
       0.13294598 0.20920263 -0.0738792 0.016824754
0000d0 12 ea bd 3d c5 f8 6b 3d 3b ad 1e 3c ec 76 84 3d
       0.09273161 0.057610292 0.009684856 0.06467995
0000e0 39 76 89 bd cb a6 b3 3d 3f b4 07 3e c8 6f 9a 3d
       -0.06712002 0.087720476 0.13252352 0.07540852
0000f0 f1 59 fe 3c 56 b0 34 be a9 32 0c 3e c6 67 3a bc
       0.031048747 -0.17645392 0.136912 -0.011377281
000100 8a 5e e9 bd 26 0a e2 bd 30 dd 30 bd 77 7d 65 3d
       -0.11394985 -0.11037092 -0.04317969 0.056027856
000110 fb 43 1a 3c 40 82 97 3d 3e b8 6c 3d 55 4d dd bd
       0.009415622 0.0739789 0.057792895 -0.108057655
000120 30 aa 07 be c4 45 f8 3c 7e 62 16 3c 7e 2f cc 3d
       -0.13248515 0.030306704 0.009178756 0.09969996
000130 7e f0 22 3e aa 9c 7e 3c 6b 8b 8d b9 77 e9 cb bc
       0.15912053 0.015540281 -0.0002699749 -0.024891598
000140 55 d8 8e 3d f5 eb 07 be 7b 7c 10 be 10 e1 1b 3e
       0.06974856 -0.13273604 -0.14109986 0.15222573
000150 83 5a bc 3c dd 32 4d bd 11 76 b3 3d da c2 c6 bd
       0.022992378 -0.050097335 0.08762754 -0.09705134
000160 66 df 24 bc 06 6c 06 be c4 2a 81 ba f4 a8 81 3d
       -0.010063028 -0.13127145 -0.0009854664 0.063310534
000170 46 6d cd 3a 66 f8 15 3e af 41 29 3e eb 55 af bd
       0.0015672825 0.14645538 0.16528963 -0.085613094
000180 ec 78 80 3e c7 fe 5d be df d6 01 3e 00 47 c0 3c
       0.25092256 -0.21679221 0.12679623 0.023471355
000190 d5 1a 9a 3d 79 cc a0 bc 6d 23 ff 3d b8 2e 3c 3d
       0.07524649 -0.01962875 0.12457929 0.045942992
0001a0 80 17 96 3d 86 5a bc bd d4 43 7d 3e cd 0a 32 be
       0.07328701 -0.091969535 0.24732906 -0.17386933
0001b0 27 e5 50 3c 99 57 30 bd 82 2b 42 3d 5c d2 de 3c
       0.012749947 -0.04305229 0.047404774 0.027199917
0001c0 02 b6 9e 3c e5 cc a6 bc 30 84 d3 3d 97 0a a6 3d
       0.019373897 -0.020361373 0.10327947 0.081074886
0001d0 b0 d0 ad 3d e3 11 62 3d f1 f4 9a 3d 07 b4 02 3d
       0.084870696 0.05519284 0.0756625 0.03190997
0001e0 8b de bb 3c 06 7f d0 3c 8f 91 dc bd 18 30 98 bd
       0.022933265 0.025451194 -0.107699506 -0.07431048
0001f0 9c 0b c4 bd 30 7f 25 3d f1 5a 58 3d 48 2c a5 bd
       -0.09572527 0.0404045 0.052821103 -0.080650866
000200 b7 94 84 be c5 18 cd bc b7 5a 0c 3c a5 02 e3 3d
       -0.2589471 -0.025036225 0.00856655 0.11084489
000210 49 05 28 be c3 6b 1a 3d 61 1f 09 bd cd 78 c5 bd
       -0.16408266 0.037700426 -0.03347719 -0.096421815
000220 1d f9 a3 bd 15 1a 18 3b 56 a2 dc 3d 90 f8 87 3d
       -0.08006499 0.0023208905 0.107731506 0.066392064
000230 6a ea 9c 3b c3 16 b7 bd 53 b3 96 bd 75 64 f1 bd
       0.0047886865 -0.08939888 -0.07358422 -0.11786739
000240 18 3a 87 be cc 7b e8 bd 48 c0 c0 3b 4a 04 cf bc
       -0.2641151 -0.113517374 0.0058822967 -0.0252706
000250 0f c2 4f bc fd 23 34 be 51 54 4b bc 53 ce bd 3b
       -0.0126805445 -0.17591853 -0.012410239 0.005792418
000260 e7 8b 4c be c6 52 c5 bd 21 f7 49 3d c0 83 14 3e
       -0.19975244 -0.096349284 0.049307946 0.14503384
000270 3a 81 7a be 23 fc 98 3d 47 c3 fb 3d 07 fe 62 be
       -0.24463359 0.07469966 0.122931056 -0.22167216
000280 db 16 e9 bd e3 f5 72 be 11 90 68 bd d9 ed 63 3d
       -0.113813125 -0.23726611 -0.056778017 0.05564675
000290 eb 59 ce 3d 61 ff 01 be 51 ee 59 bd 3c 27 16 be
       0.10075744 -0.12695076 -0.05320579 -0.14663404
0002a0 8a 48 7e bd fd 14 f2 3d 59 c7 9c bd ba d5 84 38
       -0.062080897 0.118204094 -0.0765521 6.33406e-05
0002b0 b8 9a 18 be a7 6f 51 be 68 1c 63 be f4 cb 72 3d
       -0.1490277 -0.20452748 -0.22178805 0.059276536
0002c0 db ea 00 be ac 05 93 bd 5a f0 c8 3d 09 ab 98 3d
       -0.1258959 -0.07178816 0.098114684 0.07454497
0002d0 d5 f6 77 be 5f d5 ad bd 45 96 da bd f9 3c 92 bc
       -0.24215253 -0.08487963 -0.10673193 -0.01785134
0002e0 43 e9 a3 3d d0 00 d3 bd 6a c8 c7 bd 17 3c 62 ba
       0.080034755 -0.10302889 -0.09755023 -0.000863017
0002f0 80 e0 b6 bc 36 28 a3 3c 92 ef 9f be 44 f4 9d bd
       -0.022323847 0.019916635 -0.31237465 -0.077126056
000300 6c c7 08 be 9c ea d7 bd 00 1e 7a 3b 4e a8 07 be
       -0.13357323 -0.10542795 0.0038164854 -0.13247797
000310 61 80 4c bc 20 ae 74 bc 4d 55 be 3d d1 f4 73 3d
       -0.01248178 -0.014934093 0.092936136 0.059559647
000320 27 a5 b5 3d 41 be 4b 3e d1 f4 1d bc df d7 41 be
       0.08869391 0.19896795 -0.009640888 -0.18930005
000330 26 e8 3f 3e e6 6b 2a 3e b4 19 21 3d a3 da 25 3e
       0.18740901 0.16642722 0.039331153 0.16196685
000340 a2 9a 23 3e 6a 52 05 bd 4b 49 03 be 63 1a 5e bd
       0.15976956 -0.0325493 -0.12820928 -0.054224383
000350 f4 db 85 bd fc 75 68 bd 80 f5 25 3e e0 e8 f4 3b
       -0.06536093 -0.056753144 0.16206932 0.00747405
000360 d2 22 51 bc f9 6e cb bd f4 90 01 3d 78 28 2d be
       -0.0127646495 -0.09933276 0.03163238 -0.16909969
000370 26 26 ae 3c 82 89 90 39 95 6b 10 3c 55 cd 7e bd
       0.021258425 0.00027568272 0.008814712 -0.06220754
000380 23 fa 56 3d 94 93 56 3d 24 1e 59 3d f4 b2 02 bd
       0.052484643 0.052386835 0.05300726 -0.031908944
000390 ce 05 b0 bd e3 03 79 be 3f 6f 11 3e 4f fb f2 bd
       -0.08594857 -0.24317889 0.14202593 -0.118643396
0003a0 ae 16 9b bd 1a cb 67 be 82 d2 ae 3c 7c 00 d0 bc
       -0.07572685 -0.22636071 0.021340612 -0.025390856
0003b0 2b bd 77 3d 62 23 3a 3e c9 49 09 be bb 1a a1 bd
       0.06048314 0.1817756 -0.13407053 -0.078664266
0003c0 45 20 62 3e 59 48 5c 3d eb 8b 04 3e ac 71 85 bd
       0.22082622 0.053779934 0.12944 -0.06515822
0003d0 f0 81 c5 3d e2 90 f7 bd 59 e8 76 bb cd 71 ae bc
       0.09643924 -0.12088181 -0.003767511 -0.021294499
0003e0 75 8f 4b 3d 28 e5 49 be 0d 0d 33 35 fa 90 b5 bd
       0.04969736 -0.19716322 6.670169e-07 -0.08865543
0003f0 2b 12 47 3d 93 76 cf bd 91 84 47 bb 92 b3 b5 be
       0.04860131 -0.10130038 -0.0030444006 -0.35488564

network_body._body_endoder.seq_layers.2.bias f4 [128]
000000 2c f9 8d bd 9e 78 4b 3d 2f 7d 6d ba 2c 10 a3 3b
       -0.069322914 0.049675576 -0.00090594863 0.004976293
000010 8e f7 86 3d 38 80 00 3c 81 90 15 3a 21 36 10 bd
       0.06590186 0.00784307 0.00057054317 -0.03520787
000020 76 c0 78 bd ca 05 af 3d 58 e4 92 3c 95 c0 c9 3c
       -0.06073042 0.08546026 0.017931148 0.024627963
000030 7b 89 ae 3d c9 da 8a 3d 91 d6 a6 3b 17 01 0a bc
       0.08522316 0.06780011 0.0050914963 -0.008423111
000040 d6 c8 91 bc 88 e8 37 3d 29 5e 99 bd 74 31 ca 3c
       -0.017795961 0.044899493 -0.07488663 0.024681784
000050 da 2e a1 3c bb 6e 53 3d ac 65 0d bd 34 e4 03 bc
       0.01967566 0.051619273 -0.03452079 -0.008050013
000060 e8 1a ed bc 89 a8 02 3d 67 ab 3e bd d8 51 88 bd
       -0.028943494 0.03189901 -0.04655018 -0.066562355
000070 17 2e 3e bd d2 ec 25 bc 69 be ae 3c ec 17 fc 3c
       -0.046430673 -0.010127263 0.021331029 0.030773126
000080 75 b3 a3 3d cf 35 76 3d c1 bd ce 3d f7 ce 25 3d
       0.07993213 0.06010991 0.100947864 0.04048058
000090 46 0b 1b bc e9 34 19 bd 00 b3 3a 3d 41 e1 3b 3b
       -0.009463137 -0.037403975 0.045580864 0.0028668197
0000a0 2f 76 c1 3d 5d 74 08 3d 60 46 92 3c 16 60 31 bd
       0.0944637 0.033314098 0.017855823 -0.043304525
0000b0 be b0 68 3d d9 27 88 bd b2 4d ff 3c 43 51 34 bc
       0.05680918 -0.06648225 0.031164978 -0.011005702
0000c0 a3 5b 2b bd 39 c7 67 bd 1d 60 34 3c e9 ce 6e 3d
       -0.04183544 -0.056586478 0.011009243 0.058302794
0000d0 d7 e4 a1 3d ca 11 d2 3d e6 a4 a7 3d 8e 80 80 bc
       0.07904976 0.10257299 0.08185749 -0.0156863
0000e0 b3 d0 cc 3d 91 52 0c 3d de 42 41 bd 6f 2e 60 bb
       0.10000744 0.03425843 -0.04718291 -0.0034207364
0000f0 ec e7 77 3d 4e ac e4 3c e2 49 93 bc f8 29 e0 3d
       0.060523912 0.027914193 -0.017979566 0.10945505
000100 9f af de 3c df 7e 25 3e 2b 73 7a 3d e0 14 40 bc
       0.027183352 0.16161679 0.06114499 -0.011723727
000110 32 10 ab bc b8 5e 25 3e cd 25 91 3d a4 22 e8 bd
       -0.020881746 0.16149414 0.07087288 -0.11334732
000120 31 76 97 3d 0b c7 b4 3c 47 1e 22 bd 50 dc d6 bc
       0.0739559 0.022067567 -0.039579656 -0.0262281
000130 92 bb cb 3c 28 fa 5b 3d d3 b2 11 3c 8c 53 e1 bb
       0.024869714 0.053705364 0.008892733 -0.0068764146
000140 bb e3 6d bd d2 c9 4b 3d a6 9e 87 3b 59 cc d6 bc
       -0.05807851 0.049753018 0.0041387854 -0.026220487
000150 4e 03 4e 3d 98 12 22 3d 6d 71 cc 3d 18 e1 35 3c
       0.05029612 0.039568514 0.09982572 0.01110103
000160 ad 78 bc 3d 48 56 2f bd cd 61 22 bd 29 a4 6f 3b
       0.092027046 -0.042806894 -0.03964405 0.0036566353
000170 a7 36 e5 3c b0 c3 21 3c 08 c9 17 3d 10 10 70 3b
       0.027980162 0.009873316 0.037056953 0.0036630668
000180 99 ae eb 3d cc 5f 72 3d 02 9b 83 3d 98 de 0c 3d
       0.11507911 0.05917339 0.0642605 0.03439197
000190 3d 67 cc ba 92 d9 90 3d 20 02 0c 3c 3b fc ed bc
       -0.0015594732 0.07072748 0.0085454285 -0.029050937
0001a0 16 ca 8a bc 31 cc 35 3d bc 3a 38 3d 82 6d cb 3d
       -0.016942065 0.044384185 0.04497789 0.09932996
0001b0 9e 19 5e 3d 7c d1 7e bd 12 7c b4 bc 22 de 30 ba
       0.05422365 -0.0622115 -0.022031818 -0.00067469676
0001c0 b4 b3 48 bd 2f 85 84 3d 83 d7 a7 3c 0e 86 bc 3d
       -0.048999503 0.06470715 0.020488506 0.092052564
0001d0 ca 50 70 3d 00 40 67 bc 8e 1a 13 bd 38 54 a2 bb
       0.058670796 -0.01411438 -0.035913996 -0.0049538873
0001e0 32 9a f7 3a 78 ab 69 3d 73 97 a5 bb 06 57 bb bc
       0.0018890558 0.05704829 -0.0050534545 -0.022868644
0001f0 da 6a 08 3e 0b a4 f3 bb 61 de 1c bc 4e ae 96 bc
       0.1332201 -0.007435327 -0.009574504 -0.018393662

action_model._continuous_distribution.log_sigma f4 [1, 2]
000000 6f 57 49 be 3d 81 57 be
       -0.1966226 -0.21045394

action_model._continuous_distribution.mu.weight f4 [2, 128]
000000 99 e8 16 bd 18 60 4a 3d cf 95 c6 3d 17 e9 1e ba
       -0.036842916 0.04940805 0.096965425 -0.0006061955
000010 50 06 e2 3d cf 75 23 3d 40 83 ae 3d bb 62 5c bd
       0.1103636 0.039907273 0.08521128 -0.053805094
000020 6d 01 5a bd e6 25 4c bd ec 65 16 3e 13 1c ae 3d
       -0.053224016 -0.04984083 0.14687318 0.085014485
000030 3e 35 7e 3d fa 2a 4a 3c cd 98 17 3d 2c b6 51 3d
       0.062062494 0.012339348 0.037010957 0.051199123
000040 df 2b 79 bd 58 55 49 ba 7e 18 54 bd 23 d4 80 3d
       -0.060832854 -0.0007680259 -0.05178117 0.06290462
000050 2a 1b 48 3d 1e dd 54 3e 99 d0 1c bd a9 c3 ad 3d
       0.04885403 0.20787475 -0.03828487 0.08484585
000060 e3 1e 23 3d 94 ad ad bc 31 32 29 bd 08 52 7d 3b
       0.039824378 -0.021200933 -0.041307632 0.003865363
000070 b1 de f7 bc a1 f2 ea bd 2d a9 df bc fe bc 80 bd
       -0.030257555 -0.11472059 -0.027302349 -0.062860474
000080 4c 8a 65 be 90 d3 72 bd b2 73 3e 3d 41 e8 80 3d
       -0.22416037 -0.059283793 0.046497054 0.06294299
000090 b0 5f 16 bc b7 90 75 bd e4 fc 29 be 85 6b 59 3c
       -0.009178087 -0.059952464 -0.16600376 0.013270264
0000a0 35 bb 13 3e 99 55 1c bb b9 5c 10 bb 1b 0f 86 bc
       0.14426883 -0.002385473 -0.0022027923 -0.016364625
0000b0 10 30 4c 3d 1a 07 27 bd f3 13 8b 3d f3 96 a6 3d
       0.049850523 -0.040778257 0.067909144 0.0813426
0000c0 ea 54 1a 3c 11 c1 8e 3c f9 b5 9e 3d 5b 29 fc bc
       0.009419659 0.017426046 0.07749552 -0.030781439
0000d0 06 29 93 bd c7 d6 39 be 65 7c a5 3d 31 58 8b bc
       -0.07185559 -0.18148337 0.08080367 -0.017009826
0000e0 3c d2 02 bd 1f 0b 02 be 03 9e 17 bc fb a4 ad 3c
       -0.031938776 -0.12699555 -0.0092539815 0.021196833
0000f0 59 3d 0e be a1 6c f2 bd c8 6c d5 3c 39 ae 4f 3d
       -0.1389059 -0.118371256 0.026052848 0.05070326
000100 99 3d 73 3d 4a 97 44 3e 8b 78 6f bb e0 b3 d6 bd
       0.059384916 0.19198337 -0.0036540355 -0.10483527
000110 2e f3 c4 bd 25 5e e2 3d 19 e6 2a be f7 02 37 bc
       -0.09616695 0.11053113 -0.16689338 -0.0111701405
000120 f5 57 b1 bd 9d af 81 bb eb c2 a6 bc 86 51 33 bd
       -0.086593546 -0.0039577023 -0.020356616 -0.04377892
000130 d9 dc 24 3e 28 c3 02 be e5 2c bc bd ef 1a 42 3c
       0.16099872 -0.12769759 -0.091882505 0.011847242
000140 91 71 af bb a3 af 0c be 05 4a 2e be f5 69 3d 3c
       -0.0053541143 -0.13738875 -0.17020424 0.011560907
000150 93 ec 17 3e 9e d8 06 be c1 3b 59 be 8b 76 77 be
       0.1483634 -0.1316857 -0.212142 -0.24166314
000160 17 59 a7 3d 67 2e 12 bd 8a 00 a6 bd 3d f8 f1 3c
       0.081712894 -0.035688784 -0.081055716 0.029537315
000170 22 87 20 3c 09 f2 24 bd 2c b8 ba 3c 86 0c 81 bd
       0.009797843 -0.040269885 0.022792898 -0.06301217
000180 32 82 04 3e c4 58 32 3d 2a 00 b5 3d f1 67 84 3d
       0.1294029 0.043541685 0.08837922 0.06465138
000190 62 f5 00 bc 42 b0 c1 bd af 76 75 bd 41 55 7d bb
       -0.007871004 -0.09457447 -0.05992764 -0.0038655552
0001a0 e7 78 f3 bd ec 09 3c 3d 44 b7 69 be 4b b7 56 3e
       -0.11888295 0.0459079 -0.22823817 0.20968358
0001b0 52 66 14 3e 00 b3 b6 bc c5 5a 4c 3d d2 68 f7 bc
       0.14492157 -0.02230215 0.049891252 -0.03020135
0001c0 fb 8f 1e bc d1 66 a6 3d d0 bd de 3c 7f 64 65 bd
       -0.009677882 0.081250794 0.027190119 -0.056004044
0001d0 67 ea 13 3d ad 8b 5c bd c0 fb 0e bd da 19 11 3c
       0.036112215 -0.053844143 -0.034908056 0.008856261
0001e0 c7 47 d0 bd 6f e1 54 3e b5 9d ad 3c 98 fe 42 bd
       -0.101699404 0.20789121 0.021193365 -0.04760608
0001f0 29 f3 fb 3d a2 97 40 bb 4f 4a 17 bd 75 0e 80 3d
       0.123022385 -0.0029387255 -0.0369361 0.062527575
000200 4b 7e 45 3c 2a 1d 32 bd 21 d0 ba 3d d9 24 98 3d
       0.012054036 -0.043484844 0.09121729 0.07428903
000210 b0 f1 07 3d da a8 ba 3d 66 b5 d4 bb 1e 72 92 3d
       0.033189476 0.09114237 -0.006491351 0.071506724
000220 90 2c a3 bc 00 6c 5d 3e e3 10 85 bc 9f a4 68 bc
       -0.01991871 0.2162323 -0.016243404 -0.014199405
000230 fa 23 f0 3b ea 6d 03 bd e9 08 f6 3d 63 1a 00 3c
       0.0073285075 -0.032087244 0.12013418 0.007818791
000240 49 c5 e3 3b e6 49 1e bd ac 0a 93 3d b4 08 f6 ba
       0.0069510085 -0.038644694 0.0717977 -0.0018770904
000250 9e 07 20 3d 43 4d 89 bd fb 89 05 bc a0 9f dd 3d
       0.039069764 -0.0670419 -0.008150573 0.10821462
000260 e4 06 fb 3d bb 74 13 be a1 7a 23 3b 00 fb ef 3c
       0.12257174 -0.14399998 0.0024944919 0.02929449
000270 d3 7f 22 bc 1f 8a d9 3b 80 0f ab 3d ed 8f 29 bd
       -0.009918171 0.00663878 0.08352566 -0.041397024
000280 f9 00 11 3d d0 79 45 be cd 3d 53 3e b9 d8 f9 ba
       0.03540132 -0.19284749 0.20629044 -0.0019061781
000290 e3 a5 a1 bc 6d a1 7c bc 91 f3 bf 3d 69 4f e7 bc
       -0.019732421 -0.015419346 0.093726285 -0.028236108
0002a0 d8 b3 6e 3d b2 94 1a 3e f2 02 13 bd 5e 9b 10 bc
       0.05827698 0.15095785 -0.03589148 -0.008826105
0002b0 40 29 05 bd f2 10 cc 3c 17 82 64 3d d4 ed 6b 3c
       -0.032510042 0.024910424 0.055788126 0.014399964
0002c0 73 00 96 3d 95 9c 41 bb e5 9c a5 3c d5 bd 1d 3e
       0.073243044 -0.0029542793 0.020216415 0.15404446
0002d0 0c 47 77 3e 05 bb 15 be 81 48 c8 bd 84 33 4c bd
       0.24148196 -0.14622124 -0.09779454 -0.049853817
0002e0 f5 c9 8d bd 7c 5d 7f 3b e3 d4 a2 bc 2c 6d 61 3d
       -0.06923286 0.0038965633 -0.019876903 0.055035755
0002f0 dd f7 7e 3e 19 51 0a 3e 18 7c 4e 3c 6d bb 95 bd
       0.2489924 0.13507499 0.012602828 -0.07311139
000300 de 2a 72 bd a4 0c d7 bd 07 8e 41 3e 5e 20 b9 3a
       -0.059122913 -0.10500458 0.18901835 0.0014124026
000310 e5 78 0e 3d 56 fa 09 bd fa 14 94 3d f3 34 ca 3c
       0.034783263 -0.033686005 0.072305635 0.024683451
000320 32 d9 52 3e cf d7 96 3d 41 8c 0c bd cc c3 02 bd
       0.20590666 0.07365381 -0.034313444 -0.031925008
000330 65 33 07 3d 33 68 e1 bd bb eb 80 3c 07 6f 0e 3e
       0.033007998 -0.110062025 0.015737405 0.13909541
000340 fd 76 4f ba a5 a2 78 bd f8 5a 75 bd 0e bd 86 3d
       -0.0007914154 -0.060701985 -0.059901208 0.06579028
000350 6f a3 20 3e 9a 83 1a bc c1 49 42 3e 34 1e 2f bc
       0.15687345 -0.00943079 0.18973447 -0.010688353
000360 63 2a fd bc 04 25 50 3c 01 56 96 3c 33 59 2c 3d
       -0.030904 0.012704138 0.018351557 0.042077255
000370 04 40 4f 3e 8d 7a 06 3e 85 3a 0d 3e 55 11 6f bd
       0.20239264 0.13132687 0.13791855 -0.05836614
000380 7a 2b 6d be 85 a4 c6 3d ea da 7f 3d d5 f0 c6 bc
       -0.23161116 0.09699348 0.062464632 -0.02428476
000390 70 95 22 bb 1a 5f bb bd 9c aa 5a bd c5 ab 02 bc
       -0.002480831 -0.091489986 -0.053385362 -0.007975523
0003a0 d5 a2 b8 3d 5c 9e 17 bd 17 12 fe 3c bd 86 d5 3d
       0.09015433 -0.037016258 0.031014485 0.1042609
0003b0 92 33 6d 3b a4 d1 3d 3c 5a 68 e9 3c 78 ca 8f 3d
       0.0036194068 0.011585627 0.028492142 0.0702104
0003c0 a6 8f 92 3d f1 e5 14 3e 6e 3a 57 bd 0e 18 53 be
       0.07156305 0.1454084 -0.052545957 -0.20614645
0003d0 b3 7b 0b be 00 c3 3b 3d d0 f8 94 bc 0a c3 ef bb
       -0.13621406 0.045840263 -0.01818505 -0.0073169516
0003e0 5e 5f 63 bd dc e6 21 bb 3c 46 9b 3a 41 86 63 bc
       -0.05551087 -0.0024704253 0.0011846493 -0.013886989
0003f0 00 01 9f bd 06 f3 f7 3d 2d 1c 1a bd 5c 77 93 3d
       -0.077638626 0.121069 -0.037624527 0.072005

action_model._continuous_distribution.mu.bias f4 [2]
000000 38 09 e6 3c b3 e4 0a bd
       0.028080568 -0.03390951

action_model._discrete_distribution.branches.0.weight f4 [2, 128]
000000 62 a8 86 3d 45 68 98 3d 55 c4 e5 3a 75 3f bf 3d
       0.06575085 0.07441763 0.0017529825 0.09338275
000010 04 e2 24 bd 0e 5a d0 3c 9e 1f 8a 3d f8 29 84 3d
       -0.040254608 0.025433566 0.06744312 0.064533174
000020 c8 03 60 3d e1 46 b3 bd 14 44 b8 bc 36 4e df 3d
       0.054691106 -0.087537535 -0.0224934 0.109035894
000030 f5 97 0d be 8a d6 bb bd 73 1b 9f 3d 86 c8 13 3d
       -0.13827498 -0.091717795 0.077689074 0.036079906
000040 eb e0 41 3c a5 ce 6e 3d 8d 36 c5 3d 7b 57 d2 3c
       0.01183341 0.05830254 0.09629545 0.02567648
000050 08 64 04 3e 4b ba 53 bd 94 f3 e2 3d 77 09 c8 3d
       0.12928784 -0.051691335 0.11081615 0.0976743
000060 a4 0b d6 bd 53 7f 0c bd 7c 6e 96 3d f5 b2 f3 3c
       -0.10451439 -0.034301113 0.07345292 0.02974842
000070 c5 f6 d4 3d 40 8b 40 3d f2 e3 38 bd 51 12 1d 3d
       0.1039863 0.0470078 -0.04513926 0.038347546
000080 4a 4b 40 3d b6 ec 9c 3b b3 11 bd bc 5c 6c 8d 3c
       0.0469468 0.0047889603 -0.023079729 0.017263584
000090 67 fb 9b 3d a0 45 30 3d 3e ed 36 bd a8 b8 7b 3d
       0.076163106 0.04303515 -0.044659846 0.0614554
0000a0 49 9d ba bc 18 2e b4 3c 57 ef aa 3d 5f f9 9a 3d
       -0.022780078 0.021994635 0.08346432 0.07567095
0000b0 ea 7f ef 3d 31 1a 9e 3d b7 2a cd 3c 77 62 47 bc
       0.116943195 0.07719839 0.025044782 -0.012169472
0000c0 69 ee bf 3d 1a 9a ba 3d 53 40 75 3d 35 81 c5 bd
       0.09371645 0.09111424 0.059875797 -0.09643785
0000d0 9c 6c 88 bc ab 20 f7 3c 6e 4d 94 3d 78 63 ab 3d
       -0.016653351 0.030166944 0.07241331 0.083685815
0000e0 41 bb ee bd 74 29 52 bc 17 7d 00 3e 04 29 ca 3d
       -0.116568096 -0.012827266 0.12547718 0.09871104
0000f0 68 36 9f bd e3 e6 b4 bc c1 d8 ab 3d 00 43 38 bd
       -0.07774049 -0.022082752 0.08390952 -0.04498577
000100 f5 8d b7 3d a6 29 e8 3b 89 2f 49 bc dd 0e 3b 3d
       0.08962623 0.007085043 -0.0122794 0.04566847
000110 fb 71 79 3d b5 6d 5e bd 88 f6 e3 bd 45 44 d7 3d
       0.060899716 -0.054303844 -0.111310065 0.10511068
000120 4c fc 01 3d 07 3f 08 3e f3 e4 ee 3d a8 b1 cf 3d
       0.03173475 0.13305293 0.11664762 0.10141307
000130 ef 5d 24 3c b0 dc a4 bd 79 fd 45 3d 4c f3 ff bc
       0.010032161 -0.08049905 0.048337433 -0.031243943
000140 ad 30 05 3e 3e f6 3e 3d aa 3a 2b bd bd aa 23 3d
       0.1300685 0.046621554 -0.041803993 0.03995775
000150 4d 7e 88 bc c5 87 32 3c a2 a5 eb bd ba 65 70 bd
       -0.016661787 0.010896628 -0.11506201 -0.058690764
000160 d0 fc 42 3d 5c 31 8b 3d 8b 48 57 3d 3e d9 b2 3d
       0.047604382 0.06796524 0.052559417 0.08732842
000170 3f 9c 0c 3d 0f 6c c5 bd 73 98 6f bc 4b 62 8d 3d
       0.034328695 -0.09639751 -0.014623749 0.069035135
000180 10 85 b0 3c 23 68 cb 3d be e8 a1 3d 64 1b b3 3d
       0.021547824 0.09931972 0.0790572 0.08745459
000190 74 96 03 3e 7d 71 c8 bd 1f 13 7f 3c 29 c7 f6 3d
       0.12850362 -0.09787271 0.015568524 0.120497055
0001a0 5e 77 ee bc ec 0a b0 3d e7 b6 97 3a da cf 0d bd
       -0.029109653 0.08595833 0.0011574895 -0.03462205
0001b0 85 39 54 3d 70 1a a6 3d df c1 28 3e ff 8e 0c bd
       0.051812667 0.08110511 0.16480206 -0.03431606
0001c0 5c 77 19 bd dc 3b d1 3c 04 94 60 3d a2 46 85 bd
       -0.037467346 0.025541238 0.05482866 -0.06507613
0001d0 8d ad 9c 3c 34 b3 06 be 64 18 02 3e 81 d5 1a 3e
       0.019125724 -0.13154298 0.12704617 0.15120508
0001e0 20 f0 19 3d a6 41 8c bc fa 0c 08 3e 9a d8 04 3d
       0.037582517 -0.017121147 0.132862 0.03243313
0001f0 f5 b5 58 bc c0 63 ff 3c ca 91 d4 3d f5 86 3a 3d
       -0.013226976 0.031175494 0.103793696 0.04553886
000200 7e cc c5 bd ef 2f 92 bd bd 7b 98 ba f5 54 c7 bd
       -0.096581444 -0.07138049 -0.0011633557 -0.09733001
000210 d9 17 5d 3d 7a ed 0d bd a2 12 4a bd b3 85 93 bd
       0.05397782 -0.034650303 -0.049334176 -0.072032355
000220 15 02 88 bd b1 e8 ac 3d 83 86 2b 3c b0 69 ee bd
       -0.06641022 0.0844282 0.010469082 -0.11641252
000230 f8 68 0f 3e 0e 20 c5 3d 60 16 85 bd c4 23 f9 bc
       0.14004886 0.096252546 -0.06498408 -0.030412562
000240 dc 0c 25 bd 9c 43 92 bd 81 4e 87 bd c3 ad 1c bd
       -0.040295467 -0.07141802 -0.0660677 -0.03825165
000250 01 da 0a be b3 fd 74 3d f6 36 df bd 97 95 bd bd
       -0.13559724 0.05981226 -0.10899155 -0.092570476
000260 e2 be c6 3d 08 14 33 3d ed d0 ae bd cc 37 46 bd
       0.09704377 0.043720275 -0.08535943 -0.048393056
000270 28 69 b3 bd 5f 19 56 bd e1 e8 6e 3d 94 4c 40 bd
       -0.08760291 -0.05227029 0.05832756 -0.04694803
000280 35 90 1f bd 7a 36 83 ba 9a 93 ca 3c bb ee 85 bc
       -0.038955886 -0.0010010742 0.024728585 -0.016349187
000290 02 bc af bd 1d f3 1f bd 08 77 50 3d 78 b8 b4 bd
       -0.085807815 -0.03905021 0.050894767 -0.08824247
0002a0 24 3c 91 3c 4a bb 2b bc 6e 22 c1 bd 60 af 8e bd
       0.017728873 -0.010481665 -0.09430395 -0.06967044
0002b0 6e f8 03 be f8 47 d5 bd 20 7d 20 bd d4 6f 6b 3c
       -0.12887737 -0.104141176 -0.03918183 0.014369924
0002c0 d0 63 c7 bd 8f 6c 97 bd a7 64 8d bd f7 9a c8 3d
       -0.097358346 -0.07393753 -0.069039635 0.09795182
0002d0 fb b7 d0 3c 34 f8 62 bd b2 fe 96 bd 1e 99 b3 bd
       0.025478354 -0.055412486 -0.07372798 -0.08769439
0002e0 80 c0 c2 3d f6 d6 8a 3c 8c 39 ec bd a0 b7 b6 bd
       0.09509373 0.016948204 -0.11534414 -0.089217424
0002f0 a8 2b a1 3d 0e 2b 6c 3c 66 bb b7 bd 4f a6 46 3d
       0.07869655 0.014414562 -0.0897129 0.048498448
000300 2d 5b a9 bd 85 cf 66 bc d0 f9 b5 bb 7d 31 18 bd
       -0.082693435 -0.014087562 -0.0055534616 -0.03715657
000310 2e 3c 81 bd 23 22 88 3d 1a 58 ba 3d 50 94 d2 bd
       -0.063103065 0.06647136 0.09098835 -0.102821946
000320 04 76 0b bd f0 95 08 be 4b 6d ee bd 3e 86 c7 bd
       -0.034048095 -0.13338447 -0.1164194 -0.097424015
000330 71 14 9d bc 96 22 82 3d cc a8 4e bd cf 17 c8 3c
       -0.019174786 0.06354253 -0.050453946 0.024425415
000340 12 2f 01 be 22 9d 2d bd dd 4f 99 3d 8d 89 59 bc
       -0.12615612 -0.04238618 0.07485936 -0.013277424
000350 b0 41 84 3c 12 8e a0 bc 21 e4 d4 3d 0c b6 22 3d
       0.016144603 -0.019598994 0.10395075 0.039724395
000360 25 fb 53 bd 42 34 85 bd 44 27 61 bd 7b b3 be bd
       -0.051753182 -0.06504108 -0.054969087 -0.09311577
000370 6d d3 f6 bc f0 e2 ac 3d 2c cc c9 3b 82 90 87 bd
       -0.030130113 0.084417224 0.0061583724 -0.066193596
000380 2d b4 ea bc 06 32 bd bd 32 46 a3 bd 9d 8f b1 bd
       -0.028650368 -0.09238057 -0.07972373 -0.0866997
000390 09 2f ea bd a7 99 ce 3d 95 1c 13 bc c4 8c e6 bd
       -0.114347525 0.100879006 -0.008978982 -0.11257318
0003a0 4a e9 6a 3c d6 13 b0 bd df 96 21 bc 2f 02 42 3c
       0.014337847 -0.085975334 -0.009862631 0.011841341
0003b0 7d 68 9d bd 70 24 72 bd 6b 3c 18 be 86 e2 5f 3d
       -0.07685945 -0.05911678 -0.14866798 0.05465939
0003c0 58 b9 1c 3d 2e 0b f3 bc 9f 39 23 bd 7b d3 83 3d
       0.038262695 -0.029668417 -0.039849874 0.06436821
0003d0 9f fa 3f bc 6b 1f fc 3d f8 67 dc bd f6 42 1b be
       -0.011717468 0.1231068 -0.10762018 -0.15162262
0003e0 c6 34 76 bc 5f a2 28 3c f8 c8 03 be bf 3b 1e bd
       -0.015027231 0.010292619 -0.12869632 -0.038631197
0003f0 76 e1 9d 3c 2e 9a 09 bd 93 17 c2 bd 7e 44 58 bd
       0.019272547 -0.033594303 -0.09477153 -0.052799694

action_model._discrete_distribution.branches.0.bias f4 [2]
000000 3b 94 23 3c c4 93 23 bc
       0.009984071 -0.009983961

exp_avg f4 [128, 10]
000000 b6 4e f8 37 c5 b1 fc b7 82 20 2d 3a 97 40 be 39
       2.9600556e-05 -3.0123521e-05 0.00066042703 0.00036287747
000010 00 00 00 00 1d 8f 63 39 d8 ae 74 38 95 ae 2d b9
       0.0 0.00021701721 5.833697e-05 -0.00016563603
000020 fc fc ae 37 f7 2f 79 b9 b4 a5 4d b8 70 c2 02 b9
       2.0860221e-05 -0.00023764359 -4.903013e-05 -0.000124702
000030 1b b5 03 3a 2f 40 73 b9 00 00 00 00 96 8c 90 3a
       0.000502424 -0.00023198196 0.0 0.0011028226
000040 85 ee 4c b9 71 0e ce b9 41 2f db b8 4f cb e0 b9
       -0.00019543812 -0.00039302142 -0.000104515355 -0.00042876086
000050 e0 a7 99 39 6e c2 fd 38 d9 27 f3 b9 4e 7a c8 39
       0.0002930751 0.000121001955 -0.0004637826 0.00038238097
000060 00 00 00 00 56 0b 57 b9 e4 34 59 39 b8 10 4d 3a
       0.0 -0.00020508221 0.00020714436 0.00078226207
000070 7b 2d e8 39 14 33 94 b9 85 da 5b b9 ff 6b 72 38
       0.00044284374 -0.00028266816 -0.00020966872 5.7797875e-05
000080 5f f2 c8 38 fe 80 59 39 00 00 00 00 9d 11 d4 39
       9.581888e-05 0.00020742786 0.0 0.00040448914
000090 2f 99 3b b8 b7 9e b8 b9 90 5f 84 b8 3e aa 16 b9
       -4.4726938e-05 -0.00035213467 -6.3120504e-05 -0.00014368535
0000a0 2f 4a f9 39 ff ed cc 39 26 46 93 b9 fe 42 d6 3a
       0.00047548252 0.00039087233 -0.0002809029 0.001634687
0000b0 00 00 00 00 5d 80 34 ba 05 1e 02 3a df 8e 0a 3a
       0.0 -0.00068855827 0.00049635797 0.00052855717
0000c0 16 4c ee 39 e1 b0 bf 39 9b 14 9b 39 fc 6d dd b8
       0.00045451586 0.00036562144 0.00029579256 -0.000105585874
0000d0 a8 da a0 b9 b5 5e 95 b9 00 00 00 00 7b 09 da 38
       -0.0003068049 -0.00028490057 0.0 0.00010396816
0000e0 ac ea 97 b7 ec b9 41 b8 ef 5b ef b8 b4 cc 8a b9
       -1.810988e-05 -4.618794e-05 -0.00011413532 -0.00026473927
0000f0 00 16 4b b8 dd 46 3c 38 a5 28 1b ba a5 39 cf b8
       -4.841946e-05 4.488869e-05 -0.0005918837 -9.881266e-05
000100 00 00 00 00 cf 23 92 ba 69 58 66 b8 bb 04 1e b8
       0.0 -0.0011149588 -5.491861e-05 -3.767454e-05
000110 c7 20 0b b8 ec 95 8f 37 ae 4b c0 b9 de 7b 1e 39
       -3.317071e-05 1.7116741e-05 -0.0003667748 0.00015114198
000120 4d 7f 37 ba c0 bc 80 b9 00 00 00 00 9e 8f 06 ba
       -0.0006999865 -0.00024554692 0.0 -0.0005133095
000130 19 f8 e7 38 c6 bc fc b8 ff a2 ce 38 93 52 d2 38
       0.0001106115 -0.00012051458 9.853206e-05 0.00010028961
000140 af 77 b6 39 dd 6d aa b8 e8 d7 24 ba e8 d8 8b b8
       0.00034802916 -8.126695e-05 -0.0006288276 -6.6684384e-05
000150 00 00 00 00 7e 9d ac ba 80 c4 e3 b8 02 7c 71 39
       0.0 -0.0013169495 -0.000108608045 0.00023029748
000160 67 bc 50 b9 ba 80 1a 38 72 7c 9c 38 c7 fe 90 37
       -0.00019906611 3.6836347e-05 7.4618394e-05 1.7284778e-05
000170 11 60 20 39 0f 27 27 39 00 00 00 00 24 bb fa 39
       0.00015294577 0.00015940912 0.0 0.00047823146
000180 1f eb 8d 37 15 2c 05 39 9c 20 9d b8 d2 24 03 38
       1.6917997e-05 0.0001270029 -7.492417e-05 3.1267125e-05
000190 22 a9 76 39 4c 6c 5d 38 9f 7f 27 b8 09 4c 33 b7
       0.00023523395 5.2791365e-05 -3.993476e-05 -1.0686935e-05
0001a0 00 00 00 00 ab 93 32 3a 60 09 84 b8 05 0c de 39
       0.0 0.00068121654 -6.295997e-05 0.00042352095
0001b0 20 24 10 b9 8c 72 98 b8 d8 b2 5e 3a 47 0b 8c b7
       -0.00013746368 -7.269261e-05 0.0008495278 -1.6694552e-05
0001c0 77 38 b1 38 49 ad 1b 3a 00 00 00 00 2f bd 57 39
       8.450535e-05 0.0005938602 0.0 0.00020574474
0001d0 ce ba 6d b8 6d 3f fb 38 5a bd 27 b9 73 77 a9 b7
       -5.667918e-05 0.00011980427 -0.000159969 -2.0201993e-05
0001e0 48 19 da 39 9a 6f 49 b8 c0 e1 62 ba 99 9f 5f 3a
       0.00041599036 -4.802607e-05 -0.0008654855 0.0008530557
0001f0 00 00 00 00 91 e7 d9 ba 7d 05 57 b9 28 de 3b b9
       0.0 -0.0016624798 -0.00020506042 -0.0001791647
000200 c5 5d 26 b9 24 a0 1d 3a 9c 41 4d 38 74 33 25 b7
       -0.00015865926 0.00060129375 4.8936912e-05 -9.846746e-06
000210 4a a7 39 39 58 40 39 39 00 00 00 00 ba 48 04 3a
       0.00017705295 0.00017666945 0.0 0.00050462375
000220 80 a5 bd 38 66 6d 85 b9 68 16 9b 38 e9 0f 44 b8
       9.043049e-05 -0.00025449245 7.3951494e-05 -4.674486e-05
000230 9b e4 ea b7 65 eb d1 36 1a 80 b6 b9 ad 81 43 b9
       -2.8001426e-05 6.256089e-06 -0.00034809188 -0.00018644957
000240 00 00 00 00 12 a4 2d ba b9 03 34 38 4d 0e b9 b8
       0.0 -0.00066238747 4.291881e-05 -8.824151e-05
000250 ec 6d b5 37 03 dd fa 35 db 50 ed b7 49 13 9c 38
       2.1628068e-05 1.8690774e-06 -2.8290253e-05 7.442252e-05
000260 1c 98 a1 b9 a8 8f ce 39 00 00 00 00 05 2c 0d ba
       -0.00030821643 0.00039398414 0.0 -0.00053852826
000270 f1 2c 26 39 99 5c 8e b9 c4 fe 30 39 c2 43 30 b9
       0.00015847736 -0.0002715334 0.00016879576 -0.0001680991
000280 2d 2d 34 39 06 8c c7 b8 9b bb 74 b8 47 d6 c9 b9
       0.00017182967 -9.515141e-05 -5.8348855e-05 -0.00038497357
000290 00 00 00 00 33 70 1e 39 f6 44 14 b9 a7 c5 89 b9
       0.0 0.00015109852 -0.0001414007 -0.0002627794
0002a0 77 97 d3 b8 28 4f 5a ba 50 1f 08 ba d4 fe 1d b8
       -0.000100894766 -0.0008327835 -0.0005192654 -3.7669044e-05
0002b0 6e 8a 01 b8 f3 aa 84 b9 00 00 00 00 7f 88 48 38
       -3.088492e-05 -0.0002530437 0.0 4.7810838e-05
0002c0 9e 40 64 b9 13 fb f3 b9 eb 9f e4 b8 3e f8 31 39
       -0.00021767846 -0.00046535637 -0.00010901674 0.00016972513
0002d0 f4 ab 8b ba 34 2a 77 b9 4e 4d 61 b9 f6 c1 63 ba
       -0.0010656104 -0.00023571478 -0.0002148647 -0.0008688265
0002e0 00 00 00 00 78 c3 ba b7 e0 06 15 ba 87 de 33 ba
       0.0 -2.226395e-05 -0.00056849234 -0.0006861467
0002f0 86 4b dd b9 02 b4 d6 b9 5d 19 f4 39 02 df 3e 39
       -0.00042208674 -0.00040951377 0.00046558204 0.00018202889
000300 b4 0d 31 ba b7 56 12 39 00 00 00 00 97 43 86 ba
       -0.0006754056 0.00013955949 0.0 -0.0010243532
000310 cd e9 55 39 18 c7 de 39 55 c4 22 39 f5 2a 67 38
       0.0002040036 0.00042491476 0.00015522663 5.51147e-05
000320 12 b2 a6 b9 58 07 80 38 d4 48 13 b8 18 38 e3 b9
       -0.0003179466 6.1048835e-05 -3.5115358e-05 -0.00043338607
000330 00 00 00 00 5f 83 cf b7 42 a7 49 37 65 4b 22 b9
       0.0 -2.4737497e-05 1.2019476e-05 -0.0001547761
000340 72 b7 8e 38 b4 f9 38 b8 b7 54 48 39 f9 b9 24 39
       6.805257e-05 -4.4101573e-05 0.00019105045 0.00015709539
000350 ff 3f 5f ba fd 61 2c 3a 00 00 00 00 22 52 27 ba
       -0.0008516311 0.00065758807 0.0 -0.0006382783
000360 13 be bf 38 93 97 a0 b9 9e aa 8b b8 61 f6 26 39
       9.142994e-05 -0.0003063051 -6.6598164e-05 0.00015922777
000370 f8 c6 9c b9 21 1c bf 38 8b 79 b7 b8 80 a7 fd 39
       -0.00029902882 9.112829e-05 -8.748759e-05 0.00048380718
000380 00 00 00 00 ff 68 36 b9 94 2e ef 38 6c 54 b7 b9
       0.0 -0.00017395987 0.00011405084 -0.0003496738
000390 24 e0 e5 38 2f b0 7e 39 96 0a d3 b8 10 45 ea 38
       0.000109613204 0.00024288961 -0.00010063236 0.000111708534
0003a0 f2 9d f0 39 71 04 7a b9 00 00 00 00 d4 f2 2a 3a
       0.00045894046 -0.00023843512 0.0 0.00065211696
0003b0 bd bf 6d 38 ec d1 97 38 61 d9 20 b9 06 3c 61 b6
       5.6683773e-05 7.239342e-05 -0.00015339769 -3.356255e-06
0003c0 81 80 2f ba 3f 76 36 39 54 9f 42 39 83 97 50 ba
       -0.0006694869 0.00017400923 0.00018560636 -0.00079571473
0003d0 00 00 00 00 94 fc 27 3a 9e 0b 14 39 7f 45 47 b8
       0.0 0.00064081815 0.00014118708 -4.751002e-05
0003e0 98 e5 db 38 81 90 c9 b9 39 24 a4 38 6a 2b 08 39
       0.00010485499 -0.0003844537 7.8268764e-05 0.00012986144
0003f0 9d 72 85 ba 7b cb 42 3a 00 00 00 00 95 df 81 ba
       -0.0010181252 0.00074308336 0.0 -0.0009908552

exp_avg_sq f4 [128, 10]
000000 73 ac 83 37 b1 51 60 35 34 a9 2a 37 12 a8 d6 37
       1.569672e-05 8.356538e-07 1.0172185e-05 2.5589052e-05
000010 00 00 00 00 db 6b a6 37 2b 38 cb 33 b1 3d a1 35
       0.0 1.9838966e-05 9.463141e-08 1.2013389e-06
000020 15 9e 85 34 44 a4 ca 34 e5 02 3c 37 e3 0a 2c 35
       2.48882e-07 3.774495e-07 1.1206347e-05 6.4090835e-07
000030 7c 38 2c 37 3d f9 9c 37 00 00 00 00 0c 53 91 37
       1.026515e-05 1.871271e-05 0.0 1.7324019e-05
000040 a8 29 be 33 4d 0f b6 35 b4 a9 bf 35 4c 75 0f 35
       8.855142e-08 1.356451e-06 1.4279999e-06 5.344234e-07
000050 3f 8d 1d 37 35 e3 fb 34 81 21 f9 36 94 64 6c 37
       9.390816e-06 4.6917708e-07 7.4246786e-06 1.4090114e-05
000060 00 00 00 00 f5 62 2a 37 4a 89 b1 34 ec 23 b5 36
       0.0 1.015583e-05 3.306871e-07 5.398402e-06
000070 95 c5 a0 36 af 65 16 36 3a 0e 35 37 fb 24 1f 35
       4.791373e-06 2.241093e-06 1.0791753e-05 5.928593e-07
000080 6a 9f 17 37 3f ff 8d 37 00 00 00 00 bd b3 79 37
       9.037418e-06 1.6927368e-05 0.0 1.4883405e-05
000090 f8 60 90 33 11 90 40 35 93 e2 f6 33 8d 68 af 34
       6.723161e-08 7.173522e-07 1.1496481e-07 3.267236e-07
0000a0 85 ce 6d 37 c8 55 5f 35 6c 34 52 37 e4 d7 d2 37
       1.4174385e-05 8.31988e-07 1.2529181e-05 2.5134483e-05
0000b0 00 00 00 00 92 87 ca 37 ed 17 27 35 03 e2 ba 36
       0.0 2.4143406e-05 6.2247165e-07 5.569543e-06
0000c0 c0 91 3f 35 1e 4a 32 36 2f a3 47 36 cf eb 83 34
       7.136514e-07 2.6567209e-06 2.9748296e-06 2.4572225e-07
0000d0 a1 14 2d 36 bf 88 b5 36 00 00 00 00 91 e8 9c 36
       2.5791016e-06 5.4101397e-06 0.0 4.6762366e-06
0000e0 9c 2a d2 33 2a e8 6f 35 80 ea 0c 35 0b b0 12 35
       9.7866376e-08 8.937228e-07 5.2495307e-07 5.4645415e-07
0000f0 95 71 36 37 d7 e7 01 35 ce 6c 95 36 fc 67 a1 37
       1.0874491e-05 4.8393616e-07 4.4532126e-06 1.9241117e-05
000100 00 00 00 00 2e 27 e9 36 26 6c 5e 33 02 cd c2 34
       0.0 6.9485022e-06 5.1786763e-08 3.628448e-07
000110 5f d5 7a 33 26 f5 46 34 c0 8b b6 36 cd 42 cf 34
       5.840172e-08 1.8529371e-07 5.4402917e-06 3.8605359e-07
000120 2e ab 10 37 37 23 19 37 00 00 00 00 23 15 53 37
       8.622925e-06 9.12771e-06 0.0 1.2581501e-05
000130 4e 50 20 34 b4 52 98 35 8c 6b 4d 34 d9 10 15 35
       1.4930376e-07 1.1348952e-06 1.9131238e-07 5.553134e-07
000140 0a 21 88 36 dc c1 5a 34 92 3c 0e 36 e9 06 d8 36
       4.056962e-06 2.0373358e-07 2.1194905e-06 6.438106e-06
000150 00 00 00 00 08 46 63 36 b5 28 86 33 c7 e6 07 35
       0.0 3.38664e-06 6.247266e-08 5.0627244e-07
000160 1e 45 da 34 d1 76 84 34 e9 b9 38 36 71 34 3d 34
       4.0655954e-07 2.4673366e-07 2.752635e-06 1.7621075e-07
000170 ba 9d 17 36 79 b1 a2 36 00 00 00 00 a7 48 63 36
       2.2592562e-06 4.8486368e-06 0.0 3.3867925e-06
000180 c4 19 08 33 43 06 ba 34 74 df 8b 35 06 e7 03 34
       3.16884e-08 3.4649756e-07 1.042134e-06 1.2284372e-07
000190 01 43 83 36 2d 5c 86 34 be 72 5a 36 31 43 de 36
       3.9119045e-06 2.5026512e-07 3.255132e-06 6.6239377e-06
0001a0 00 00 00 00 70 16 b7 36 4e 31 ba 33 85 77 76 35
       0.0 5.456437e-06 8.6702684e-08 9.1816065e-07
0001b0 a6 fb 33 36 87 5d b8 34 e7 68 d1 36 c0 f0 c0 34
       2.6819557e-06 3.434072e-07 6.2408976e-06 3.5937956e-07
0001c0 3e 3a 99 36 c0 73 2b 37 00 00 00 00 61 b2 01 37
       4.5665356e-06 1.0219344e-05 0.0 7.730531e-06
0001d0 7e 64 c9 32 8c bf 7a 34 d0 57 43 35 c8 a0 e4 33
       2.3445178e-08 2.3352749e-07 7.2770945e-07 1.0646323e-07
0001e0 48 dd 3f 37 da f6 2d 35 9d 4b 02 37 23 d5 b4 37
       1.1436008e-05 6.480674e-07 7.766209e-06 2.1556922e-05
0001f0 00 00 00 00 ac be 66 37 dc 0e 81 34 9a bd e2 35
       0.0 1.3753463e-05 2.4038934e-07 1.6893493e-06
000200 4c cf 7d 34 75 e8 51 35 71 81 b5 35 88 30 bd 33
       2.3637875e-07 7.8196837e-07 1.3523223e-06 8.809826e-08
000210 4b 22 e7 35 bb 40 2a 36 00 00 00 00 88 10 24 36
       1.7220822e-06 2.5369652e-06 0.0 2.4447527e-06
000220 4a 97 90 33 1d c1 f1 34 aa b2 bc 33 95 77 a6 34
       6.733042e-08 4.5030257e-07 8.786931e-08 3.1006917e-07
000230 56 d9 32 36 5a 7e 2c 34 8a 0c 21 36 f8 b3 98 36
       2.6650573e-06 1.6064715e-07 2.3998168e-06 4.550904e-06
000240 00 00 00 00 b5 98 76 36 3e 7d 45 33 96 bb 36 35
       0.0 3.6745744e-06 4.5981544e-08 6.8073257e-07
000250 60 bf 44 34 8c fc a7 34 01 91 62 36 a4 66 0d 34
       1.8323544e-07 3.1289926e-07 3.3761028e-06 1.3168989e-07
000260 df ea ba 35 88 0d 87 36 00 00 00 00 24 4b 1e 36
       1.3926436e-06 4.0248888e-06 0.0 2.3587572e-06
000270 b7 3d 1f 34 4a 27 07 36 36 51 a3 34 51 c7 21 35
       1.483048e-07 2.0139437e-06 3.0420205e-07 6.026722e-07
000280 7f 04 33 37 7c ee 34 35 cd 24 66 37 50 54 8a 37
       1.0670278e-05 6.7402266e-07 1.3717637e-05 1.6490143e-05
000290 00 00 00 00 70 c4 a8 37 00 0a 88 34 de bb 6c 36
       0.0 2.0118634e-05 2.533925e-07 3.5276094e-06
0002a0 aa 08 41 35 a0 de d6 35 27 53 3f 37 62 a2 3e 35
       7.191071e-07 1.6009035e-06 1.1403848e-05 7.1016814e-07
0002b0 a8 b8 07 37 a9 7c a4 37 00 00 00 00 b9 0d 72 37
       8.089621e-06 1.9608373e-05 0.0 1.4427519e-05
0002c0 61 30 f2 33 e4 97 a3 35 99 5b b3 34 40 a8 fc 34
       1.1277803e-07 1.2188652e-06 3.3407994e-07 4.7061076e-07
0002d0 27 49 81 37 81 b0 44 35 e6 0f e8 36 fe aa af 37
       1.5412063e-05 7.3272537e-07 6.9159896e-06 2.094125e-05
0002e0 00 00 00 00 59 69 55 37 1c c3 3f 35 f6 25 08 37
       0.0 1.27203175e-05 7.1436966e-07 8.11507e-06
0002f0 e7 1c 3d 35 f7 9f 60 36 48 66 ab 36 4f 47 70 34
       7.0450045e-07 3.3471713e-06 5.1081042e-06 2.2377684e-07
000300 04 2c 69 36 ec 62 cd 36 00 00 00 00 e1 fb b3 36
       3.4745326e-06 6.120992e-06 0.0 5.3639383e-06
000310 16 8f 07 34 5c da 10 36 0e d7 c9 35 64 22 5b 35
       1.2624909e-07 2.1584774e-06 1.5038256e-06 8.16339e-07
000320 34 46 15 35 69 0c 18 33 55 c9 fc 34 44 a1 96 35
       5.5608984e-07 3.5401545e-08 4.7085146e-07 1.1222805e-06
000330 00 00 00 00 53 54 3d 35 19 37 c1 32 34 de 51 34
       0.0 7.0530695e-07 2.2493213e-08 1.9545479e-07
000340 16 22 a5 33 7d 8d e1 33 ca 64 93 36 06 52 a3 34
       7.6896114e-08 1.05031155e-07 4.392675e-06 3.0420796e-07
000350 cc 9d 6f 36 c9 74 11 37 00 00 00 00 65 27 f2 36
       3.5705625e-06 8.669865e-06 0.0 7.216748e-06
000360 bb c7 f9 33 c8 d4 5e 35 58 c4 94 35 4d 1c 2e 35
       1.1631297e-07 8.301108e-07 1.1084003e-06 6.4861234e-07
000370 d8 12 41 37 1a ad 3c 35 1e 7d 30 37 ec c9 b3 37
       1.1508084e-05 7.0287354e-07 1.0519549e-05 2.143249e-05
000380 00 00 00 00 eb 8f 9c 37 cd af 4e 34 43 81 a6 35
       0.0 1.8663666e-05 1.9249201e-07 1.2405584e-06
000390 34 09 6b 34 38 92 16 35 ec 20 ca 36 b1 34 ba 34
       2.1889429e-07 5.609213e-07 6.0239017e-06 3.4683538e-07
0003a0 c3 51 44 36 74 d6 42 37 00 00 00 00 94 4a a8 36
       2.9253868e-06 1.1613232e-05 0.0 5.015472e-06
0003b0 60 d7 89 33 b8 23 37 35 5f 68 43 35 ef 40 95 34
       6.418736e-08 6.822479e-07 7.279504e-07 2.7800658e-07
0003c0 f2 9f 4b 37 54 8f 27 35 5e ad e0 36 98 12 b0 37
       1.2136983e-05 6.242092e-07 6.695903e-06 2.0989493e-05
0003d0 00 00 00 00 dc 98 34 37 fb e6 0f 34 ad 18 d2 35
       0.0 1.0764426e-05 1.3401943e-07 1.5653401e-06
0003e0 68 4a 49 34 24 06 3f 35 d8 d1 e9 36 8b 7f d4 34
       1.8746653e-07 7.116198e-07 6.96837e-06 3.9580877e-07
0003f0 d2 29 ee 36 a3 55 37 37 00 00 00 00 90 ca 29 37
       7.0978213e-06 1.0927589e-05 0.0 1.0120348e-05
