ML-Agents/Examples/results/SphereHunt/SphereHunt/SphereHunt-19499996.onnx (onnx, 80822 bytes, 9 tensors)

network_body._body_endoder.seq_layers.0.weight f4 [128, 10]
000000 cd 0c 5e 3e 65 1e 94 3d 7d 6d 24 be 50 d7 4b 3d
       0.2168457 0.0723236 -0.16057391 0.049765885
000010 62 d7 b6 be cf 45 71 3e ec 62 05 bf 80 0f 28 be
       -0.357112 0.23561786 -0.5210407 -0.16412163
000020 f6 98 5f bc f6 0c 40 3e d4 23 59 3e 9a b1 31 3e
       -0.013647309 0.18754944 0.21205074 0.17352906
000030 e0 c1 86 3e a1 05 bf 3c 18 c1 3b 3e 2e a6 9e be
       0.2631979 0.023318114 0.18335378 -0.3098616
000040 b4 df 52 bf ea 0f 83 3d e7 3a 8d be 36 20 47 3d
       -0.82372594 0.0639952 -0.27584 0.048614703
000050 c6 fc e4 3d 90 58 94 be 1f 00 78 be 0d 48 5d be
       0.11181025 -0.28973818 -0.24218796 -0.21609516
000060 a8 c7 a2 bc 99 2e 70 be b4 0a 85 3e 20 e3 06 3f
       -0.019870594 -0.23455276 0.25984728 0.52690315
000070 e1 d0 f5 3d 0f b8 0d 3f 5b 9e d5 3d aa 8b 52 be
       0.12002731 0.55358976 0.104305945 -0.2056109
000080 c7 a7 4d 3f 92 83 35 3e 3d 10 37 be 8c 1d 02 bf
       0.8033413 0.17725971 -0.17877288 -0.50826335
000090 d0 05 e0 bc 18 31 90 be 0f be 2c bc ea 4f e5 3e
       -0.027346522 -0.28162456 -0.01054336 0.44787532
0000a0 65 56 87 bd 36 5a b3 be 66 25 6e 3e f5 a8 d2 3d
       -0.06608275 -0.35029763 0.23256454 0.10286132
0000b0 10 79 87 3c 21 98 e2 be f0 57 38 3f 90 bb 05 bc
       0.01653722 -0.4425669 0.7200918 -0.008162394
0000c0 3b 0a 3b 3f 1a 2f 9a 39 ce 03 09 bf cf 81 a8 3e
       0.73062485 0.00029408262 -0.5352143 0.32911536
0000d0 dd 93 1c 3f 0d a8 63 3d 3f 3e bb ba 98 26 d5 bd
       0.6116312 0.055580188 -0.0014285519 -0.10407752
0000e0 1f ca fa 3b 25 8b 97 3e 0a 29 0a be c7 9e 69 be
       0.0076534892 0.29598346 -0.13492218 -0.22814475
0000f0 d7 69 1b bf b9 7d 86 be 85 ff d2 bd ab fb 76 3d
       -0.60708374 -0.26267794 -0.10302643 0.060298603
000100 c2 ab ae be f0 3f 80 3e c2 9a dc 3e a0 62 4e be
       -0.34115416 0.2504878 0.4308682 -0.2015481
000110 36 92 19 3f 69 c4 6f 3e da 0d a9 be 4e 3b 58 be
       0.59988725 0.23414768 -0.3301838 -0.21116373
000120 a0 fa 72 bf 39 25 2b 3f 6f 3f 77 bc 00 b8 4b 3e
       -0.94913673 0.6685367 -0.015090807 0.19894409
000130 56 26 0d 3f ec 27 f5 bd f3 1e dc 3d 9b 31 2c 3e
       0.5513662 -0.11970505 0.107480906 0.16815798
000140 9c fb 4b bf 20 99 67 be 41 51 98 3e 93 d9 fb 3d
       -0.796808 -0.22617006 0.29749492 0.12297358
000150 31 59 e3 3e 38 3a ed 3e d4 f7 d2 3e bb d2 61 bd
       0.44403985 0.4633348 0.41204703 -0.05513261
000160 77 f0 2e bd 2f ff 4b 3d 98 b3 a9 3d aa d4 6b be
       -0.042709794 0.04980391 0.08286208 -0.23030344
000170 ed 8a 73 3e 8c 56 01 3d f3 20 3b be c1 e7 8d be
       0.23783465 0.03157668 -0.18274288 -0.27715877
000180 30 f1 81 be 2a a0 02 bf 20 1a 9c be fb f2 92 3d
       -0.25379324 -0.5102564 -0.30488682 0.07175251
000190 37 da 38 3e 24 06 7c 3d 7f 9d a9 3e 6a 6e c1 3d
       0.18051992 0.061529294 0.33127972 0.09444888
0001a0 f9 2e 10 3f 7a 92 29 be 36 cf 9f be 62 a3 1d bf
       0.56321675 -0.16559783 -0.31212777 -0.6157743
0001b0 28 61 90 be 27 69 7d be 1f 2a ca be fb 2a 03 3e
       -0.28199124 -0.24747144 -0.3948526 0.12809364
0001c0 89 1d cf bd 06 2f e4 3e 2a f4 90 3d 2e 24 59 3e
       -0.10113055 0.44567126 0.070778206 0.21205208
0001d0 ac 96 75 bd 91 b3 9d bd 48 f7 27 be 0e 2c b8 bd
       -0.059958145 -0.07700265 -0.16402924 -0.08992778
0001e0 22 a7 84 be a6 b0 9e 3e 79 2b b9 bd da 86 90 3e
       -0.25908762 0.30994147 -0.09041495 0.28227884
0001f0 db 90 61 3e 3c 93 36 3e 70 63 57 3f 8c ab b9 3c
       0.22027914 0.17829603 0.84136105 0.022664808
000200 58 a1 1b 3f 5d d2 37 3e 20 54 4f bd a3 24 52 be
       0.60793066 0.17951341 -0.050617337 -0.20521788
000210 c8 5c b2 be 5a ad 15 3e 95 b2 8f 3e 65 41 c6 be
       -0.3483641 0.1461691 0.28065935 -0.38721767
000220 35 af 07 be 23 c4 50 bf 89 90 6e 3e 68 d7 09 3e
       -0.1325043 -0.8154928 0.23297323 0.13461077
000230 d9 95 94 3d 36 d2 c0 3d bf 16 83 be 3d 40 25 b9
       0.07255144 0.094150946 -0.2560329 -0.00015759557
000240 1a cd b9 3c c1 17 20 bd 7a 13 04 bd 5b 26 bb 3d
       0.022680808 -0.039085153 -0.032245137 0.09138175
000250 6f 4a 58 be ed c4 e3 bd 77 36 1a 3e 65 27 89 3e
       -0.21122144 -0.11121545 0.15059839 0.26787868
000260 1e 90 5f be 34 ac c4 3e c3 10 e7 3d 02 57 e8 bd
       -0.2183232 0.3841263 0.11282494 -0.113447204
000270 3a 50 5c be 90 c7 7e be 0c d3 1d bd 19 83 75 3e
       -0.21514979 -0.24880815 -0.038531348 0.23975791
000280 74 28 15 3e dc 0b 1f bf ad dc d4 be 45 68 e2 bd
       0.14566213 -0.6212747 -0.41574612 -0.11055044
000290 f1 b6 88 3e 25 4d cf be 85 3b fb be 84 64 90 3e
       0.26702073 -0.40488544 -0.49068847 0.28201687
0002a0 87 8d 9d be 78 ef eb 3e 3e 85 1b 3e 47 1f 10 3e
       -0.3077204 0.46081138 0.15187547 0.14074431
0002b0 37 4e bd 3e 2d 35 35 be 66 d4 87 be 80 9a 4f be
       0.36973736 -0.17696066 -0.26529235 -0.20273781
0002c0 77 dd e2 3e 54 55 99 bd 7a d6 0a bd 9a e7 f3 be
       0.4430959 -0.07486978 -0.033895947 -0.47637635
0002d0 e4 79 70 3e 43 6d 5c bc a4 79 1a 3f 45 f8 dd 3c
       0.23483998 -0.013453784 0.6034186 0.027095923
0002e0 a9 90 57 bf c8 fa 3e 3d 9b f7 d0 3e 74 5d 64 be
       -0.8420511 0.046625882 0.40813908 -0.22301275
0002f0 85 3d aa 3e 38 91 de be 0d ca b0 3e 1a 2d 84 bd
       0.3325006 -0.43470168 0.34529153 -0.06453915
000300 e7 4d 2d be 8d 6a c7 3a 7f 5f 79 3e 25 df 60 be
       -0.16924249 0.001521425 0.24352835 -0.21960123
000310 5d ff df 3e 91 63 61 3e c5 20 30 bf 49 5b e1 3e
       0.43749514 0.22010638 -0.688 0.44014958
000320 73 4f b2 be 15 c3 2d bd 49 96 4e 3d b5 58 17 bf
       -0.3482624 -0.042422373 0.05043629 -0.5911973
000330 27 78 e6 3d c7 5c 4c 3e cd 46 cb be cc da 2e 3d
       0.11253386 0.19957267 -0.39702454 0.04268913
000340 8d 23 b8 3d 38 2f 91 3e 4a 2b 34 be 0f 92 05 bf
       0.08991156 0.28356338 -0.17594638 -0.5217599
000350 e1 30 51 be e0 d1 61 3e dd 40 a7 3d 81 7d 91 3e
       -0.20428802 0.22052717 0.081666686 0.28416064
000360 dd 50 08 3f 6a 36 d0 be 95 31 b3 bd f5 ad 0a 3f
       0.5324839 -0.40666515 -0.087496914 0.5417169
000370 6f 05 ed bb 07 4d 47 be cd 97 dd 3e b8 0b 32 3e
       -0.0072333138 -0.19462977 0.43279877 0.17387283
000380 f2 ef 18 bd e2 48 90 be 6d aa 15 3f 73 80 f2 be
       -0.037338205 -0.28180605 0.58463174 -0.47363624
000390 cd 5d b6 3e 26 5e 2c 3e b7 4c 68 bf 8d cc 24 3e
       0.3561844 0.1683279 -0.9074206 0.16093655
0003a0 ba da 38 3e 93 d4 0c bf 04 4f 90 3e 10 5d ec be
       0.18052188 -0.5501186 0.28185284 -0.4616475
0003b0 6b 95 f5 bc d4 12 97 be ad a0 9c be 40 b4 08 3f
       -0.029978475 -0.29506552 -0.30591336 0.5340004
0003c0 85 18 9e be 75 6f 2e be aa 88 ec 3d 96 b6 c0 bd
       -0.30878082 -0.17034705 0.11549504 -0.094098255
0003d0 6a 2c 33 3e d5 82 9d 3d a6 13 14 bf b5 c0 83 3e
       0.17497411 0.0769097 -0.5784248 0.2573296
0003e0 e6 83 5b 3e ab 18 80 bd 82 a1 2a 3f ac 6a c1 bd
       0.21437034 -0.06254705 0.6665269 -0.09444174
0003f0 96 0f fc be 1f 1d 1f bf 28 f0 5a be 36 ec 3d 3e
       -0.4923064 -0.6215381 -0.21380675 0.18547139

network_body._body_endoder.seq_layers.0.bias f4 [128]
000000 b3 70 36 3d c7 43 7c 3d 02 e4 67 3a fe b2 51 bd
       0.044541072 0.061588075 0.00088459265 -0.05119609
000010 6f 64 69 bc c2 1b f9 3d 87 e8 30 bd bc 29 3f bd
       -0.014245137 0.121634975 -0.043190505 -0.04667066
000020 83 f4 39 bc 99 af 4f bd 16 15 4b 3c 1d 40 15 3d
       -0.0113498 -0.050704572 0.012395164 0.036438096
000030 58 28 c1 3a 28 53 23 3d 50 2f 1c 3d 86 d7 16 bd
       0.0014736755 0.039874226 0.03813106 -0.036826633
000040 0a 51 5c bd d1 42 d6 3b 02 44 0c 3d 8b 96 ef bc
       -0.053788222 0.006538727 0.034244545 -0.02924659
000050 e7 ea 9f bd 08 56 d1 bc 71 2b 01 bd 08 33 19 bc
       -0.07808476 -0.025553718 -0.03153557 -0.009350546
000060 8b 8c b9 3c 09 c8 8a 3b 93 96 cf bd 7e 8c 0d 3d
       0.022650024 0.004235272 -0.10136142 0.034557812
000070 cb eb 39 bd a9 de 80 bc 50 b6 c6 3d 2e a6 2a bd
       -0.045390885 -0.015731173 0.09702742 -0.041662388
000080 76 ac ee bd 79 7a 0e bd 98 92 1b 3b 26 fe 8f 3c
       -0.11653988 -0.034784768 0.00237385 0.017577242
000090 66 3b 6f bc eb 4e 5b 3d ad 8f 9e bc 97 6d 73 bc
       -0.014601564 0.05354206 -0.01935562 -0.014857671
0000a0 9c 81 89 bd 81 77 64 bd d3 d5 d0 3d 70 4e f2 bc
       -0.06714174 -0.05577803 0.10197034 -0.029578418
0000b0 10 6f b9 bb 2e aa 9f 3c 04 e4 ee bd 34 99 29 bd
       -0.0056589916 0.019490328 -0.11664584 -0.04140587
0000c0 9c 1a 8c 3d d1 a7 b3 bc 61 0b 57 bd 00 9b be bc
       0.06841013 -0.021930607 -0.052501086 -0.02326727
0000d0 92 03 65 bd f2 27 d1 bd 8c eb a0 bd c3 b9 0a be
       -0.055911608 -0.10212697 -0.07857427 -0.13547425
0000e0 cf 8e 4c ba 13 1d 9b bd a2 82 a9 bc 99 ed f7 3c
       -0.00078032626 -0.07573905 -0.020692173 0.030264663
0000f0 00 d5 7f bd fb 90 2e bb eb 46 cc bd e8 76 f6 bc
       -0.062458992 -0.0026636708 -0.09974464 -0.030085996
000100 f7 d7 8d bc c5 15 0d bd 5c 10 fe bd 86 6a 89 bc
       -0.017314894 -0.03444459 -0.12405464 -0.016774427
000110 4b 41 38 3d b6 df 3a bd 8c d4 32 bd fa eb a0 3b
       0.044984143 -0.045623504 -0.04365973 0.004910943
000120 b8 8c 92 bb c0 bf 46 3b 9f ed a3 bc 0b 58 cf 3b
       -0.0044723414 0.0030326694 -0.020010768 0.006327634
000130 3d c3 00 bb 26 be b5 bd 9d df ef bc 8c 73 3f bc
       -0.001964762 -0.088741586 -0.029281432 -0.011685263
000140 22 2c b1 3c 9f a0 1b bc ff fe 00 3d 2a bc 9b bd
       0.02162749 -0.009498744 0.031493183 -0.07604249
000150 6d 72 d8 bd 56 e8 40 3d 57 81 56 3c f5 59 89 bd
       -0.105687 0.047096573 0.01309236 -0.06706611
000160 19 b0 25 3e 7a 92 39 bd 36 17 f8 3b a8 97 3f 3d
       0.16180457 -0.045305707 0.0075711263 0.04677549
000170 72 c1 7d bb 09 01 a4 bc 6a 93 3b bd fa 2d a8 bc
       -0.0038720039 -0.020020025 -0.045794882 -0.020529736
000180 37 fb 9c bc de 6a e3 bc 07 34 24 bd 04 3e 81 3d
       -0.019162757 -0.02776092 -0.04008868 0.06310657
000190 d8 16 a9 bc 3f fe 28 3d 5d 10 1f bd 8d 1a 23 bd
       -0.020640776 0.041258093 -0.038833965 -0.039820243
0001a0 6f fd e8 bd 89 94 78 bc 56 62 6a bc 80 d8 7a bd
       -0.113764636 -0.015172132 -0.014305672 -0.061241627
0001b0 e5 80 9d bd cc d9 92 bd 45 40 a6 bd 0e f0 52 bd
       -0.076906 -0.07170448 -0.08117727 -0.051498465
0001c0 87 03 4a bc 93 55 64 bd f7 47 a0 bc 04 fd b3 bc
       -0.012329943 -0.055745672 -0.019565566 -0.021971233
0001d0 a3 f4 5c bd eb e3 8b 3d 89 ad 9a bb 1b 8c da bc
       -0.05394424 0.06830581 -0.004720394 -0.026678136
0001e0 dd 2c 2a be 77 08 bd b9 77 a8 28 be 70 5b f0 3c
       -0.16618676 -0.00036055196 -0.16470514 0.029340476
0001f0 02 9f 1a 3d c6 53 03 3e d6 17 1e bd 0a 77 bb ba
       0.037749298 0.12824926 -0.03859695 -0.0014302444

network_body._body_endoder.seq_layers.2.weight f4 [128, 128]
000000 ff 2e e2 bd 87 af 07 be e7 f7 3f be fe c8 6c 3d
       -0.1104412 -0.13250552 -0.18746911 0.05780887
000010 19 70 50 3d 81 df 30 3e 5c 7b 95 bd c4 ab 21 3e
       0.050888155 0.1727276 -0.072989196 0.1578818
000020 74 d9 7e bd a3 e8 00 bd df 03 28 3e 49 15 c3 3d
       -0.0622191 -0.03147186 0.16407727 0.09525544
000030 48 35 42 3e 65 9c 97 3d 89 ec b7 bc c3 39 be 3c
       0.18965638 0.07402877 -0.022451656 0.023220902
000040 cf 11 0b be 6b 3c 02 3e 05 f0 69 3c e7 8b dc 3d
       -0.13581012 0.1271836 0.0142784165 0.10768872
000050 c2 4e 66 bd 80 a0 08 3e 82 6f 08 bd 47 04 c1 bc
       -0.056227453 0.13342476 -0.033309467 -0.02356161
000060 6e d2 82 3d 15 5d 8c bc fe 0f e5 bc 56 45 0f 3d
       0.063877925 -0.017134229 -0.027961727 0.034978233
000070 50 5d e0 3d 0d 77 c0 bc b2 43 bd 3d e3 4b 86 bd
       0.10955298 -0.023494268 0.092414275 -0.06557443
000080 05 15 cf bc 33 33 f1 3d 59 4f 0b bc 94 b9 a0 3d
       -0.025278578 0.117773436 -0.008502805 0.07847896
000090 a8 81 85 3d eb 97 75 bc 9d 2e f1 3c 53 1d 92 b9
       0.065188706 -0.014989833 0.029441172 -0.00027869138
0000a0 d0 6f c5 bd 65 92 1b 3e 20 1a bb bd 5e 5b 99 bd
       -0.09640467 0.15192564 -0.09135842 -0.0748813
0000b0 b6 2a 8e bb 1c 4e 78 3d 68 6f 34 3e 13 ae 8b 3e
       -0.0043385876 0.060621366 0.17620623 0.27281246
0000c0 42 6c 08 3e 69 4d 56 3e d2 d9 96 bd c1 73 91 3c
       0.13322547 0.20927967 -0.07365765 0.017755391
0000d0 60 11 bf 3d ae 12 6d 3d 00 bd 1a 3c 02 75 84 3d
       0.09329486 0.057879142 0.009444475 0.0646763
0000e0 8d bf 88 bd 93 a4 b4 3d 9a a3 07 3e e9 4f 9b 3d
       -0.066771604 0.088204525 0.13246003 0.07583601
0000f0 47 54 01 3d c2 e0 33 be 24 28 0c 3e 4a 92 31 bc
       0.031574514 -0.17566207 0.13687187 -0.010838101
000100 ff 7f e9 bd 7f 7c e0 bd 87 7a 2f bd a1 0d 67 3d
       -0.114013664 -0.10961246 -0.04284146 0.056409482
000110 4c 2c 1d 3c 7b aa 98 3d e4 a3 6d 3d 1c ee db bd
       0.009593081 0.074543916 0.058017626 -0.10738775
000120 85 60 07 be 47 0f fb 3c d5 26 1c 3c 43 00 cf 3d
       -0.13220413 0.030646933 0.009530743 0.10107472
000130 7b 4c 23 3e 04 fe 81 3c 6c 4b d5 38 8e 08 c9 bc
       0.15947144 0.015868194 0.0001017068 -0.024540212
000140 9b 55 8f 3d dd b2 07 be 0b 6a 10 be 4f dd 1b 3e
       0.0699875 -0.13251825 -0.14102952 0.15221141
000150 8b d4 be 3c 24 16 4c bd c9 21 b5 3d dc 07 c6 bd
       0.023294708 -0.049825802 0.08844335 -0.09669468
000160 03 81 1d bc c9 a8 05 be 49 b9 02 ba d7 63 82 3d
       -0.009613278 -0.13052668 -0.0004986716 0.06366699
000170 ba 8b ee 3a 66 3d 16 3e 9e b5 29 3e c3 53 af bd
       0.0018199601 0.14671859 0.16573188 -0.08560898
000180 b3 8a 80 3e 37 53 5e be 27 c6 01 3e 79 c6 c2 3c
       0.2510582 -0.21711431 0.12673245 0.02377628
000190 35 49 9a 3d c5 45 a0 bc fd a1 ff 3d 0e d5 3c 3d
       0.075334944 -0.019564519 0.12482069 0.046101622
0001a0 29 cf 96 3d ce 3c bc bd c3 9e 7d 3e 4e 1e 32 be
       0.073637314 -0.09191285 0.24767594 -0.17394373
0001b0 3f 12 55 3c a1 b1 2e bd c6 2f 43 3d 3d b2 df 3c
       0.0130048385 -0.04264987 0.047652982 0.02730667
0001c0 8d 2b a6 3c dc 71 a7 bc 88 25 d4 3d 65 2f a6 3d
       0.020284439 -0.020440035 0.10358721 0.081145085
0001d0 db 58 ae 3d 0d 30 63 3d 3b 81 9b 3d e0 fa 04 3d
       0.085130416 0.055465747 0.07593008 0.032465816
0001e0 3e d2 bb 3c ad d3 d7 3c 6b 67 db bd e6 2e 97 bd
       0.0229274 0.026346052 -0.10713085 -0.07381992
0001f0 c8 da c1 bd c5 05 27 3d 6f 28 59 3d f7 ed a5 bd
       -0.09465557 0.040776987 0.053017076 -0.08102029
000200 71 02 84 be dd f6 cb bc 54 2e 09 3c e9 e2 e2 3d
       -0.25783113 -0.024897987 0.008372862 0.11078436
000210 e5 d6 28 be 6d d6 17 3d 15 f8 0d bd eb 39 c6 bd
       -0.16488226 0.037069727 -0.034660418 -0.09679016
000220 e7 4b a5 bd 60 b7 03 3b 82 4a dd 3d 8d 48 88 3d
       -0.08071118 0.0020098314 0.10805227 0.06654463
000230 dd 39 81 3b 2c 90 b8 bd b0 06 97 bd 44 f9 f0 bd
       0.0039436654 -0.090118736 -0.073743224 -0.11766294
000240 da 2f 87 be c0 36 e9 bd 8e 27 c8 3b bc 84 cc bc
       -0.26403695 -0.11387396 0.006108231 -0.024965636
000250 f9 bf 55 bc a6 6a 34 be 00 d5 4d bc 58 c9 aa 3b
       -0.013046258 -0.17618808 -0.01256299 0.0052119903
000260 38 cd 4c be 56 97 c5 bd b7 94 49 3d 3e cc 14 3e
       -0.2000016 -0.09648006 0.04921409 0.14531037
000270 88 b8 7b be 6e ec 97 3d ee 86 fa 3d fe ff 63 be
       -0.24582112 0.07418142 0.12232767 -0.22265622
000280 a4 81 ea bd 98 f3 72 be 3d 20 68 bd 4f 2b 64 3d
       -0.11450508 -0.23725736 -0.05667137 0.055705365
000290 85 93 cd 3d 68 b7 02 be cf 08 5b bd a8 03 17 be
       0.10037903 -0.12765276 -0.053475197 -0.14747488
0002a0 eb 6d 7f bd 78 98 f1 3d da a4 9c bd 36 fd 25 b9
       -0.062360685 0.11796659 -0.076486304 -0.00015829955
0002b0 e8 ca 17 be 63 d1 50 be 34 22 63 be 24 2b 70 3d
       -0.14823496 -0.20392375 -0.22181016 0.058634892
0002c0 fc 29 00 be a5 2d 94 bd ce 19 c9 3d 48 d8 97 3d
       -0.12516016 -0.072352685 0.09819375 0.07414299
0002d0 95 68 78 be ea d4 ad bd 76 b8 db bd 79 1a 98 bc
       -0.24258645 -0.08487876 -0.107285425 -0.01856731
0002e0 e1 31 a4 3d 01 05 d4 bd b1 7c c7 bd d8 a9 8e ba
       0.08017326 -0.10352517 -0.0974058 -0.0010884358
0002f0 7f 08 bc bc 43 47 9d 3c f8 70 a0 be 0e 18 9d bd
       -0.02295327 0.01919902 -0.31336188 -0.07670604
000300 41 8f 08 be 51 f0 d7 bd 87 24 52 3b 58 e9 07 be
       -0.13335897 -0.105438836 0.003206523 -0.13272607
000310 43 43 51 bc 39 4d 6f bc 40 e6 be 3d b1 77 72 3d
       -0.012772384 -0.014605814 0.093212605 0.059196178
000320 7b 27 b5 3d cd 85 4b 3e 9f df 21 bc 38 d3 42 be
       0.08845421 0.1987526 -0.009879976 -0.19025886
000330 e8 0c 40 3e b2 5b 29 3e ab 5d 23 3d 5a 1f 26 3e
       0.18754923 0.16538885 0.03988425 0.16222897
000340 75 69 23 3e 60 fa 02 bd 5a 32 02 be fb 62 5d bd
       0.15958197 -0.031977057 -0.1271452 -0.054049473
000350 09 2f 86 bd a1 7f 65 bd c8 63 25 3e b0 b6 fe 3b
       -0.0655194 -0.05602992 0.16151345 0.007773243
000360 f8 4b 59 bc 97 86 cc bd e0 ae ff 3c 2f ba 2c be
       -0.013262741 -0.099866085 0.031211317 -0.16867898
000370 bb 46 ac 3c b4 f4 19 3a 0a a7 f9 3b 88 70 80 bd
       0.02102982 0.00058729504 0.0076187896 -0.06271464
000380 e9 5f 58 3d 2d b1 56 3d e4 70 5a 3d 0b 5f 05 bd
       0.052825842 0.05241506 0.053330317 -0.032561343
000390 53 83 ae bd ef ca 77 be af 0f 12 3e 24 5a f3 bd
       -0.08521142 -0.24198507 0.14263795 -0.11882427
0003a0 b9 c7 9a bd c2 b5 68 be e1 ee ac 3c 6d 9d d2 bc
       -0.07557625 -0.22725585 0.02111 -0.025709832
0003b0 41 58 76 3d 99 24 3a 3e a3 eb 08 be 40 64 a1 bd
       0.06014276 0.18178023 -0.13371138 -0.07880449
0003c0 18 b7 61 3e df d1 5d 3d f1 fe 04 3e 97 32 86 bd
       0.22042501 0.054155227 0.12987877 -0.06552618
0003d0 f6 d0 c4 3d 6f 5c f6 bd a8 f4 59 bb d4 9a aa bc
       0.09610169 -0.12029349 -0.0033257399 -0.02082578
0003e0 c4 e0 4c 3d 73 d9 49 be 6b 40 68 b9 fc a3 b6 bd
       0.05001904 -0.19711857 -0.00022149242 -0.08917996
0003f0 46 51 44 3d 44 bd cd bd 80 b8 5f bb ea 3d b5 be
       0.04792907 -0.10045865 -0.003413707 -0.353988

network_body._body_endoder.seq_layers.2.bias f4 [128]
000000 01 ec 8b bd 4d 38 4a 3d 7a 93 eb ba e4 df a7 3b
       -0.068321235 0.0493701 -0.0017973029 0.0051231254
000010 4f a5 84 3d 13 a7 eb 3b 8c e9 07 ba b0 c3 12 bd
       0.064768426 0.0071915477 -0.00051846425 -0.035831153
000020 6d 66 7a bd 2b 6c ac 3d 2d 29 8d 3c 1c c0 c6 3c
       -0.061132837 0.08419069 0.017231548 0.024261527
000030 e6 e9 ac 3d 97 08 89 3d 65 fb 88 3b 95 87 11 bc
       0.0844305 0.066910915 0.004180359 -0.008882423
000040 27 d1 92 bc b4 41 37 3d 89 70 99 bd d6 ac c1 3c
       -0.017921997 0.044740394 -0.074921675 0.023641985
000050 73 6e a1 3c ce 52 50 3d bc 86 0b bd 6c f7 11 bc
       0.019705987 0.05086022 -0.03406404 -0.008909088
000060 ad da ee bc 6b 86 f9 3c 89 a6 3c bd df eb 87 bd
       -0.029157007 0.030459603 -0.046057258 -0.06636786
000070 04 5f 3b bd 4e 7d 29 bc 56 2e b1 3c 35 d5 f3 3c
       -0.04574491 -0.010344816 0.02162854 0.029764751
000080 a7 5c a1 3d b9 be 71 3d 4d 3f cd 3d 23 2f 22 3d
       0.07879 0.059019778 0.10021839 0.039595734
000090 5c b4 17 bc 49 3a 18 bd 2e a5 36 3d 9b ca 2f 3b
       -0.00925931 -0.03716496 0.04459112 0.0026823643
0000a0 e7 b3 bf 3d 84 8f 07 3d 73 27 8f 3c ce af 30 bd
       0.093604855 0.03309585 0.017474866 -0.04313641
0000b0 83 a5 67 3d 1e 0f 87 bd a1 c0 f1 3c e3 36 3e bc
       0.05655433 -0.0659468 0.029510798 -0.011609766
0000c0 e7 ff 2c bd 32 7c 67 bd 98 cc 26 3c 0f 1f 6a 3d
       -0.042236235 -0.056514926 0.010180615 0.057158526
0000d0 f0 72 9f 3d a6 3e d0 3d fd bc a7 3d de 64 80 bc
       0.077855945 0.10168199 0.081903435 -0.015673097
0000e0 cf 70 cb 3d 62 1d 09 3d 52 f7 3f bd 1c 8a 51 bb
       0.09933626 0.033475287 -0.046866722 -0.0031973189
0000f0 e9 92 73 3d 65 da dc 3c 7b f6 94 bc 60 ac dd 3d
       0.059466276 0.026959607 -0.018183937 0.108238935
000100 78 98 d8 3c f1 d5 23 3e eb 68 77 3d f6 b8 48 bc
       0.02643989 0.15999581 0.060402792 -0.012251129
000110 b7 89 ac bc d2 0f 24 3e 66 20 8f 3d 39 ae e8 bd
       -0.021061761 0.1602166 0.069886014 -0.11361355
000120 c8 ba 95 3d 9c bc b6 3c a3 61 20 bd 98 75 d3 bc
       0.07311016 0.022306733 -0.039155614 -0.025812909
000130 ce e7 c0 3c 96 92 56 3d 74 41 0e 3c 44 8c f8 bb
       0.023548033 0.05238589 0.008682597 -0.0075850803
000140 83 e4 6c bd 50 78 48 3d 50 72 67 3b c8 e0 d9 bc
       -0.057835113 0.048942864 0.0035315938 -0.026596442
000150 f5 c6 48 3d f9 ff 1e 3d 74 f5 c9 3d 9a a8 28 3c
       0.049017865 0.038818333 0.098612696 0.010294104
000160 b1 b0 ba 3d 9d a6 2f bd 2d bc 21 bd 47 b5 66 3b
       0.091157325 -0.042883504 -0.0394861 0.0035203265
000170 9b 89 e2 3c 78 1d 28 3c ed e6 16 3d 73 51 52 3b
       0.027653506 0.010260932 0.03684132 0.0032092005
000180 31 16 e9 3d 59 1d 72 3d 86 15 81 3d 54 84 0b 3d
       0.11381186 0.05911002 0.063029334 0.034061745
000190 51 55 4c ba c0 b6 8f 3d 89 be fc 3b f0 70 ed bc
       -0.00077946956 0.07017279 0.0077131432 -0.028984517
0001a0 29 98 8d bc 25 e6 33 3d 02 5a 34 3d 10 85 c9 3d
       -0.01728447 0.043920655 0.04403115 0.09839833
0001b0 c0 ce 5c 3d cd e1 7c bd f0 30 b8 bc 71 f6 9e ba
       0.05390811 -0.061738778 -0.022484273 -0.0012127889
0001c0 71 10 49 bd 2e 93 83 3d 30 e5 9e 3c db cb ba 3d
       -0.049087945 0.06424557 0.019396394 0.091209136
0001d0 20 2c 6b 3d 29 e7 60 bc bf f6 10 bd 6f 10 96 bb
       0.057415128 -0.013726988 -0.035391565 -0.0045795958
0001e0 a2 89 cc 3a 52 55 66 3d bc a8 98 bb 51 7a be bc
       0.0015604983 0.05623371 -0.0046587866 -0.023251684
0001f0 7a e1 06 3e 0f 70 02 bc 88 88 19 bc 2a e8 a4 bc
       0.1317195 -0.007961287 -0.0093709305 -0.020130236

action_model._continuous_distribution.log_sigma f4 [1, 2]
000000 74 ea 47 be b9 29 56 be
       -0.1952303 -0.20914353

action_model._continuous_distribution.mu.weight f4 [2, 128]
000000 c4 7c 16 bd ea f1 47 3d 9a 66 c5 3d ae 9c 28 ba
       -0.03674008 0.04881469 0.0963871 -0.00064320385
000010 2b 7e df 3d c0 5d 1f 3d 64 b5 ab 3d 87 5d 5a bd
       0.109127365 0.038907766 0.08384207 -0.05331185
000020 6b 7d 53 bd f8 b0 47 bd 8b e1 15 3e 3b d1 ab 3d
       -0.05163328 -0.048752755 0.14636819 0.08389517
000030 15 d9 7b 3d 54 25 4c 3c 6e 93 14 3d ee b8 4e 3d
       0.061486322 0.012460072 0.036273412 0.05046933
000040 13 2d 76 bd 5a 26 8e ba 26 e3 51 bd 0f 60 7a 3d
       -0.06010158 -0.001084517 -0.051242016 0.061126765
000050 2a ca 46 3d b2 47 54 3e 7b cd 1b bd 05 34 ac 3d
       0.048532642 0.20730475 -0.03803776 0.084083594
000060 8f 41 1f 3d c1 89 a9 bc e0 34 29 bd a3 cb 7e 3b
       0.03888088 -0.020695569 -0.04131019 0.00388787
000070 65 af f8 bc a8 a3 e8 bd 1c 63 dd bc 83 8d 7c bd
       -0.030357072 -0.1135934 -0.027024798 -0.061658394
000080 e7 90 63 be 33 7e 71 bd 7a 6e 3d 3d 79 7f 7d 3d
       -0.22223245 -0.058958244 0.046247937 0.061889146
000090 6c 5c 17 bc f1 71 73 bd d6 63 28 be 13 c0 53 3c
       -0.009238344 -0.059434835 -0.16444334 0.012924212
0000a0 97 8c 12 3e 01 de 0c bb d0 4e 41 bb 9b 77 84 bc
       0.14311443 -0.002149463 -0.0029496439 -0.016170314
0000b0 82 90 49 3d 82 50 26 bd 05 00 88 3d af 72 a5 3d
       0.04921008 -0.040604122 0.06640629 0.08078515
0000c0 b1 61 22 3c 2e cf 8a 3c f1 56 9d 3d 8e 9b f4 bc
       0.009910987 0.016944494 0.076825984 -0.02985933
0000d0 3f ac 90 bd 19 05 39 be 9a 97 a4 3d e4 9f 88 bc
       -0.07064103 -0.18068351 0.08036728 -0.016677804
0000e0 3d 9f 00 bd a6 8c 00 be e2 01 19 bc 19 63 a9 3c
       -0.03140186 -0.12553653 -0.009338828 0.020677136
0000f0 9b 45 0d be 16 44 ef bd 36 72 ce 3c ad f3 4c 3d
       -0.13796084 -0.11682908 0.025200944 0.050037075
000100 dd ff 70 3d f7 c6 42 3e 3a cf 53 bb 31 0f d3 bd
       0.05883776 0.19021212 -0.0032319562 -0.10305632
000110 41 6c c4 bd 5d c9 df 3d 56 f4 28 be 50 eb 34 bc
       -0.0959096 0.10927079 -0.16499457 -0.011042431
000120 4d df af bd 56 8a 88 bb 69 f1 a7 bc 5c b8 30 bd
       -0.08587513 -0.0041668816 -0.020500856 -0.04314457
000130 30 1c 23 3e 6c 66 01 be f2 9c ba bd c1 d3 42 3c
       0.15928721 -0.12636727 -0.09111966 0.011891306
000140 66 7d a4 bb dc 53 0b be 58 57 2d be 6b 98 35 3c
       -0.0050198315 -0.13606209 -0.1692785 0.011083703
000150 e0 52 17 3e 1c b0 05 be 5d 16 57 be 9e 43 76 be
       0.14777708 -0.13055462 -0.21004625 -0.24049231
000160 3d e8 a4 3d c1 be 10 bd 9c 7b a4 bd 9f a6 ea 3c
       0.080521084 -0.035338167 -0.08031389 0.028643904
000170 78 8b 28 3c 3f 5b 25 bd ce 87 b9 3c ff 62 81 bd
       0.010287158 -0.040370222 0.022647765 -0.0631771
000180 3b 9b 03 3e 1a df 30 3d dd 96 b3 3d 54 79 82 3d
       0.12852184 0.043181516 0.08769009 0.06370798
000190 70 f9 03 bc 89 23 c1 bd 7d 32 72 bd a1 0f 81 bb
       -0.008055076 -0.09430606 -0.05913018 -0.0039386307
0001a0 23 bf f1 bd 6f 36 38 3d 0b 6b 68 be e0 29 56 3e
       -0.118040346 0.044973787 -0.22697084 0.20914412
0001b0 3e 0c 13 3e e1 30 b3 bc 0e f4 48 3d dd e1 ec bc
       0.14360139 -0.021873893 0.049060874 -0.028916294
0001c0 e4 e1 20 bc 75 02 a6 3d dd 70 d9 3c ef 9c 65 bd
       -0.0098194815 0.081059374 0.026543075 -0.056057867
0001d0 61 7d 16 3d cd bc 5a bd 7c bc 0b bd 92 da 0d 3c
       0.036740664 -0.05340271 -0.0341153 0.008658068
0001e0 46 e7 ce bd ad 87 53 3e c0 fe a6 3c 11 26 3d bd
       -0.10102706 0.20657225 0.020385146 -0.04617888
0001f0 92 c0 f8 3d a9 4d 3c bb 7b f0 16 bd c9 34 7b 3d
       0.12146105 -0.0028732812 -0.036850434 0.061329637
000200 33 ee 47 3c 9b 3d 30 bd dc 64 b8 3d 19 de 95 3d
       0.012202787 -0.0430275 0.090036124 0.073177524
000210 4d b9 04 3d c7 bf b6 3d 4b e6 bf bb 4f 69 90 3d
       0.03240328 0.089232974 -0.0058563105 0.07051336
000220 8a f7 97 bc 23 97 5b 3e 24 6f 80 bc 7d d6 5c bc
       -0.018550653 0.21444373 -0.015677996 -0.013478872
000230 17 69 e5 3b 36 c7 01 bd d9 4a f4 3d 11 85 f8 3b
       0.007001053 -0.031684123 0.119283386 0.007584222
000240 2f 3d e2 3b fc b3 1b bd 60 6d 90 3d fb a2 fe ba
       0.0069042663 -0.038013443 0.070521116 -0.0019427234
000250 69 42 1e 3d d9 31 89 bd 9b 8e 03 bc 16 7e db 3d
       0.038637552 -0.06698961 -0.008029605 0.10717408
000260 39 04 f9 3d 76 1a 11 be f6 bd 23 3b da 0b ed 3c
       0.121590085 -0.1417025 0.0024985052 0.028936315
000270 f3 53 21 bc 67 b1 d7 3b 2a 22 aa 3d dd 4e 24 bd
       -0.009846675 0.0065824273 0.083072975 -0.040114272
000280 1c f8 0f 3d 73 e7 43 be 25 e1 51 3e 17 54 db ba
       0.035148725 -0.1913126 0.20496042 -0.0016733435
000290 50 f2 a2 bc bb ca 73 bc ac 2e be 3d 4d cd e3 bc
       -0.019890934 -0.014879878 0.09286246 -0.027807856
0002a0 04 a1 6e 3d 9f 0d 1a 3e 96 ee 0e bd d8 d3 08 bc
       0.058259025 0.15044259 -0.034895502 -0.008351289
0002b0 8d d3 02 bd 7c 53 c7 3c 73 82 63 3d 02 39 6b 3c
       -0.03194003 0.0243318 0.055544328 0.014356853
0002c0 a0 cf 93 3d b2 e9 37 bb 6c 6d a4 3c f0 97 1b 3e
       0.07217336 -0.0028062877 0.020071708 0.15194678
0002d0 fb 98 75 3e bd 40 14 be 4a f7 c7 bd 11 b5 47 bd
       0.23984139 -0.1447782 -0.097639635 -0.048756663
0002e0 8c a9 8d bd aa cb 64 3b 83 24 a1 bc e3 b6 5d 3d
       -0.06917104 0.0034911432 -0.01967073 0.054129492
0002f0 d7 96 7d 3e 3a d7 08 3e 29 28 4b 3c d2 ba 94 bd
       0.24764572 0.13363352 0.012399712 -0.07262196
000300 ef 1e 71 bd 4c 47 d5 bd 94 76 40 3e 7b 14 c9 3a
       -0.05886739 -0.104139894 0.18795234 0.0015341187
000310 f1 0f 0f 3d 89 3f 05 bd 1f 8a 93 3d 2d 2b c5 3c
       0.034927312 -0.032531295 0.07204079 0.02406844
000320 e8 a3 51 3e 5b b0 94 3d c2 b7 0a bd be cb 00 bd
       0.20472682 0.072602 -0.03386665 -0.031444304
000330 d1 01 09 3d 19 ad dc bd fe 6a 82 3c be 2c 0d 3e
       0.033448998 -0.10775203 0.015920158 0.13786599
000340 a7 f0 81 ba fc 78 74 bd cf 89 73 bd a7 73 85 3d
       -0.0009913639 -0.059685692 -0.059457596 0.065161996
000350 63 85 1f 3e 3b f7 17 bc f2 cd 40 3e 1f 64 2f bc
       0.15578227 -0.009275253 0.18828562 -0.010705023
000360 b4 14 f9 bc 2d 20 4b 3c 6e a3 90 3c b7 19 29 3d
       -0.03040538 0.012397808 0.017656054 0.04128429
000370 be b5 4e 3e 59 d8 06 3e ce 1f 0c 3e 4f 79 6a bd
       0.20186517 0.13168468 0.13684008 -0.057244595
000380 e9 d6 6b be 78 e1 c3 3d 43 11 81 3d 16 01 c2 bc
       -0.230312 0.09564489 0.063021205 -0.023682158
000390 29 41 1a bb 2a 54 ba bd ff b3 57 bd 42 77 e3 bb
       -0.0023537374 -0.09098084 -0.052661892 -0.006941707
0003a0 83 dc b5 3d a9 4d 15 bd 93 5b fb 3c 69 05 d4 3d
       0.0887995 -0.036451016 0.030683314 0.103525944
0003b0 83 5a 5b 3b cd 0f 3b 3c c1 e6 e8 3c de fb 8d 3d
       0.0033470697 0.011417341 0.028430345 0.069328055
0003c0 33 52 90 3d 7a a1 13 3e f7 08 53 bd 35 03 52 be
       0.07046928 0.14417067 -0.05152222 -0.20509036
0003d0 c6 20 0a be 77 cd 39 3d 0a eb 93 bc d0 8a e8 bb
       -0.13489065 0.045361962 -0.018056411 -0.007096626
0003e0 a8 43 62 bd 09 f8 4e bb 78 c1 9b 3a b5 3e 5d bc
       -0.055240303 -0.0031580946 0.001188322 -0.01350372
0003f0 39 24 9c bd 14 0b f4 3d b4 b8 17 bd 49 8b 90 3d
       -0.076240964 0.119161755 -0.03704138 0.070578165

action_model._continuous_distribution.mu.bias f4 [2]
000000 2b 94 e3 3c 32 e7 08 bd
       0.027780613 -0.03342361

action_model._discrete_distribution.branches.0.weight f4 [2, 128]
000000 62 1b 88 3d bb 18 99 3d 4a 0d 06 3b a9 47 c0 3d
       0.06645848 0.0747542 0.0020454698 0.09388668
000010 14 87 28 bd 2b 17 c5 3c 19 1e 87 3d 46 1b 82 3d
       -0.041144446 0.024058899 0.065975375 0.06352858
000020 1e 23 62 3d 59 d9 b3 bd bc 68 b0 bc 2d 45 e0 3d
       0.05520927 -0.0878169 -0.021534316 0.10950694
000030 b0 e5 0c be b5 d1 bb bd e3 c1 9d 3d 2b 5c 11 3d
       -0.13759494 -0.09170858 0.077029966 0.03548829
000040 7a 23 4a 3c 4a 72 71 3d cd f3 c3 3d f2 5d c9 3c
       0.01233756 0.058946885 0.09567986 0.02458093
000050 00 ec 03 3e b1 5b 51 bd 4d 57 e3 3d 76 62 c5 3d
       0.12882996 -0.051112834 0.11100636 0.096379206
000060 46 23 d7 bd 62 be 0c bd 14 5a 98 3d 46 70 fa 3c
       -0.10504775 -0.03436125 0.07439056 0.030571114
000070 a3 1c d6 3d ed 76 43 3d f0 4a 3b bd 18 6c 18 3d
       0.10454681 0.04772084 -0.045725763 0.03721246
000080 c5 57 40 3d cc 82 9a 3b db b2 bc bc 07 ce 90 3c
       0.046958704 0.0047152992 -0.023034504 0.017676366
000090 ac 39 9b 3d 28 a1 31 3d 34 c4 37 bd ff 5f 79 3d
       0.075793594 0.04336658 -0.04486485 0.060882565
0000a0 24 d1 c7 bc 69 4a b1 3c fd 30 aa 3d 66 b1 9a 3d
       -0.024391718 0.021641927 0.08310125 0.07553367
0000b0 ce 48 ee 3d 3f 37 9f 3d cf f8 c6 3c 5f 14 3c bc
       0.1163498 0.07774209 0.024288563 -0.011479466
0000c0 cc 03 c0 3d 13 ad b8 3d ba 7d 73 3d 86 00 c6 bd
       0.09375724 0.09017386 0.059446074 -0.096680686
0000d0 a6 84 89 bc d4 7c f6 3c d5 30 96 3d b4 01 ac 3d
       -0.016786885 0.03008882 0.07333533 0.08398762
0000e0 d9 3f ec bd 41 6e 50 bc f2 32 00 3e 8e 5b ca 3d
       -0.115356155 -0.012721599 0.12519434 0.09880744
0000f0 3e b0 a1 bd 5c ac b7 bc be e6 a8 3d 2e 7d 36 bd
       -0.07894944 -0.022421055 0.082471356 -0.044552974
000100 41 de b6 3d 09 cb fa 3b 50 d3 47 bc 20 f5 3a 3d
       0.0892911 0.007653598 -0.012196377 0.045643926
000110 1a d1 79 3d 06 26 64 bd 57 e1 e2 bd 81 c6 d5 3d
       0.06099043 -0.055700324 -0.110781364 0.10438252
000120 76 8c 01 3d 9e 27 08 3e 02 60 ef 3d 3e 10 d0 3d
       0.031628095 0.13296363 0.11688234 0.10159348
000130 79 b9 20 3c b8 22 a4 bd 3b ae 47 3d 7d c5 f6 bc
       0.009809845 -0.080144346 0.048750143 -0.030123467
000140 d0 0f 04 3e 79 c3 3c 3d 05 00 2b bd 53 89 23 3d
       0.12896657 0.046084855 -0.041748066 0.039925884
000150 0b e2 89 bc c0 64 38 3c aa 4b ec bd ac d6 71 bd
       -0.016831418 0.011254489 -0.11537869 -0.059042618
000160 cd 65 44 3d 6f 4e 89 3d 14 2e 55 3d 92 46 b2 3d
       0.047948647 0.06704413 0.052045897 0.087048665
000170 1a d6 0c 3d 7e b6 c6 bd 05 2c 74 bc ab dc 8c 3d
       0.03438387 -0.09702776 -0.014903073 0.068780266
000180 cc 99 ad 3c 28 6b cb 3d fe d3 a0 3d 44 09 b2 3d
       0.0211915 0.09932548 0.07852934 0.086931735
000190 c2 5d 04 3e cc 36 c7 bd 06 ac 78 3c 8e ee f5 3d
       0.12926391 -0.097272485 0.015177732 0.12008391
0001a0 99 8e f9 bc ce e4 ae 3d b8 fe d3 39 34 73 0d bd
       -0.030463504 0.08539735 0.00040434836 -0.034533694
0001b0 54 e8 57 3d 6e 45 a6 3d e2 01 28 3e 0b 2e 0a bd
       0.0527118 0.081187114 0.16406968 -0.033735316
0001c0 36 96 1c bd b1 5e d5 3c ec 12 5e 3d 60 a5 84 bd
       -0.03822919 0.026046129 0.054217264 -0.06476855
0001d0 14 d1 97 3c 0c c5 07 be ef e4 01 3e 36 d6 1a 3e
       0.018532313 -0.13258761 0.12684987 0.15120777
0001e0 01 fe 1d 3d 5e ad 86 bc 4d 44 08 3e 92 c8 04 3d
       0.038572315 -0.01644009 0.13307305 0.03241784
0001f0 9c 70 6a bc a1 96 fb 3c 43 82 d4 3d cc 3d 38 3d
       -0.014309075 0.030711474 0.10376408 0.04498081
000200 7e 3f c7 bd 65 e0 92 bd 0e d2 be ba 29 5d c8 bd
       -0.09728907 -0.07171706 -0.0014558451 -0.09783394
000210 e9 bc 60 3d 07 4c 08 bd 58 0f 44 bd 01 77 91 bd
       0.05486766 -0.03327563 -0.047866195 -0.07102776
000220 c3 11 89 bd 29 7b ad 3d 7e cf 1b 3c a7 60 ef bd
       -0.06692841 0.084707566 0.009509919 -0.11688357
000230 b3 b6 0e 3e 39 1b c5 3d d0 bc 83 bd 11 4b f4 bc
       0.13936882 0.09624333 -0.064324975 -0.02982095
000240 5c 1d 27 bd 56 95 93 bd c1 0b 86 bd e8 30 18 bd
       -0.040799484 -0.07206218 -0.06545211 -0.037156016
000250 f9 61 0a be 19 9f 72 3d b0 9a df bd 96 ee ba bd
       -0.13513936 0.05923376 -0.10918176 -0.09127538
000260 84 d6 c7 3d 17 53 33 3d 85 bc b0 bd 5f 96 49 bd
       0.097577125 0.043780413 -0.08629707 -0.04921567
000270 06 8f b4 bd 0c 05 59 bd df 4f 71 3d 5a a6 3b bd
       -0.08816342 -0.05298333 0.05891406 -0.045812942
000280 b0 9c 1f bd 98 1d 73 ba c2 34 ca 3c 67 50 89 bc
       -0.03896779 -0.0009274124 0.02468336 -0.016761972
000290 47 fa ae bd a5 4e 21 bd fe 4d 51 3d 32 8c b3 bd
       -0.0854383 -0.039381642 0.05109977 -0.087669745
0002a0 ff 6f 9e 3c 67 f4 25 bc 14 64 c0 bd 67 67 8e bd
       0.019340513 -0.010129071 -0.093940884 -0.06953316
0002b0 d4 5c 03 be 06 65 d6 bd 4e 64 1d bd ba 21 60 3c
       -0.1282838 -0.104684874 -0.038425736 0.013679916
0002c0 33 79 c7 bd 88 7f 95 bd 71 83 8c bd 48 1a c9 3d
       -0.09739914 -0.07299715 -0.06861008 0.09819466
0002d0 05 d0 d1 3c 47 a6 62 bd 19 e2 98 bd 5a 37 b4 bd
       0.025611887 -0.055334356 -0.07465 -0.0879962
0002e0 18 45 c0 3d 5d f9 89 3c 54 a5 eb bd 2a ea b6 bd
       0.093881786 0.016842538 -0.11506143 -0.08931382
0002f0 7e a5 a3 3d df b5 71 3c 63 c9 b4 bd 7e e0 44 3d
       0.079905495 0.014752834 -0.08827474 0.048065655
000300 79 ab a8 bd 2e 20 70 bc 39 b2 b8 bb c0 17 18 bd
       -0.08235831 -0.01465611 -0.00563648 -0.037132025
000310 c7 6b 81 bd 25 fe 8a 3d e9 42 b9 3d 8b 16 d1 bd
       -0.06319385 0.067867555 0.09045965 -0.10209378
000320 2e 06 0b bd 87 7e 08 be 5a e8 ee bd d4 e4 c7 bd
       -0.03394144 -0.13329516 -0.11665411 -0.097604424
000330 46 42 9b bc 9e 68 81 3d 8e 59 50 bd 00 ea be 3c
       -0.0189525 0.06318782 -0.050866656 0.02330494
000340 35 0e 00 be 5d 6a 2b bd 97 32 99 3d 83 04 59 bc
       -0.1250542 -0.041849483 0.07480352 -0.013245705
000350 6e a5 85 3c 80 7c a3 bc 29 8a d5 3d ff 26 24 3d
       0.016314235 -0.019956827 0.104267426 0.040076252
000360 22 64 55 bd 55 51 83 bd ce 0c 5f bd cf 20 be bd
       -0.052097447 -0.06411997 -0.05445557 -0.092836015
000370 29 47 f7 bc 5f 2d ae 3d 3e f3 d2 3b e2 0a 87 bd
       -0.030185299 0.085047476 0.006437688 -0.065938726
000380 e9 c8 e7 bc 0b 35 bd bd 72 31 a2 bd 7e 7d b0 bd
       -0.028294044 -0.09238633 -0.07919587 -0.08617686
000390 d2 bd eb bd f6 5e cd 3d 83 b5 0c bc 29 b4 e5 bd
       -0.11510815 0.10027878 -0.008588198 -0.112160034
0003a0 f6 8b 80 3c b8 ed ae bd f5 3f 15 bc 3a 90 40 3c
       0.015691739 -0.08541435 -0.009109487 0.011753136
0003b0 f8 3f 9f bd 3d 7a 72 bd 6e 7c 17 be 92 81 5d 3d
       -0.07775873 -0.059198607 -0.1479356 0.054078646
0003c0 32 d8 1f 3d 02 2e f7 bc 87 b8 20 bd 39 32 83 3d
       0.03902454 -0.030173305 -0.03923848 0.064060636
0003d0 ac 41 36 bc 03 43 fe 3d 10 01 dc bd ab 43 1b be
       -0.011124056 0.12415125 -0.1074239 -0.15162532
0003e0 1e 36 83 bc c9 79 1d 3c 4a 00 04 be b7 2b 1e bd
       -0.016017016 0.009611555 -0.12890735 -0.03861591
0003f0 d1 be a6 3c b5 b3 07 bd 0c 08 c2 bd 55 fb 55 bd
       0.02035466 -0.033130366 -0.09474191 -0.052241642

action_model._discrete_distribution.branches.0.bias f4 [2]
000000 4e da 2f 3c d8 d9 2f bc
       0.0107332 -0.01073309
