ML-Agents/Examples/results/SphereHunt/SphereHunt/SphereHunt-18999971.onnx (onnx, 80822 bytes, 9 tensors)

network_body._body_endoder.seq_layers.0.weight f4 [128, 10]
000000 7d 30 5e 3e 50 d1 93 3d c6 7f 24 be 60 d8 4b 3d
       0.21698184 0.072176576 -0.16064367 0.0497669
000010 62 d7 b6 be 90 d7 70 3e a0 7d 04 bf 3b a5 27 be
       -0.357112 0.2351973 -0.5175419 -0.16371624
000020 92 6f 48 bc a1 b2 40 3e 65 3b 59 3e f7 a1 30 3e
       -0.012233632 0.18818142 0.21214063 0.17249285
000030 5f e4 86 3e f3 96 be 3c 18 c1 3b 3e af 86 9e be
       0.26346108 0.023265338 0.18335378 -0.3096213
000040 f6 89 52 bf c8 39 83 3d f4 23 8d be b8 2e 4c 3d
       -0.8224176 0.06407505 -0.27566493 0.049849242
000050 6d f0 e4 3d 87 c1 93 be 74 03 78 be f3 06 5d be
       0.1117867 -0.28858587 -0.24220067 -0.21584682
000060 a8 c7 a2 bc e4 a2 70 be f1 70 84 3e 22 c9 06 3f
       -0.019870594 -0.23499638 0.25867417 0.52650654
000070 70 ff f6 3d 25 be 0d 3f b8 d4 d5 3d 41 d1 52 be
       0.120604396 0.5536826 0.104409635 -0.20587637
000080 84 da 4d 3f ba 6d 35 3e 3d 10 37 be 6a d9 01 bf
       0.80411553 0.17717639 -0.17877288 -0.5072237
000090 aa ee e2 bc dd 9d 8f be 51 f0 35 bc 72 4b e5 3e
       -0.027701695 -0.28050128 -0.011104659 0.44784123
0000a0 54 e6 88 bd 9b 1c b3 be 34 27 6e 3e c2 55 d1 3d
       -0.066845566 -0.34982762 0.23257142 0.10221435
0000b0 10 79 87 3c 55 99 e2 be 77 bd 37 3f 86 e6 f7 bb
       0.01653722 -0.44257608 0.71773475 -0.0075653223
0000c0 61 e8 3a 3f 66 ba da 39 76 ec 08 bf d7 1b a8 3e
       0.7301083 0.00041719078 -0.5348581 0.3283374
0000d0 f2 91 1c 3f 08 92 64 3d 3f 3e bb ba bb e4 d4 bd
       0.61160195 0.05580333 -0.0014285519 -0.103951894
0000e0 de 91 09 3c b3 2a 97 3e 7c fa 09 be e9 7b 68 be
       0.008396594 0.29524764 -0.13474458 -0.22703518
0000f0 21 68 1b bf db 53 86 be ec d4 d2 bd 0d 8c 76 3d
       -0.60705763 -0.26235852 -0.10294518 0.060192157
000100 c2 ab ae be a4 2c 80 3e dc cd da 3e 0c 6a 4e be
       -0.34115416 0.25034058 0.42735183 -0.20157641
000110 c1 cb 18 3f 2d d2 6e 3e 12 20 a9 be 4b 28 58 be
       0.59685904 0.23322363 -0.3303228 -0.2110912
000120 70 0b 73 bf 52 f8 2a 3f 6f 3f 77 bc 5a 3a 4b 3e
       -0.9493933 0.66785157 -0.015090807 0.19846478
000130 fb 64 0c 3f 85 45 f4 bd 4d f3 d9 3d 6a c7 2b 3e
       0.54841584 -0.11927322 0.10642109 0.16775289
000140 0e f7 4b bf 03 a2 67 be 42 c1 98 3e a0 ff fb 3d
       -0.7967385 -0.22620396 0.29834944 0.12304616
000150 31 59 e3 3e 7f 63 ed 3e 49 3f d2 3e d0 2d 62 bd
       0.44403985 0.46364972 0.41063908 -0.05521947
000160 28 12 38 bd 00 9f 49 3d 29 90 a8 3d 81 b5 6b be
       -0.04493919 0.0492239 0.08230621 -0.23018457
000170 9a a7 73 3e 1c 52 00 3d f3 20 3b be 7a 92 8d be
       0.23794404 0.031328306 -0.18274288 -0.27650815
000180 73 7a 81 be 2a 87 02 bf bb 25 9c be 31 c3 93 3d
       -0.25288734 -0.50987494 -0.30497536 0.07214964
000190 e1 8d 38 3e f8 6e 7b 3d 8d 85 a9 3e a2 62 c1 3d
       0.18022873 0.061385125 0.33109704 0.09442641
0001a0 f9 2e 10 3f c5 22 29 be d0 6c 9f be ba 9f 1d bf
       0.56321675 -0.1651717 -0.31137705 -0.6157185
0001b0 90 71 90 be d2 73 7c be de 40 ca be f2 6c 03 3e
       -0.2821164 -0.24653557 -0.39502615 0.12834528
0001c0 b1 db ce bd 02 b4 e3 3e 2a f4 90 3d 2a 72 59 3e
       -0.101004966 0.44473273 0.070778206 0.21234956
0001d0 60 8a 73 bd f1 d8 9e bd 1f 3c 27 be b5 6b b6 bd
       -0.059458137 -0.07756222 -0.16331528 -0.08907262
0001e0 ae a4 84 be 05 ec 9e 3e 92 04 b9 bd 76 92 90 3e
       -0.2590689 0.31039444 -0.09034075 0.2823674
0001f0 db 90 61 3e e3 9f 36 3e ed eb 55 3f bd 28 bc 3c
       0.22027914 0.1783443 0.8356312 0.022968644
000200 71 80 1a 3f e5 23 37 3e ee 6d 4e bd 02 67 52 be
       0.60352236 0.17884786 -0.050397806 -0.20547107
000210 c9 62 b2 be 26 2a 15 3e 95 b2 8f 3e 86 6e c6 be
       -0.34840992 0.1456686 0.28065935 -0.38756198
000220 78 db 08 be 38 7e 50 bf e4 bd 6d 3e 81 67 08 3e
       -0.1336497 -0.81442595 0.23216969 0.13320734
000230 d3 d7 94 3d c5 d7 be 3d f3 c0 82 be 8b 29 16 38
       0.07267728 0.093184985 -0.25537834 3.5801477e-05
000240 1a cd b9 3c da aa 1d bd fc 45 04 bd 9d 7d b9 3d
       0.022680808 -0.038493015 -0.032293305 0.09057162
000250 e5 eb 58 be 25 5b e4 bd 83 38 1a 3e 4d fb 88 3e
       -0.21183737 -0.11150197 0.1506062 0.26754227
000260 5b 8b 5e be a9 f2 c4 3e c3 10 e7 3d f3 d6 e7 bd
       -0.21732847 0.38466385 0.11282494 -0.11320295
000270 f8 e0 5c be 96 ea 7e be 1e 0f 22 bd be a1 75 3e
       -0.21570194 -0.24894175 -0.039565198 0.23987481
000280 b4 16 15 3e 30 1e 1f bf 30 b8 d4 be ff f8 e1 bd
       0.14559442 -0.6215544 -0.41546774 -0.1103382
000290 f1 b6 88 3e 22 49 cf be d1 9b fa be 8c 0e 90 3e
       0.26702073 -0.40485483 -0.48947003 0.28136098
0002a0 79 d4 9d be 2a e4 eb 3e 8e 67 1b 3e bb 34 10 3e
       -0.30826166 0.46072513 0.15176222 0.14082615
0002b0 eb 4d bd 3e 53 2e 35 be 66 d4 87 be 41 4a 4f be
       0.3697351 -0.17693453 -0.26529235 -0.2024317
0002c0 eb cd e1 3e 25 2e 98 bd 1c f6 0b bd 22 6c f3 be
       0.44102415 -0.07430676 -0.034170255 -0.47543436
0002d0 3d 3a 70 3e 02 46 66 bc f6 64 1a 3f 47 21 db 3c
       0.23459716 -0.014054777 0.60310304 0.026749266
0002e0 a9 90 57 bf 6f b8 3e 3d 8b 8a d0 3e 86 18 64 be
       -0.8420511 0.04656261 0.407307 -0.2227498
0002f0 92 72 a9 3e eb 00 de be 38 b3 b0 3e a7 41 84 bd
       0.33095223 -0.43360075 0.34511733 -0.06457835
000300 bd fa 2c be b8 c5 dd 3a 7f 5f 79 3e 79 26 60 be
       -0.16892524 0.0016919887 0.24352835 -0.21889676
000310 7c d1 df 3e 27 48 61 3e ba 31 30 bf c3 45 e1 3e
       0.4371451 0.2200018 -0.68825877 0.43998536
000320 49 86 b2 be d0 8e 2e bd 18 0c 4e 3d 9d 7c 17 bf
       -0.34868076 -0.042616665 0.050304502 -0.5917452
000330 27 78 e6 3d 43 0d 4c 3e 58 ce ca be ae 5a 29 3d
       0.11253386 0.19926934 -0.39610553 0.041346245
000340 bf 87 b6 3d 7e ff 90 3e 25 e4 33 be 88 31 05 bf
       0.0891261 0.28319925 -0.17567499 -0.52028704
000350 ae 69 50 be ec d0 61 3e dd 40 a7 3d 72 dc 91 3e
       -0.20352814 0.22052354 0.081666686 0.284885
000360 8e da 07 3f 83 e0 cf be 2c 64 b4 bd de a1 0a 3f
       0.53067863 -0.40600976 -0.08808169 0.5415324
000370 50 d9 e8 bb 88 29 47 be e8 c1 dd 3e e2 d4 31 3e
       -0.007105984 -0.19449437 0.43312 0.17366365
000380 f2 ef 18 bd df 0d 90 be 06 ce 14 3f 09 11 f2 be
       -0.037338205 -0.28135583 0.58126867 -0.47278622
000390 7a 50 b5 3e 36 8f 2b 3e d4 32 68 bf e9 71 24 3e
       0.3541296 0.1675385 -0.9070256 0.16059078
0003a0 7a 1e 39 3e 38 e4 0c bf 04 4f 90 3e ff 6e ec be
       0.18078032 -0.55035734 0.28185284 -0.46178433
0003b0 54 ed f0 bc 55 01 97 be 7f 61 9c be bd 8d 08 3f
       -0.029410042 -0.29493204 -0.30543134 0.53341275
0003c0 5b 2f 9e be 14 81 2e be 1f fb ec 3d 18 b8 c0 bd
       -0.30895504 -0.17041427 0.11571335 -0.09410113
0003d0 6a 2c 33 3e 6e f7 9d 3d f4 a0 13 bf 8e 9e 83 3e
       0.17497411 0.07713209 -0.5766747 0.25706905
0003e0 03 bb 5c 3e 6e d4 7f bd f6 b1 2a 3f 5e ed be bd
       0.21555714 -0.062458448 0.66677797 -0.09322618
0003f0 ab af fc be a3 ee 1e bf 28 f0 5a be 2d ef 3c 3e
       -0.49352774 -0.6208288 -0.21380675 0.18450613

network_body._body_endoder.seq_layers.0.bias f4 [128]
000000 c6 d6 35 3d aa 04 78 3d ff 85 05 3b 2f c9 52 bd
       0.044394277 0.060551323 0.0020374057 -0.051461395
000010 df b2 61 bc e7 83 f7 3d 34 99 2f bd 6a dd 3e bd
       -0.013775556 0.12085705 -0.042870715 -0.046597876
000020 f8 82 3a bc ed 32 4f bd f0 b8 48 3c 78 47 16 3d
       -0.011383764 -0.050585676 0.012251124 0.03668925
000030 bd 84 fc 3a 8b 49 22 3d 4c 3a 18 3d 4e 38 18 bd
       0.0019265633 0.039620917 0.03716497 -0.03716307
000040 aa 76 5d bd 4b f1 d8 3b ec cd 09 3d c6 e8 ef bc
       -0.054068245 0.0066205612 0.033643648 -0.0292858
000050 bd 50 a0 bd aa 43 c5 bc 5a 9d 00 bd d6 dc 1e bc
       -0.078278996 -0.024080116 -0.031400062 -0.009696206
000060 42 ff b8 3c 11 9d b2 3b f7 9a ce bd 28 6b 09 3d
       0.022582654 0.0054508527 -0.10088151 0.033549458
000070 4e 2e 3a bd a8 12 71 bc 00 90 c7 3d 54 54 26 bd
       -0.045454316 -0.014713921 0.09744263 -0.040607765
000080 77 f7 ec bd 69 24 11 bd 7e f3 72 3b fd e5 8d 3c
       -0.11570638 -0.035435114 0.0037071402 0.017321581
000090 2a 55 72 bc 2c 98 5b 3d 85 e7 91 bc fc cc 73 bc
       -0.0147908125 0.05361192 -0.017810592 -0.014880415
0000a0 ca 7c 88 bd 13 1b 5f bd 7d d9 cf 3d 84 ec f0 bc
       -0.066644266 -0.05446918 0.101489045 -0.029409654
0000b0 80 74 87 bb 57 c9 a2 3c 6d 27 ea bd 4e 81 2a bd
       -0.004133761 0.019871397 -0.11433301 -0.04162722
0000c0 49 cf 8b 3d 4d 37 ae bc 19 5d 50 bd af 2c bb bc
       0.06826646 -0.021266604 -0.050870035 -0.022848455
0000d0 1c ab 65 bd 7a f3 ce bd a4 9e 9f bd a0 85 0a be
       -0.056071386 -0.10105033 -0.0779393 -0.13527536
0000e0 5c 9d b8 ba 90 02 99 bd 0b 69 a4 bc b6 dc f6 3c
       -0.0014084983 -0.07471192 -0.02006962 0.03013454
0000f0 20 2f 7f bd 14 b5 2c bb 7d 31 cb bd da e1 f9 bc
       -0.0623008 -0.0026353048 -0.099215485 -0.030503202
000100 31 b1 87 bc 7f 89 0e bd 25 dc fb bd df 9c 81 bc
       -0.016563984 -0.034799095 -0.122978486 -0.015821872
000110 d4 7a 3f 3d 11 91 3b bd cd 18 32 bd 0c 43 bf 3b
       0.046747997 -0.045792643 -0.043480683 0.00583685
000120 a7 c4 58 bb 03 e6 11 3b 82 e6 a7 bc 5c 48 dd 3b
       -0.0033076198 0.0022262342 -0.020495657 0.0067530107
000130 dc e2 07 bb 44 37 b4 bd a2 c5 ef bc e3 26 3d bc
       -0.0020734584 -0.087996036 -0.029269043 -0.011544916
000140 17 58 c0 3c 5a d5 13 bc 4e 2a fb 3c 72 ed 99 bd
       0.023479505 -0.009023035 0.03065982 -0.07515992
000150 92 41 d6 bd 2a bf 3e 3d 3a 71 4e 3c 27 e8 88 bd
       -0.10461725 0.046569027 0.0126002375 -0.066849045
000160 12 fb 24 3e 8d ca 38 bd e7 74 0c 3c 84 7b 3c 3d
       0.161114 -0.045115042 0.008572794 0.04601623
000170 03 05 3c bb 34 30 a3 bc 4e 4f 3e bd 23 8c 9f bc
       -0.002868951 -0.019920446 -0.04646235 -0.019476002
000180 ec 8e 9a bc c2 fe e0 bc e3 53 22 bd 75 ae 7d 3d
       -0.018866979 -0.027465228 -0.03963078 0.061933953
000190 0b 6c a4 bc ac 03 2a 3d 80 08 20 bd c2 3e 1d bd
       -0.02007105 0.041507408 -0.039070606 -0.03838993
0001a0 4a 18 e7 bd 70 18 6f bc 48 51 69 bc 61 bd 79 bd
       -0.1128393 -0.014593229 -0.01424057 -0.06097162
0001b0 6c b4 9b bd 8a 1b 91 bd 24 79 a6 bd fc 90 53 bd
       -0.07602772 -0.07085331 -0.081285745 -0.05165194
0001c0 b6 da 48 bc 3b 6e 5e bd 41 6d ab bc 57 47 b4 bc
       -0.012259176 -0.054304343 -0.02092612 -0.022006674
0001d0 17 00 5c bd c2 d2 8a 3d 56 9b b0 bb e6 43 dc bc
       -0.053711023 0.0677848 -0.0053896112 -0.026887845
0001e0 35 2d 29 be 56 aa 5d 39 21 c2 27 be cf e5 f5 3c
       -0.16521151 0.00021139657 -0.16382648 0.030016808
0001f0 7d 48 1c 3d 61 95 02 3e 04 6a 1c bd 29 a1 55 ba
       0.038155068 0.12752296 -0.038187042 -0.000814932

network_body._body_endoder.seq_layers.2.weight f4 [128, 128]
000000 e1 e4 e1 bd d1 e0 07 be ac 50 3f be 8e 45 6c 3d
       -0.11029983 -0.13269354 -0.18683118 0.05768352
000010 93 2f 4e 3d 23 a5 31 3e 62 d4 94 bd 65 71 21 3e
       0.05033834 0.17348151 -0.07267071 0.15765913
000020 34 5d 7d bd a5 93 03 bd 92 94 27 3e 2a ca c3 3d
       -0.061856464 -0.032123227 0.16365269 0.09560044
000030 4b e5 42 3e 9c a3 97 3d 07 d4 b8 bc cd 2a bc 3c
       0.19032781 0.07404253 -0.02256204 0.022969628
000040 c2 c4 0a be 63 a5 01 3e ac 81 6e 3c 67 bb dc 3d
       -0.1355162 0.12660746 0.014557283 0.10777932
000050 06 b0 64 bd 29 5c 08 3e 96 31 0b bd cc 41 bd bc
       -0.05583193 0.13316406 -0.033982836 -0.023102663
000060 1b 43 84 3d f6 f3 87 bc 63 e9 e2 bc e1 05 0e 3d
       0.06458112 -0.016595822 -0.027699178 0.034673575
000070 a1 37 e1 3d 15 63 bb bc 18 2f be 3d 64 63 85 bd
       0.109969385 -0.022874394 0.09286326 -0.06513098
000080 9d 30 d0 bc 4a ad f1 3d 93 9b f8 bb d8 b6 a1 3d
       -0.025413806 0.118006304 -0.0075869053 0.07896203
000090 ad 8e 85 3d 64 70 74 bc 66 22 fb 3c a2 b5 25 b9
       0.06521354 -0.014919374 0.03065605 -0.0001580329
0000a0 43 0f c6 bd 75 dd 1b 3e 35 79 ba bd 83 b3 99 bd
       -0.0967088 0.15221198 -0.0910515 -0.07504942
0000b0 8e 05 93 bb ac 78 76 3d 56 65 34 3e 22 2c 8b 3e
       -0.004486746 0.060173675 0.17616782 0.27182108
0000c0 c1 ce 08 3e 6a c8 56 3e 8c 8d 95 bd a9 e9 99 3c
       0.1336012 0.2097489 -0.073023885 0.018788176
0000d0 9e ad bf 3d 36 96 6c 3d ed c3 1c 3c e5 de 84 3d
       0.09359287 0.05776044 0.009568197 0.06487826
0000e0 16 40 89 bd eb 80 b5 3d fc 4e 07 3e 69 f2 9b 3d
       -0.067016765 0.0886248 0.13213724 0.076145954
0000f0 4a ad 02 3d be 8b 33 be 13 2e 0c 3e f9 9a 2c bc
       0.031903543 -0.17533776 0.13689451 -0.010534995
000100 cd 2b e9 bd a5 0d df bd 30 f5 2d bd bc 56 68 3d
       -0.113853075 -0.10891274 -0.042470157 0.05672334
000110 d4 01 2a 3c 09 c6 99 3d 6c cf 6b 3d 18 6c da bd
       0.010376412 0.07508475 0.05757086 -0.106651485
000120 61 82 06 be cd 71 f9 3c af a4 14 3c 58 b7 d1 3d
       -0.13135673 0.030449772 0.009072467 0.10240048
000130 28 f1 22 3e 56 65 85 3c f3 76 89 3a 99 4b c1 bc
       0.15912306 0.016283672 0.001048772 -0.023595618
000140 fb 2a 90 3d 44 10 07 be ac b5 10 be 67 d5 1b 3e
       0.07039448 -0.13189799 -0.14131802 0.15218125
000150 fc b8 c0 3c 5b 4a 4d bd 31 c5 b4 3d b1 dd c5 bd
       0.023525707 -0.05011974 0.08826674 -0.09661425
000160 39 90 1b bc a1 1e 05 be 60 d9 a8 b9 12 f6 82 3d
       -0.009494835 -0.12999965 -0.00032205414 0.063945904
000170 77 9d 01 3b d4 5a 16 3e 68 d7 29 3e 28 4a af bd
       0.0019777694 0.14683086 0.16586077 -0.08559066
000180 a3 e2 80 3e 1b 10 5f be 66 cb 01 3e 27 0a c6 3c
       0.2517291 -0.21783487 0.12675247 0.024174763
000190 c7 75 99 3d 9f 9f 9d bc 44 1d 00 3e 92 bb 3f 3d
       0.07493167 -0.019241152 0.12511164 0.04680974
0001a0 94 a5 97 3d b7 96 bb bd 49 f7 7d 3e 23 ca 31 be
       0.074046284 -0.09159606 0.24801363 -0.17362265
0001b0 c0 bd 61 3c d6 c1 2b bd af 7b 44 3d d7 9c dd 3c
       0.01377815 -0.041932903 0.047969516 0.027052326
0001c0 b8 62 a9 3c d0 80 a7 bc f9 17 d4 3d 6b 9b a6 3d
       0.020676956 -0.020447165 0.10356135 0.081351124
0001d0 fd 8e af 3d a7 a2 65 3d d2 f8 9a 3d 25 7e 05 3d
       0.08572195 0.05606332 0.0756699 0.032591004
0001e0 a8 2d ba 3c a0 f5 d9 3c 9e 04 da bd 21 15 96 bd
       0.022726849 0.026606381 -0.10645412 -0.07328249
0001f0 6b cd bf bd 6b 81 28 3d fb 54 59 3d 5b f0 a5 bd
       -0.09365352 0.041139048 0.05305956 -0.08102485
000200 c0 df 83 be 9b 5a cc bc 4e b4 12 3c f5 bc e2 3d
       -0.25756645 -0.024945548 0.008954121 0.11071197
000210 82 ce 29 be 4a 1f 19 3d fd 21 0e bd fa 31 c7 bd
       -0.16582683 0.037383355 -0.034700383 -0.09726329
000220 3d de a4 bd 22 f9 c9 3a 7f bb dd 3d f1 2d 87 3d
       -0.08050201 0.001540933 0.10826778 0.066005595
000230 b6 b3 29 3b a4 35 bb bd 84 ae 95 bd 46 08 f2 bd
       0.002589447 -0.091410905 -0.07308677 -0.11817984
000240 e2 fb 86 be 35 83 e7 bd 78 c3 db 3b 3a 18 c7 bc
       -0.26364046 -0.11304323 0.0067066513 -0.024303544
000250 c0 99 44 bc 4a e1 34 be 47 8f 53 bc 80 05 b8 3b
       -0.0119995475 -0.17664066 -0.012912578 0.00561589
000260 49 54 4c be ed cc c3 bd a7 fa 4b 3d 74 f0 14 3e
       -0.19954027 -0.09560571 0.049799588 0.1454485
000270 b2 09 7d be b5 52 98 3d d8 a9 fa 3d ce 5e 63 be
       -0.2471073 0.0743765 0.122394264 -0.22204134
000280 0c 70 e9 bd d3 00 72 be 9f ae 66 bd fc d7 68 3d
       -0.11398324 -0.23633127 -0.056318875 0.056846604
000290 ba 4f cd 3d 14 62 03 be 80 58 57 bd 53 68 18 be
       0.10024972 -0.12830383 -0.052574635 -0.14883547
0002a0 c3 ee 81 bd 10 a1 f1 3d b1 67 99 bd c0 e6 b7 b9
       -0.06344368 0.11798298 -0.07490481 -0.00035076402
0002b0 d0 d4 15 be ba 55 50 be 1a ff 62 be da a1 6f 3d
       -0.14631963 -0.20345202 -0.22167626 0.058503963
0002c0 cb ac ff bd 6e 0d 96 bd 85 f7 cb 3d c8 ca 98 3d
       -0.124841295 -0.0732678 0.0995932 0.074605525
0002d0 1b 2d 78 be 89 a9 ae bd 54 2c dd bd a9 82 9d bc
       -0.24235956 -0.0852843 -0.107994705 -0.019227343
0002e0 58 27 a3 3d 0f 24 d5 bd 00 89 c9 bd 1e 3f fa b9
       0.079664886 -0.10407268 -0.09840584 -0.00047730742
0002f0 0b 5e be bc 56 07 a0 3c 22 bd a0 be c9 c3 99 bd
       -0.023238203 0.019534748 -0.31394297 -0.07508046
000300 c9 64 08 be 07 89 d7 bd ea 52 78 3b a3 28 07 be
       -0.13319696 -0.10524183 0.0037891218 -0.13199095
000310 ff 85 49 bc 2c 97 52 bc 40 52 be 3d 52 52 73 3d
       -0.012300014 -0.012853425 0.09293032 0.05940468
000320 4c 06 b7 3d af ef 4a 3e 30 90 2d bc 03 01 43 be
       0.08936748 0.19817995 -0.010593459 -0.19043355
000330 2e 1f 40 3e e3 47 29 3e f7 4b 25 3d 7f 8f 27 3e
       0.18761894 0.16531329 0.04035565 0.16363333
000340 2d f8 23 3e 27 8c ff bc bb 60 01 be 59 5a 60 bd
       0.1601264 -0.03119476 -0.12634556 -0.054773662
000350 98 8f 83 bd 4c 2f 64 bd ef 31 25 3e 05 5a 02 3c
       -0.06423873 -0.05570917 0.1613233 0.007956033
000360 f4 c6 4f bc e4 c2 cc bd db ba 03 3d 26 db 2a be
       -0.012681711 -0.0999811 0.03216062 -0.16685161
000370 f3 48 b3 3c f9 77 b6 3a 1a 26 c4 3b 2e ac 7f bd
       0.02188537 0.0013921253 0.0059859874 -0.062420063
000380 dc 57 5a 3d 00 1d 56 3d 7d 7f 5e 3d 32 61 07 bd
       0.053306445 0.05227375 0.0543208 -0.033051677
000390 fb 91 ad bd fe 22 76 be 8d 44 13 3e f0 35 f2 bd
       -0.08475109 -0.24036786 0.14381619 -0.11826694
0003a0 7d 38 9a bd d7 d2 68 be 01 b9 b0 3c c7 2d d9 bc
       -0.075303055 -0.22736679 0.021572592 -0.026511086
0003b0 e8 48 77 3d ab ce 3a 3e 6a 92 08 be 63 28 a1 bd
       0.060372263 0.182429 -0.13337103 -0.07869031
0003c0 86 c1 62 3e bc 68 62 3d cd 00 05 3e 49 c3 86 bd
       0.22144136 0.055275664 0.12988587 -0.065802164
0003d0 b3 48 c5 3d c0 96 f4 bd 2f 09 55 bb 2e bb a3 bc
       0.09633007 -0.11942816 -0.0032506695 -0.019986715
0003e0 aa 9f 4b 3d c5 3a 49 be fc a5 bd 38 69 6d b6 bd
       0.049712814 -0.19651325 9.043139e-05 -0.08907587
0003f0 92 be 46 3d b6 b2 cb bd b7 95 79 bb 70 a9 b4 be
       0.048521586 -0.09946196 -0.0038083622 -0.3528552

network_body._body_endoder.seq_layers.2.bias f4 [128]
000000 bf e4 8a bd 34 e1 48 3d d9 55 32 bb 0f 4d b1 3b
       -0.06781911 0.049042895 -0.0027211814 0.0054107974
000010 fb 9f 83 3d 50 59 e6 3b 12 93 8f ba ca 44 14 bd
       0.06426998 0.00702969 -0.0010953865 -0.036198415
000020 cd 46 7c bd 42 10 ab 3d 7b 0d 8b 3c ea 50 c4 3c
       -0.06159096 0.0835271 0.016974201 0.023964364
000030 5c 79 ac 3d b4 fe 86 3d fe 71 5b 3b 1f f8 19 bc
       0.08421585 0.065915495 0.0033484693 -0.009397536
000040 2a 85 92 bc b0 dd 35 3d 42 ea 99 bd 78 05 bd 3c
       -0.017885763 0.04440087 -0.07515384 0.023073897
000050 ac de a5 3c 68 ea 4c 3d ab b6 08 bd 32 2d 1b bc
       0.02024778 0.050028235 -0.03337733 -0.009471225
000060 ad 9b ef bc 04 9e ee 3c 79 36 3b bd 20 89 87 bd
       -0.029249037 0.029128082 -0.045706246 -0.066179514
000070 c9 4b 39 bd 25 5f 2f bc 0e 00 b5 3c bf ec e9 3c
       -0.04523829 -0.010703837 0.022094753 0.028555272
000080 90 8f a0 3d f7 59 6d 3d 50 c1 cd 3d f3 95 20 3d
       0.078398824 0.057947125 0.10046637 0.039205503
000090 79 99 23 bc 95 4b 19 bd 91 0d 34 3d 6e 71 27 3b
       -0.009985321 -0.037425596 0.04395825 0.0025549787
0000a0 91 8c be 3d 07 2e 07 3d 78 68 84 3c c6 f4 30 bd
       0.09304155 0.03300288 0.016163096 -0.043202184
0000b0 c1 51 69 3d dc a6 87 bd 8f f5 eb 3c c3 a1 41 bc
       0.056962732 -0.06623623 0.028803615 -0.011818352
0000c0 06 d1 2a bd 3a 56 64 bd e6 56 22 3c aa 2e 67 3d
       -0.041703247 -0.055746295 0.0099084135 0.056440987
0000d0 07 31 9e 3d 7c 78 cd 3d c6 cc a6 3d 78 5d 82 bc
       0.07724195 0.10032746 0.08144526 -0.01591371
0000e0 19 c5 c8 3d a3 b3 06 3d 30 21 3f bd 95 39 36 bb
       0.098032184 0.03288616 -0.04666251 -0.0027805318
0000f0 9b c4 71 3d cc ad d9 3c 1e b6 92 bc 03 f7 da 3d
       0.05902539 0.02657213 -0.017909106 0.10691645
000100 ca ca d3 3c 48 09 22 3e 9a d7 76 3d 43 be 4b bc
       0.025853533 0.15823853 0.060264207 -0.012435499
000110 7e a4 ad bc e0 34 23 3e 30 fb 8d 3d d2 3a e9 bd
       -0.0211966 0.15938139 0.06932676 -0.11388172
000120 3a 0e 95 3d cf 6a bc 3c 67 bf 20 bd 07 b8 d3 bc
       0.07278104 0.023000149 -0.039245035 -0.025844587
000130 e7 a0 bb 3c 36 fe 50 3d 6f e9 09 3c 16 7f 0b bc
       0.022903873 0.051023684 0.008417471 -0.008514186
000140 d2 12 6c bd 42 23 43 3d e9 5e 2e 3b ae 3b d8 bc
       -0.057635136 0.047641046 0.0026606864 -0.026395645
000150 5a e8 45 3d ec 18 1d 3d b4 04 c9 3d 09 f1 18 3c
       0.04831729 0.038353845 0.0981535 0.009334811
000160 51 1b ba 3d 6f 12 2e bd f5 64 22 bd ce b2 78 3b
       0.090872414 -0.04249805 -0.03964706 0.0037948373
000170 19 34 e0 3c 65 3b 35 3c c4 25 16 3d 55 3f 15 3b
       0.027368592 0.011061524 0.03665711 0.0022773345
000180 e5 dd e6 3d e9 33 72 3d ed ff 7f 3d b3 d0 0b 3d
       0.11272792 0.059131537 0.06249993 0.034134578
000190 67 0b 8e b9 ab af 8e 3d 62 b9 d8 3b 1d 1f ea bc
       -0.00027092846 0.069671 0.006613896 -0.02857929
0001a0 36 9c 91 bc 9f 20 34 3d d5 09 2f 3d 66 2d c8 3d
       -0.017774682 0.043976422 0.042733986 0.09774284
0001b0 75 1c 5a 3d fa 8b 7d bd ec 3a b6 bc 89 53 9c ba
       0.053249795 -0.06190107 -0.022244893 -0.0011926751
0001c0 4c 67 48 bd e6 ab 82 3d 55 1a 9b 3c 8f af b9 3d
       -0.048926637 0.06380443 0.018933455 0.09066688
0001d0 97 2d 66 3d d0 70 59 bc c0 e3 15 bd ab 30 71 bb
       0.05619582 -0.0132715255 -0.036594152 -0.003680269
0001e0 f3 34 b2 3a b5 93 60 3d 5f 23 9f bb ea 3d c0 bc
       0.0013596102 0.054828364 -0.0048565115 -0.023467023
0001f0 26 94 05 3e 96 a4 06 bc bf 2f 14 bc b6 fd af bc
       0.13044795 -0.008217951 -0.009044587 -0.021483283

action_model._continuous_distribution.log_sigma f4 [1, 2]
000000 4b 7a 46 be 2e 78 54 be
       -0.19382589 -0.2074897

action_model._continuous_distribution.mu.weight f4 [2, 128]
000000 74 ff 15 bd 22 30 4b 3d 2f b5 c2 3d a8 a6 76 ba
       -0.036620572 0.04960645 0.09507214 -0.0009408989
000010 7e c5 df 3d ea e2 1d 3d 28 c3 a8 3d 11 ce 58 bd
       0.109263405 0.03854648 0.08240348 -0.052930895
000020 9b dd 4f bd 10 80 47 bd 3b b9 14 3e 50 61 ab 3d
       -0.05074845 -0.048706114 0.14523785 0.0836817
000030 3e 60 77 3d 62 27 4c 3c df ae 10 3d fa 0e 4a 3d
       0.060394518 0.0124605615 0.03532302 0.04933069
000040 0f f4 74 bd 42 f1 9a ba c0 68 52 bd 90 b5 76 3d
       -0.059803065 -0.0011821168 -0.05136943 0.060231745
000050 23 65 44 3d 59 77 53 3e 8f aa 1b bd d4 b4 a9 3d
       0.047948014 0.20650996 -0.038004454 0.08286443
000060 87 2d 1c 3d f6 f3 a9 bc 22 d8 29 bd af 1f 58 3b
       0.038129356 -0.020746212 -0.041465886 0.003297787
000070 d6 6e f9 bc 4a 82 e6 bd d9 50 df bc 7f a3 74 bd
       -0.030448359 -0.112553194 -0.02726023 -0.059726235
000080 30 17 62 be 87 05 6f bd dc 1a 3e 3d 0b ba 79 3d
       -0.22079158 -0.05835488 0.046412334 0.06096844
000090 52 49 0e bc 23 e2 71 bd f8 02 27 be b7 61 52 3c
       -0.008684473 -0.05905355 -0.16309726 0.01284068
0000a0 f9 c5 11 3e ee bf 2f bb d4 07 18 bb 27 86 80 bc
       0.14235677 -0.002681728 -0.0023198025 -0.015688969
0000b0 59 ec 46 3d df 80 26 bd 8e 88 86 3d 5e 13 a3 3d
       0.048565242 -0.040650245 0.065690145 0.079626784
0000c0 2c 66 29 3c e9 88 85 3c 7d a1 9b 3d de 98 f5 bc
       0.010339301 0.016300635 0.07599161 -0.02998012
0000d0 d2 cf 90 bd 29 a6 37 be d8 1c a3 3d d4 83 86 bc
       -0.070708886 -0.17934479 0.07964486 -0.016420282
0000e0 50 4f fc bc da b2 fe bd 1a 76 14 bc 53 77 a4 3c
       -0.030799538 -0.12436457 -0.009061361 0.02007643
0000f0 55 d2 0c be ae ac ed bd a7 6d cf 3c a1 8c 4d 3d
       -0.1375211 -0.11605202 0.025320841 0.050182942
000100 14 42 73 3d 55 46 41 3e 5a 37 5b bb 96 4c d0 bd
       0.05938919 0.18874486 -0.003344974 -0.101708576
000110 0d a1 c3 bd 19 b3 df 3d 85 92 27 be 28 d8 32 bc
       -0.095522024 0.10922832 -0.16364487 -0.0109157935
000120 ec 5f af bd 0e 8c 87 bb 7d ee a7 bc 6e 44 30 bd
       -0.085632175 -0.004136569 -0.020499462 -0.04303401
000130 e8 39 21 3e 60 99 00 be 26 df b9 bd ce 94 35 3c
       0.15744746 -0.12558508 -0.09075765 0.011082841
000140 53 90 a7 bb ba 90 09 be 1c 10 2c be a6 19 29 3c
       -0.0051136403 -0.13434115 -0.1680302 0.0103210565
000150 d6 38 16 3e d0 89 04 be 11 82 55 be a5 76 75 be
       0.14670119 -0.12943196 -0.20850398 -0.2397104
000160 de 9d a3 3d a6 ef 0f bd 9c 0d a3 bd fd 0f e4 3c
       0.07989095 -0.035140656 -0.0796158 0.027839655
000170 db 05 29 3c 5f 87 28 bd 1a f3 b8 3c 81 84 81 bd
       0.010316337 -0.041144725 0.022576857 -0.06324101
000180 71 a2 03 3e 75 e3 2e 3d 99 ff b1 3d 34 b4 81 3d
       0.12854935 0.04269739 0.086913295 0.06333199
000190 df 12 06 bc 77 d3 bf bd a9 b8 6d bd 39 42 6e bb
       -0.00818321 -0.093665056 -0.058037434 -0.003635539
0001a0 4a 74 ef bd 80 56 36 3d 4d fb 66 be 5a db 54 3e
       -0.11692102 0.044516087 -0.22556801 0.20786801
0001b0 e2 20 12 3e fe 14 b3 bc 6f d8 47 3d 08 03 ec bc
       0.14270356 -0.021860596 0.04879039 -0.02881004
0001c0 0b 27 24 bc 24 dd a4 3d c9 37 e1 3c 0e ff 63 bd
       -0.010019074 0.08049992 0.02749242 -0.05566316
0001d0 4e be 17 3d 26 be 55 bd 32 9f 0b bd d1 b4 06 3c
       0.037046723 -0.052183293 -0.034087367 0.008221821
0001e0 68 9e ce bd 79 9d 52 3e 91 4f a5 3c 30 d9 39 bd
       -0.10088807 0.20567884 0.020179542 -0.04537314
0001f0 a7 6e f6 3d d9 66 55 bb 61 d0 16 bd a3 0b 78 3d
       0.12032824 -0.0032562523 -0.03681982 0.060557973
000200 fe 10 48 3c d9 75 2c bd 5f a7 b6 3d d7 56 95 3d
       0.0122110825 -0.042104576 0.08918642 0.07291954
000210 f2 9e 00 3d 68 c4 b1 3d d9 92 b7 bb 21 5c 8c 3d
       0.031401582 0.0868004 -0.0056022224 0.0685351
000220 46 a2 8f bc 73 c3 59 3e 1f 15 7d bc ea 09 50 bc
       -0.017533433 0.21265964 -0.01544693 -0.012697676
000230 8c 3c dd 3b ad c6 00 bd c7 03 f0 3d 37 10 e6 3b
       0.0067516025 -0.031439472 0.117194705 0.007020976
000240 83 09 e7 3b ec 88 1a bd 05 ea 8d 3d 29 c9 20 bb
       0.0070506944 -0.037728235 0.06929401 -0.0024533963
000250 04 bf 1c 3d 83 df 88 bd fa e4 06 bc 5d a0 d8 3d
       0.038268104 -0.066832565 -0.008233303 0.10577462
000260 a5 3a f7 3d 10 fb 0f be 96 df 25 3b a8 15 e9 3c
       0.120717324 -0.14060616 0.002531027 0.02845271
000270 67 00 1f bc b8 35 e6 3b b0 5e a9 3d c3 01 22 bd
       -0.009704686 0.0070254467 0.08270013 -0.03955246
000280 29 4e 0f 3d c0 a4 42 be 96 e1 51 3e 47 8a ad ba
       0.03498665 -0.1900816 0.2049621 -0.0013240062
000290 e5 d3 a3 bc 75 92 6d bc d2 b0 bc 3d 26 4a e1 bc
       -0.0199985 -0.01450025 0.09213413 -0.027501177
0002a0 1d df 6c 3d 1a 9f 19 3e d1 8f 0c bd fd dd 05 bc
       0.057829965 0.15002099 -0.03431684 -0.008170602
0002b0 3e 30 00 bd 92 f5 c1 3c c9 41 5f 3d 62 7f 6b 3c
       -0.031296007 0.023676667 0.054506097 0.014373632
0002c0 db 0f 91 3d df d8 29 bb f3 6f a2 3c c2 39 19 3e
       0.07083102 -0.0025916619 0.019828772 0.14963439
0002d0 7b 99 73 3e 18 5f 13 be 5d a7 c6 bd b8 48 47 bd
       0.23789017 -0.14391744 -0.09699891 -0.048653334
0002e0 bb dc 8c bd 65 d1 55 3b b9 d4 9f bc 03 d6 5a 3d
       -0.068780385 0.003262603 -0.019510614 0.053426754
0002f0 be e8 7b 3e cc 2f 07 3e 78 3e 41 3c 64 4f 93 bd
       0.24600503 0.13201827 0.011794679 -0.07192877
000300 49 f2 71 bd df 82 d2 bd c3 85 3f 3e 26 f1 fc 3a
       -0.05906895 -0.10278868 0.1870337 0.0019297942
000310 91 10 0e 3d 4b bc 04 bd 4c a5 94 3d fe f7 b9 3c
       0.034683768 -0.032406133 0.072580904 0.02270126
000320 1c b0 50 3e cb 09 93 3d ff 85 09 bd a5 29 fe bc
       0.2037968 0.07179602 -0.033575054 -0.031025717
000330 37 11 0b 3d 14 92 d9 bd 86 a9 83 3c 73 ea 0b 3e
       0.033951964 -0.10623565 0.016072046 0.13663654
000340 9c 31 b1 ba 97 e7 73 bd 02 a2 72 bd f6 50 84 3d
       -0.0013518813 -0.059547033 -0.059236534 0.064607546
000350 df 37 1e 3e 71 d9 11 bc b7 c3 3f 3e 40 64 39 bc
       0.15451 -0.00890194 0.18727003 -0.011315405
000360 ca e2 f4 bc 3f 40 43 3c f6 c2 8f 3c 5c 90 26 3d
       -0.029893298 0.011917173 0.01754902 0.040665016
000370 d9 bd 4d 3e b1 34 07 3e ac 20 0b 3e 15 ba 68 bd
       0.20091952 0.13203694 0.13586682 -0.056818087
000380 58 6f 6a be b1 fb c1 3d c2 2d 82 3d da ae bc bc
       -0.22894037 0.094718345 0.06356384 -0.023032594
000390 75 62 15 bb 2a 0f bb bd 57 da 54 bd d7 d0 ca bb
       -0.002279428 -0.09133752 -0.051966038 -0.0061894464
0003a0 24 42 b3 3d 1f 79 13 bd 0a 55 f6 3c 99 ce d1 3d
       0.0875285 -0.036004182 0.030069847 0.102444835
0003b0 cb 88 53 3b 71 6b 3b 3c ae 54 e2 3c 8d ac 8c 3d
       0.003227758 0.01143919 0.027628269 0.06868849
0003c0 af d3 8e 3d 3f 7e 12 3e 22 ce 50 bd c9 33 51 be
       0.06973969 0.14305972 -0.050977834 -0.2042991
0003d0 60 af 09 be f7 15 35 3d 28 ee 93 bc 97 09 dd bb
       -0.13445807 0.0442104 -0.018057898 -0.006745528
0003e0 89 4e 61 bd e4 50 59 bb 1d 83 bd 3a e0 ea 61 bc
       -0.055006538 -0.0033159787 0.001445863 -0.013788909
0003f0 3f a6 99 bd 73 e1 ef 3d ff c0 17 bd 3e eb 8b 3d
       -0.07502412 0.11712923 -0.03704929 0.06831978

action_model._continuous_distribution.mu.bias f4 [2]
000000 c7 f1 e1 3c ce 73 05 bd
       0.027581109 -0.032581143

action_model._discrete_distribution.branches.0.weight f4 [2, 128]
000000 fe 3c 88 3d 0c a6 98 3d 60 27 2c 3b 62 d6 c0 3d
       0.06652258 0.07453546 0.0026268587 0.0941589
000010 b8 7d 28 bd da 85 c1 3c 3c 0e 87 3d b7 9e 81 3d
       -0.04113552 0.023623396 0.06594512 0.063291006
000020 e7 e2 5e 3d c5 61 b3 bd 9d ef b2 bc eb 03 df 3d
       0.05441561 -0.087588824 -0.021842772 0.10889419
000030 ed c7 0d be 37 11 ba bd 15 44 9c 3d 37 d6 0e 3d
       -0.13845797 -0.09085315 0.07630173 0.03487226
000040 08 f0 42 3c 6c 38 73 3d bd 4e c1 3d 46 1c c6 3c
       0.011898048 0.05937998 0.09438846 0.024183404
000050 e4 7e 04 3e 69 79 53 bd f0 c1 e3 3d df 03 c4 3d
       0.1293903 -0.051629458 0.11120975 0.09571051
000060 ed 7c d5 bd dc 74 0b bd c0 23 99 3d 48 03 fd 3c
       -0.10424218 -0.034046993 0.07477522 0.030885354
000070 c1 bc d6 3d a0 2d 40 3d af 27 3c bd 77 d1 15 3d
       0.10485221 0.04691851 -0.045936283 0.036576714
000080 93 68 41 3d 58 79 8a 3b a9 e3 ba bc b9 c9 92 3c
       0.04721887 0.004225891 -0.022813635 0.017918454
000090 aa 13 9b 3d 81 af 2f 3d e9 5d 3a bd 9e d1 7d 3d
       0.0757211 0.042891983 -0.045499716 0.061967485
0000a0 72 1c c1 bc 15 06 ba 3c 25 d0 a7 3d 69 9b 99 3d
       -0.023573134 0.022707978 0.08193997 0.07500345
0000b0 e6 30 f1 3d c4 0d 9b 3d d1 ae be 3c 7a 31 3c bc
       0.11776905 0.07570985 0.023276718 -0.0114864055
0000c0 f7 20 c1 3d 26 9e b9 3d 94 9b 73 3d 56 29 c4 bd
       0.09430116 0.090633675 0.059474543 -0.09578197
0000d0 ff 30 84 bc da c9 f6 3c ac c8 98 3d f6 70 ac 3d
       -0.016136644 0.030125547 0.0746015 0.08419983
0000e0 d6 29 e9 bd e3 04 4e bc 84 fe ff 3d cd f9 cb 3d
       -0.11384933 -0.012574407 0.12499717 0.09959755
0000f0 91 51 a2 bd ca e8 b5 bc 56 a7 a8 3d 95 54 37 bd
       -0.07925714 -0.022205729 0.08235042 -0.044758398
000100 c2 09 b7 3d 29 a3 f3 3b 04 86 43 bc e6 77 39 3d
       0.08937408 0.0074352217 -0.011933807 0.04528036
000110 36 72 7a 3d 10 b3 64 bd 70 42 e4 bd 1e 28 d4 3d
       0.061144076 -0.05583483 -0.111454844 0.10359214
000120 de 7f 02 3d 18 6a 08 3e 0d 65 ee 3d d9 d7 cf 3d
       0.031860225 0.13321722 0.11640368 0.101485915
000130 49 8f 09 3c 12 cd a5 bd 31 12 47 3d bb 02 ef bc
       0.008395978 -0.08095755 0.048601333 -0.029176107
000140 46 ea 03 3e 8e 2a 3a 3d 4f 88 28 bd d4 97 26 3d
       0.12882337 0.04545074 -0.04114562 0.04067214
000150 bf 8e 85 bc f5 dd 3c 3c f4 d3 eb bd 79 10 6e bd
       -0.016303418 0.011527528 -0.11515036 -0.05812118
000160 74 27 47 3d 78 fa 88 3d 4e b0 51 3d 53 d8 b2 3d
       0.04862161 0.06688398 0.051193528 0.08732667
000170 f5 4c 0d 3d c6 ed c7 bd 17 4b 64 bc a6 b1 8b 3d
       0.03449722 -0.097621486 -0.013933918 0.06820993
000180 ea a8 a8 3c 81 ad cb 3d 58 02 9f 3d 94 23 b3 3d
       0.020588357 0.099452026 0.07764119 0.0874702
000190 54 f1 04 3e 63 22 c6 bd c8 c9 71 3c c8 0f f6 3d
       0.12982684 -0.096745275 0.014757581 0.12014729
0001a0 eb a0 fb bc f2 59 b0 3d bb 2f 01 3a e0 01 0c bd
       -0.03071638 0.08610906 0.0004928072 -0.034181476
0001b0 7e a1 59 3d 63 79 a3 3d e9 ca 27 3e e6 59 0a bd
       0.053132527 0.07982137 0.16385998 -0.03377714
0001c0 1a a0 19 bd c7 2c d9 3c 9e f3 5c 3d c1 e6 84 bd
       -0.0375062 0.02651061 0.05394327 -0.06489325
0001d0 df 37 97 3c fd a7 09 be dd ba 00 3e c2 24 1b 3e
       0.018459259 -0.13442989 0.12571283 0.1515074
0001e0 cf c9 17 3d 58 78 7f bc ec 06 08 3e 44 71 05 3d
       0.037057694 -0.015592657 0.1328389 0.03257872
0001f0 63 59 64 bc 4d 76 f4 3c f8 51 d5 3d 3f 67 39 3d
       -0.013937327 0.029841566 0.10416025 0.04526448
000200 1a 61 c7 bd b6 6d 92 bd 0b 83 05 bb e2 eb c8 bd
       -0.097353175 -0.07149832 -0.0020372297 -0.09810616
000210 8d b3 60 3d 5b 83 06 bd 97 ef 43 bd 71 fa 90 bd
       0.054858733 -0.032840114 -0.047835913 -0.07079018
000220 a0 71 87 bd 95 03 ad 3d 52 dd 20 3c 65 1f ee bd
       -0.06613469 0.08447949 0.009818392 -0.11627082
000230 f0 98 0f 3e bb 5a c3 3d 02 3f 82 bd 34 3f ef bc
       0.14023185 0.0953879 -0.06359674 -0.029204942
000240 82 50 25 bd 60 78 94 bd b3 66 83 bd fc 8f 16 bd
       -0.04035998 -0.07249522 -0.06416073 -0.036758408
000250 dd f4 0a be d1 bc 74 3d 53 05 e0 bd 00 90 b9 bd
       -0.1356997 0.05975038 -0.109385155 -0.09060669
000260 2b 30 c6 3d 91 09 32 3d 30 86 b1 bd de df 4a bd
       0.09677156 0.043466154 -0.08668172 -0.049529903
000270 24 2f b5 bd bf bb 55 bd 9e 2c 72 3d b9 0b 39 bd
       -0.08846882 -0.052181 0.05912458 -0.045177195
000280 7d ad 20 bd db a4 e5 b9 90 65 c8 3c 19 4c 8b bc
       -0.03922795 -0.0004380111 0.024462491 -0.01700406
000290 45 d4 ae bd fe 5c 1f bd b3 e7 53 3d fb c4 b5 bd
       -0.08536581 -0.038907044 0.051734637 -0.08875462
0002a0 4c bb 97 3c bc 6b 37 bc 3c 03 be bd 6b 51 8d bd
       0.018521927 -0.0111951195 -0.09277961 -0.06900295
0002b0 f6 d0 04 be 8b 3b d2 bd 66 3f 19 bd d7 3e 60 3c
       -0.12970337 -0.10265263 -0.037413977 0.013686857
0002c0 5e 96 c8 bd 9b 70 96 bd 59 92 8c bd 18 43 c7 3d
       -0.09794305 -0.073456965 -0.06863851 0.09729594
0002d0 5d 7c cc 3c bf cc 62 bd f0 79 9b bd 9c a6 b4 bd
       0.024961645 -0.055371042 -0.07591617 -0.08820841
0002e0 15 2f bd 3d ab c4 88 3c ef 3d eb bd 69 88 b8 bd
       0.09237496 0.016695341 -0.11486422 -0.09010393
0002f0 d1 46 a4 3d 98 2e 6e 3c fb 89 b4 bd e5 b7 45 3d
       0.0802132 0.014537476 -0.0881538 0.04827108
000300 fa d6 a8 bd 23 8c 6c bc d3 4c c1 bb 86 9a 16 bd
       -0.082441285 -0.014437708 -0.0058990507 -0.03676846
000310 50 bc 81 bd a9 44 8b 3d 02 a4 ba 3d 28 78 cf bd
       -0.06334746 0.06800205 0.09113313 -0.1013034
000320 96 f9 0b bd 01 c1 08 be 65 ed ed bd 6f ac c7 bd
       -0.03417357 -0.13354875 -0.11617545 -0.09749686
000330 2d ad 8f bc f8 12 83 3d 84 bd 4f bd 3d 27 b7 3c
       -0.017538631 0.064001024 -0.050717846 0.022357577
000340 53 d1 ff bd 72 d1 28 bd d3 f6 97 3d 9d 3e 65 bc
       -0.12491097 -0.041215368 0.07420125 -0.013991979
000350 23 52 81 3c 16 b9 a5 bc 73 12 d5 3d cd 60 20 3d
       0.015786236 -0.020229857 0.104039095 0.039154816
000360 c9 25 58 bd 5e fd 82 bd 07 8f 5b bd 90 b2 be bd
       -0.05277041 -0.06395982 -0.0536032 -0.09311402
000370 fc 34 f8 bc a7 64 af 3d 3d 31 b3 3b dd df 85 bd
       -0.030298702 0.0856412 0.005468516 -0.06536839
000380 08 d8 e2 bc 65 77 bd bd cc 5f a0 bd ce 97 b1 bd
       -0.027690902 -0.09251288 -0.07830772 -0.086715326
000390 1d e5 ec bd 8d 4a cc 3d 46 d3 05 bc 62 d5 e5 bd
       -0.115671374 0.09975157 -0.008168047 -0.1122234
0003a0 50 9e 82 3c dd 62 b0 bd 03 b3 16 bc 0e cb 3a 3c
       0.01594463 -0.08612607 -0.009197953 0.011400951
0003b0 a5 1c a0 bd 35 e2 6c bd 75 45 17 be 6d ad 5d 3d
       -0.078179635 -0.057832915 -0.1477259 0.05412047
0003c0 16 e2 1c 3d 16 fc fa bc 39 99 1f bd 9a 73 83 3d
       0.03830155 -0.030637782 -0.038964484 0.064185336
0003d0 21 0f 35 bc 70 04 01 3e 1a ad d9 bd 37 92 1b be
       -0.01105097 0.12599349 -0.1062872 -0.15192495
0003e0 2b 9b 6d bc 68 97 0f 3c e8 c2 03 be 69 d4 1e bd
       -0.014502327 0.008764125 -0.1286732 -0.03877679
0003f0 5e b3 a3 3c a8 23 04 bd c1 d7 c2 bd c8 24 57 bd
       0.01998299 -0.032260567 -0.09513808 -0.05252531

action_model._discrete_distribution.branches.0.bias f4 [2]
000000 2a 7c 38 3c b4 7b 38 bc
       0.011260072 -0.011259962
