ML-Agents/Examples/results/SphereHunt/SphereHunt/SphereHunt-18499883.onnx (onnx, 80822 bytes, 9 tensors)

network_body._body_endoder.seq_layers.0.weight f4 [128, 10]
000000 76 1b 5d 3e 54 ad 90 3d f5 50 23 be 8a d5 46 3d
       0.21592507 0.0706431 -0.15948851 0.04854349
000010 62 d7 b6 be ee 56 71 3e ca 73 02 bf 0d 78 26 be
       -0.357112 0.23568317 -0.5095793 -0.16256733
000020 8f 36 1e bc 6f 1a 42 3e 4f 43 5a 3e f0 ce 2e 3e
       -0.0096565625 0.18955396 0.21314739 0.17071128
000030 5b fc 86 3e 40 59 c5 3c 18 c1 3b 3e e0 0b 9e be
       0.26364407 0.02409041 0.18335378 -0.30868435
000040 00 f4 50 bf 79 5b 84 3d 83 18 8d be 6a cf 45 3d
       -0.81622314 0.064627595 -0.27557763 0.04829351
000050 76 15 e6 3d d4 0a 93 be 99 3a 78 be 13 62 5c be
       0.11234562 -0.287192 -0.24241103 -0.21521787
000060 a8 c7 a2 bc 43 4b 71 be 41 b1 82 3e 22 95 06 3f
       -0.019870594 -0.23563866 0.2552586 0.5257131
000070 55 a1 f8 3d d0 31 0d 3f bd 36 d7 3d 6e 49 51 be
       0.12140147 0.5515413 0.105084874 -0.20438167
000080 1f df 4d 3f c8 5f 35 3e 3d 10 37 be b0 a5 01 bf
       0.8041858 0.17712319 -0.17877288 -0.50643444
000090 72 0a ed bc ff 2b 90 be 27 7f 4f bc b7 7d e4 3e
       -0.028935645 -0.28158566 -0.012664593 0.44627163
0000a0 ba 38 89 bd 4c f5 b1 be 4c fe 6d 3e 4e 82 d0 3d
       -0.06700273 -0.3475746 0.23241538 0.10181104
0000b0 10 79 87 3c f8 3d e2 be 28 3c 36 3f 85 3a e1 bb
       0.01653722 -0.44187903 0.7118554 -0.006873431
0000c0 0b 6c 3a 3f 56 58 a6 36 0c bf 08 bf c4 2b a6 3e
       0.7282111 4.957469e-06 -0.53416514 0.32455266
0000d0 88 80 1c 3f 47 6d 66 3d 3f 3e bb ba 90 8d d2 bd
       0.61133623 0.05625656 -0.0014285519 -0.10280907
0000e0 71 42 1d 3c 61 ea 95 3e 63 a0 0a be ed 8d 65 be
       0.00959836 0.2928038 -0.13537745 -0.22417422
0000f0 c5 84 1b bf f3 d4 85 be 27 74 d2 bd 3e 88 74 3d
       -0.60749465 -0.2613903 -0.102760606 0.059700243
000100 c2 ab ae be 97 17 80 3e 1d d0 d8 3e 80 de 4d be
       -0.34115416 0.25017998 0.42346278 -0.20104408
000110 02 ce 17 3f 94 48 6f 3e 68 46 a9 be cc 6a 58 be
       0.5929872 0.2336753 -0.33061528 -0.2113449
000120 9a f9 72 bf ff e3 2a 3f 6f 3f 77 bc 99 65 4a 3e
       -0.9491211 0.66754144 -0.015090807 0.19765319
000130 8b 86 0a 3f 24 a0 f3 bd 72 c7 d5 3d 4d 6b 2d 3e
       0.54111546 -0.11895779 0.10438432 0.16935463
000140 f1 1d 4c bf ce c0 65 be fc 7c 99 3e f8 11 fe 3d
       -0.79733187 -0.2243683 0.29978168 0.12405771
000150 31 59 e3 3e 8b 87 ed 3e 9d e4 d1 3e 8a 75 64 bd
       0.44403985 0.46392474 0.4099473 -0.055776156
000160 8b 97 35 bd c7 a3 55 3d 03 39 a9 3d ac 1c 6a be
       -0.044333976 0.052158143 0.08262827 -0.228625
000170 df 68 74 3e 28 56 fb 3c f3 20 3b be 0c 49 8c be
       0.2386813 0.030680731 -0.18274288 -0.2739948
000180 38 cf 80 be f7 5b 02 bf 90 4a 9c be f8 79 95 3d
       -0.25158095 -0.5092158 -0.30525637 0.07298654
000190 2d 55 37 3e 59 22 7b 3d 8e 3c a9 3e ac 02 c0 3d
       0.17903586 0.061312053 0.33054012 0.093755096
0001a0 f9 2e 10 3f e4 dc 28 be f7 f0 9e be a2 8d 1d bf
       0.56321675 -0.16490513 -0.31043217 -0.6154424
0001b0 1d 33 91 be a5 62 7a be 1c 56 ca be ae b7 04 3e
       -0.2835931 -0.24451692 -0.3951882 0.12960693
0001c0 a5 2b cc bd f3 e4 e2 3e 2a f4 90 3d b9 fa 5a 3e
       -0.09969262 0.443153 0.070778206 0.21384706
0001d0 0a bc 6a bd 49 e8 9b bd c1 a6 25 be de 00 ad bd
       -0.057308234 -0.07612664 -0.16176893 -0.08447431
0001e0 47 9d 84 be c0 f2 9e 3e 1c 7a b8 bd 00 ae 90 3e
       -0.25901243 0.3104458 -0.090076655 0.2825775
0001f0 db 90 61 3e a4 ed 35 3e 9b 74 52 3f 62 0b be 3c
       0.22027914 0.17766434 0.82209176 0.023198787
000200 33 d9 17 3f b9 f8 36 3e 85 2b 48 bd 64 9d 53 be
       0.59315795 0.17868318 -0.04886963 -0.20665509
000210 55 81 b2 be e6 a8 14 3e 95 b2 8f 3e 86 bd c6 be
       -0.34864298 0.14517555 0.28065935 -0.3881647
000220 41 b1 0b be 57 57 50 bf 45 52 6c 3e b9 fe 07 3e
       -0.13641836 -0.8138327 0.23078258 0.13280763
000230 e8 42 95 3d 56 6e bc 3d df 91 82 be 3f 68 16 3a
       0.07288152 0.092007324 -0.25501916 0.000573758
000240 1a cd b9 3c e7 5c 1a bd 41 90 f7 bc 26 7c bb 3d
       0.022680808 -0.037686255 -0.030220153 0.09154539
000250 14 ae 58 be 0e 94 e7 bd 5e 56 1a 3e 91 23 88 3e
       -0.21160156 -0.11307536 0.15072009 0.26589635
000260 f3 63 5d be b5 00 c5 3e c3 10 e7 3d e6 ee e5 bd
       -0.21620159 0.38477102 0.11282494 -0.11227207
000270 48 25 5e be 79 c3 7c be bc cf 20 bd 84 a4 72 3e
       -0.21693909 -0.24683942 -0.03926061 0.2369557
000280 6c eb 14 3e 0f 58 1f bf 89 fc d4 be 5d c5 e0 bd
       0.14542931 -0.6224374 -0.4159892 -0.10975144
000290 f1 b6 88 3e 9d 60 cf be 8b ec f8 be 6b 67 8f 3e
       0.26702073 -0.40503398 -0.48617968 0.2800859
0002a0 f6 24 9d be 0a 31 ea 3e dc 3e 1b 3e bd 32 11 3e
       -0.3069226 0.4574054 0.15160698 0.14179511
0002b0 f4 15 bd 3e fa d7 34 be 66 d4 87 be b9 74 4f be
       0.3693081 -0.17660514 -0.26529235 -0.2025937
0002c0 1c 50 df 3e 93 fb 94 bd 1e 82 12 bd a2 49 f3 be
       0.43615806 -0.072745465 -0.03576862 -0.47517115
0002d0 7f 90 70 3e 7d ab 60 bc fa 04 1a 3f 6f ad dd 3c
       0.23492621 -0.013712761 0.60163844 0.027060239
0002e0 a9 90 57 bf d3 d0 3c 3d 8f 26 d0 3e 45 71 62 be
       -0.8420511 0.046097588 0.40654418 -0.22113521
0002f0 ce ab a8 3e 37 59 dc be 15 c6 b0 3e 64 15 82 bd
       0.32943577 -0.43036816 0.34526125 -0.06351736
000300 45 8e 2c be 21 f5 0b 3b 7f 5f 79 3e d3 f4 5e be
       -0.16851147 0.0021355825 0.24352835 -0.2177308
000310 bf 11 df 3e 90 dc 60 3e f7 1d 30 bf d0 93 e0 3e
       0.43568227 0.21959138 -0.6879572 0.43862772
000320 27 8d b3 be 8a a4 32 bd 5f bc 4c 3d 6b 77 17 bf
       -0.35068628 -0.043613948 0.049984332 -0.5916659
000330 27 78 e6 3d 64 69 4c 3e a5 f4 ca be 32 53 1c 3d
       0.11253386 0.19962078 -0.39639774 0.03816528
000340 e6 9e b1 3d 18 d1 90 3e 5a 53 34 be 51 7d 04 bf
       0.086728856 0.28284526 -0.17609921 -0.5175372
000350 da 44 4f be 0c 3c 60 3e dd 40 a7 3d 0c 25 92 3e
       -0.20241109 0.21897906 0.081666686 0.2854389
000360 6b de 06 3f b7 7d cf be 7f 8d b1 bd 88 47 0a 3f
       0.5268313 -0.405256 -0.08669566 0.540154
000370 38 e3 ef bb 6c bb 45 be 20 cc dd 3e 4d 22 31 3e
       -0.0073207878 -0.19309777 0.43319798 0.17298241
000380 f2 ef 18 bd 63 dd 8f be cb c4 12 3f 0b 28 f2 be
       -0.037338205 -0.28098592 0.5733153 -0.47296175
000390 8d 66 b3 3e c2 f7 2a 3e 93 35 68 bf ef 8d 24 3e
       0.35039178 0.16696075 -0.9070675 0.16069768
0003a0 cb b5 38 3e 9a 08 0d bf 04 4f 90 3e 63 2f ec be
       0.18038099 -0.5509125 0.28185284 -0.46129903
0003b0 70 f8 d9 bc f1 e7 96 be ca c5 9c be a0 e7 08 3f
       -0.026607722 -0.29473832 -0.3061965 0.5347843
0003c0 be ea 9d be ab 8d 30 be 0b fa eb 3d 79 99 bf bd
       -0.30843157 -0.17241542 0.11522301 -0.093554445
0003d0 6a 2c 33 3e 5f bf 9d 3d 9b 9e 12 bf e1 4a 82 3e
       0.17497411 0.07702517 -0.5727326 0.25447753
0003e0 26 45 5d 3e 87 4a 76 bd 3f 85 2a 3f a3 cd bb bd
       0.2160841 -0.06012967 0.6660957 -0.091700815
0003f0 b9 50 fd be fc 83 1e bf 28 f0 5a be 7f 40 3b 3e
       -0.4947565 -0.6192014 -0.21380675 0.18286322

network_body._body_endoder.seq_layers.0.bias f4 [128]
000000 93 8e 2f 3d 7f b8 70 3d fb cc 60 3b d1 a9 4c bd
       0.04286058 0.0587697 0.0034301865 -0.049966637
000010 1c c7 3c bc 42 c3 ef 3d 6f a2 2b bd a0 e7 3f bd
       -0.011522081 0.11707164 -0.041902956 -0.046851754
000020 9a 6f 1c bc b4 cf 48 bd 52 86 47 3c 9a 72 1b 3d
       -0.009548092 -0.049026206 0.012178021 0.03795109
000030 c1 a2 01 3b f0 6f 1d 3d 5e 67 13 3d 38 f7 1e bd
       0.0019780847 0.03843683 0.03598725 -0.038809985
000040 47 12 61 bd ca b1 f8 3b 8b 34 0b 3d b0 37 e7 bc
       -0.05494907 0.0075895535 0.033985656 -0.028224796
000050 79 5b a2 bd a5 bc ae bc 16 c9 f5 bc 34 1c 1d bc
       -0.07927603 -0.021330187 -0.030003112 -0.009589244
000060 5f 9b a8 3c 8a 98 e4 3b 6b 3f cb bd 5d c2 fa 3c
       0.0205819 0.006976192 -0.099242054 0.030610258
000070 a7 11 38 bd 45 18 5c bc 23 6e c4 3d d2 04 1e bd
       -0.04493871 -0.013433521 0.095913194 -0.038578816
000080 f4 f2 e6 bd 1a b9 13 bd 6a e2 98 3b 13 d4 8b 3c
       -0.112768084 -0.0360652 0.0046656625 0.017068898
000090 38 29 77 bc 1b 96 60 3d 27 51 8a bc 9b b8 69 bc
       -0.015085511 0.05483065 -0.0168844 -0.014265205
0000a0 d4 ee 83 bd 12 93 52 bd 6d 3c cc 3d ff e7 f3 bc
       -0.06442037 -0.05140979 0.09972463 -0.02977371
0000b0 0e c0 4a bb a8 94 a1 3c c0 29 e3 bd 3b 7f 23 bd
       -0.0030937227 0.019724205 -0.110919476 -0.03991626
0000c0 9a 19 8a 3d a3 36 9f bc 66 d8 40 bd 05 4d ae bc
       0.06743164 -0.019435233 -0.047081374 -0.02127696
0000d0 69 45 62 bd c5 ed c7 bd 24 ea 9b bd f2 1d 0b be
       -0.055241976 -0.09762148 -0.07613018 -0.13585642
0000e0 8f 03 d9 ba a2 e5 97 bd 03 f4 97 bc 7b 89 f0 3c
       -0.0016556847 -0.07416846 -0.018548971 0.02936243
0000f0 d1 16 81 bd d9 9c 18 bb 8e 7b c5 bd 97 c0 f2 bc
       -0.0630318 -0.0023286848 -0.09642707 -0.02963285
000100 dc d1 89 bc 3f b5 0d bd 7b e4 f6 bd cc 20 65 bc
       -0.016823702 -0.034596678 -0.12055298 -0.01398487
000110 df 76 48 3d d6 8f 3c bd 52 15 2c bd 3d 8e e6 3b
       0.04894149 -0.04603561 -0.04201252 0.007035999
000120 96 c1 37 ba 61 28 04 3b 2e 38 a3 bc 48 55 ef 3b
       -0.00070097425 0.002016567 -0.01992425 0.0073038675
000130 9f 6b 0e bb a1 60 af bd fb 1f f0 bc ba d4 4b bc
       -0.0021731628 -0.085633524 -0.029312124 -0.012440855
000140 41 33 d2 3c 8c 77 0e bc 26 a5 ed 3c ad 0a 98 bd
       0.025659205 -0.008695494 0.029009413 -0.07423911
000150 3c ac d5 bd b6 cc 31 3d 21 73 42 3c dd 77 8c bd
       -0.10433242 0.04340812 0.011868269 -0.068587996
000160 88 9d 22 3e 97 03 3b bd 5f 1b 34 3c 1c 25 35 3d
       0.15880406 -0.04565772 0.010992854 0.044224843
000170 93 66 b4 ba 0e 94 9b bc 21 92 39 bd 91 a9 99 bc
       -0.001376348 -0.018991496 -0.045305375 -0.018757613
000180 29 d5 93 bc 96 70 dd bc 6b 2d 1a bd 70 89 73 3d
       -0.018045979 -0.027031224 -0.03764097 0.059457242
000190 e5 3a a1 bc 21 44 22 3d 10 b1 21 bd ff d2 11 bd
       -0.019681403 0.039615754 -0.0394755 -0.035601612
0001a0 bd 2f e0 bd 8c 59 66 bc dd b8 3d bc 0b 7c 73 bd
       -0.10946605 -0.014059436 -0.011579719 -0.05944447
0001b0 28 55 97 bd 89 5e 8c bd 39 79 a1 bd ac cf 4c bd
       -0.07389289 -0.06853969 -0.078844495 -0.05000274
0001c0 96 f2 3d bc 28 15 53 bd 76 91 a5 bc 39 12 a7 bc
       -0.0115934815 -0.051533848 -0.020210963 -0.020394431
0001d0 7e b1 57 bd 25 c8 84 3d f5 04 09 bc f5 ba e6 bc
       -0.052659504 0.06483487 -0.008362998 -0.02816532
0001e0 72 28 25 be bf 0f 25 3b 55 5a 24 be cb dc f9 3c
       -0.1612871 0.0025186387 -0.16050084 0.03050079
0001f0 ef 3a 19 3d ac 63 ff 3d b8 db 1f bd d6 f7 95 ba
       0.03740972 0.12470183 -0.0390279 -0.0011441659

network_body._body_endoder.seq_layers.2.weight f4 [128, 128]
000000 3a cb e0 bd df 33 07 be 87 42 3f be 13 ed 6a 3d
       -0.109762624 -0.13203381 -0.18677722 0.057354998
000010 98 3d 4c 3d 1b 43 33 3e 0d 19 95 bd a2 e9 20 3e
       0.049863428 0.17506067 -0.07280169 0.15714124
000020 36 64 79 bd 56 da 04 bd 15 d9 27 3e 8c ef c4 3d
       -0.060886584 -0.032434784 0.16391404 0.096160024
000030 fe 77 43 3e 8a 25 96 3d 6c 5d b8 bc 2a c9 bf 3c
       0.19088742 0.07331379 -0.022505485 0.023411352
000040 f3 29 0b be 21 1f 01 3e fb 95 76 3c e2 5e dc 3d
       -0.13590221 0.12609531 0.015050407 0.10760285
000050 f4 e3 61 bd c4 35 07 3e 10 5f 0f bd 5c 7c c7 bc
       -0.055149034 0.13204104 -0.035002768 -0.024351291
000060 99 d6 83 3d 3f 7a 85 bc 68 d7 dd bc 40 29 11 3d
       0.06437416 -0.016293643 -0.027080253 0.03543973
000070 dc 8d df 3d 96 2b c7 bc 93 24 bf 3d 38 3f 87 bd
       0.109157294 -0.024312776 0.09333148 -0.06603855
000080 6d ca d8 bc 45 1a f1 3d 90 b2 f2 bb 28 6a a3 3d
       -0.026463712 0.11772589 -0.00740654 0.07979232
000090 29 f3 82 3d 0d 38 85 bc 19 d5 fd 3c 65 81 f9 ba
       0.06394035 -0.016262079 0.030985402 -0.0019035755
0000a0 c8 d8 c7 bd f2 cd 1c 3e 3c 33 bb bd 54 92 99 bd
       -0.097581446 0.15312937 -0.091406316 -0.07498613
0000b0 8a 59 c3 bb 2e 7a 74 3d 83 87 33 3e f9 fc 8a 3e
       -0.0059616016 0.059686832 0.17532162 0.27146128
0000c0 3e 04 09 3e 7c b2 56 3e a6 e2 95 bd 16 e7 9c 3c
       0.13380525 0.20966524 -0.073186204 0.01915316
0000d0 12 4a be 3d d3 a4 70 3d 1a 0f 03 3c aa 63 84 3d
       0.092914715 0.05875094 0.007999206 0.06464322
0000e0 12 74 87 bd da 41 b6 3d a6 ac 06 3e 39 14 9d 3d
       -0.066139355 0.08899279 0.13151798 0.07669873
0000f0 3f 15 f9 3c 2d cd 32 be 3b 39 0a 3e a7 62 22 bc
       0.030405639 -0.17461081 0.13498394 -0.009911216
000100 e1 a3 ec bd db bc e1 bd da 47 2f bd ff bf 6a 3d
       -0.11554695 -0.110223494 -0.042793132 0.057312008
000110 6f 0d 3b 3c 73 2b 9a 3d 30 9e 6c 3d 9e ba d8 bd
       0.011416777 0.075278185 0.057768047 -0.105824694
000120 99 ed 06 be 0f 26 00 3d d1 1d 21 3c 0a 5e d4 3d
       -0.13176574 0.031286296 0.009833769 0.10369499
000130 df 7b 23 3e dd d2 87 3c 41 fa a9 3a 91 f2 c4 bc
       0.15965222 0.01658004 0.0012968258 -0.024041446
000140 3a 53 91 3d 14 ed 06 be 90 2e 10 be 78 02 1b 3e
       0.07095952 -0.13176376 -0.14080262 0.1513766
000150 ba 87 ba 3c a8 58 4b bd da 58 b6 3d 26 69 c4 bd
       0.022769798 -0.049645096 0.08903666 -0.09590368
000160 6b 07 17 bc 13 fc 06 be 35 8a 7b b9 54 91 83 3d
       -0.009218077 -0.13182096 -0.00023988711 0.064242035
000170 e6 2c 02 3b 63 b0 16 3e 87 7a 29 3e ae 30 b0 bd
       0.0019863187 0.14715724 0.16550647 -0.08603035
000180 27 d6 7f 3e ae 21 5f be 53 dc 00 3e 17 ef bc 3c
       0.24984036 -0.21790192 0.12584047 0.023063226
000190 45 08 98 3d 60 80 9e bc 0c 16 00 3e 69 72 41 3d
       0.07423452 -0.019348323 0.1250841 0.04722825
0001a0 c1 ff 97 3d ed 4f bb bd b5 7b 7d 3e 5f d4 31 be
       0.07421828 -0.09146104 0.24754222 -0.1736617
0001b0 26 a8 43 3c b2 32 34 bd 80 66 43 3d b3 e7 e4 3c
       0.011941945 -0.04399366 0.047705173 0.027942514
0001c0 9b 89 b6 3c 36 67 af bc 13 0b d4 3d 4b 84 a6 3d
       0.022282412 -0.02141152 0.10353675 0.08130702
0001d0 70 91 ac 3d 2e 15 67 3d 6b 95 9c 3d b9 9d 05 3d
       0.084261775 0.056416683 0.07645687 0.03262112
0001e0 d8 74 b3 3c 08 93 cf 3c c1 dc d9 bd 69 50 95 bd
       0.021906301 0.025338665 -0.106378086 -0.07290728
0001f0 e0 fc be bd 77 e5 2b 3d 92 49 59 3d 75 9d a8 bd
       -0.09325576 0.04196688 0.053048678 -0.082331575
000200 c0 dc 82 be 31 e5 bd bc 54 09 31 3c 63 d5 e2 3d
       -0.25559044 -0.023180576 0.010805447 0.110758565
000210 84 f0 2a be 04 c6 1f 3d ae c5 0e bd 77 1e c4 bd
       -0.16693312 0.0390072 -0.03485649 -0.09576123
000220 3c b7 9d bd 6a 8e e3 3a df 9f df 3d b4 68 87 3d
       -0.07700965 0.0017361168 0.10919165 0.066117674
000230 05 3a 14 3b 1b 2a ba bd fd 0e 91 bd 31 31 ee bd
       0.002261759 -0.09090062 -0.07082937 -0.11630476
000240 b6 4e 85 be a8 7d e8 bd b6 c8 be 3b a2 55 b0 bc
       -0.26036614 -0.11352092 0.0058222665 -0.021525208
000250 2c 8c 28 bc 96 7b 34 be cd ba 55 bc ae 30 a6 3b
       -0.010287326 -0.1762527 -0.013045025 0.005071721
000260 d1 c3 4a be 99 d3 c0 bd 1f fe 49 3d b8 37 16 3e
       -0.1980126 -0.09415359 0.049314614 0.14669693
000270 5b bd 7e be 66 f2 98 3d 2f 3d f9 3d 97 87 63 be
       -0.24876921 0.07468109 0.12169873 -0.22219692
000280 64 99 ec bd 73 a6 70 be ee e3 62 bd b7 a9 6c 3d
       -0.115526944 -0.23500995 -0.055393152 0.05777904
000290 75 9b d0 3d 3e f7 03 be 19 b9 51 bd 27 5b 1a be
       0.10185901 -0.12887284 -0.051201914 -0.15073834
0002a0 6d 21 80 bd a2 1a f1 3d 02 e5 91 bd d2 67 23 3a
       -0.062563755 0.11772658 -0.07123758 0.0006233427
0002b0 c1 1b 17 be 0f 7b 4f be 5f 7a 62 be 8a 7d 71 3d
       -0.14756681 -0.20261787 -0.22116993 0.058957614
0002c0 54 4b fd bd 63 61 96 bd 1a 34 cf 3d a5 78 99 3d
       -0.12367883 -0.07342794 0.101173595 0.07493714
0002d0 7b fd 78 be e9 63 ad bd c7 45 e0 bd 6c bc 93 bc
       -0.24315445 -0.08466322 -0.10950809 -0.018034182
0002e0 4e 77 a5 3d 8b e5 cf bd 78 bd c3 bd 9a f7 0b 3a
       0.08079396 -0.10151204 -0.09557623 0.00053393247
0002f0 57 a7 cc bc 54 10 a1 3c 55 0b a1 be 02 68 95 bd
       -0.024982138 0.019661106 -0.31453958 -0.072952285
000300 3a af 07 be 83 61 d4 bd 43 8b 3c 3b 8a ce 06 be
       -0.13250437 -0.103701614 0.002876953 -0.13164726
000310 36 16 41 bc 8a dd 31 bc 80 72 c1 3d 70 bb 71 3d
       -0.011785081 -0.010856042 0.09445667 0.059016645
000320 42 27 bb 3d 61 27 4c 3e 53 3f 15 bc d3 2a 43 be
       0.09138347 0.19936897 -0.009109336 -0.19059305
000330 3c 84 40 3e c3 07 29 3e d5 a0 26 3d e3 31 29 3e
       0.18800443 0.16506867 0.040680725 0.16522937
000340 e7 71 24 3e c3 17 fb bc 50 bb fd bd e5 c1 5d bd
       0.16059075 -0.030650979 -0.12389243 -0.05413999
000350 1c be 81 bd 7a 87 5c bd a8 f0 24 3e 68 1c 04 3c
       -0.063350886 -0.053840138 0.16107428 0.008063413
000360 4c 3a 36 bc 79 78 cd bd b6 39 06 3d 79 0b 28 be
       -0.0111222975 -0.10032744 0.03276988 -0.16410626
000370 17 17 b2 3c 17 64 bd 3a 29 f6 9e 3b 5a 38 7b bd
       0.021739526 0.0014449385 0.004851122 -0.061333038
000380 99 a7 65 3d 7c 81 5d 3d 6d 71 61 3d fe d2 06 bd
       0.056068037 0.054078564 0.055039812 -0.03291606
000390 e8 3a ab bd e8 9d 75 be 6f 37 14 3e 2b f7 ee bd
       -0.08360845 -0.23986018 0.14474271 -0.11668237
0003a0 0e 83 98 bd f5 b2 66 be 9f af b4 3c 75 ae da bc
       -0.07446872 -0.22529204 0.022056399 -0.026694516
0003b0 5f a7 7b 3d 14 ce 3c 3e 0c 0b 08 be ed 54 9e bd
       0.061438914 0.18437988 -0.13285464 -0.07731042
0003c0 0a 30 64 3e 5e 35 62 3d 20 fc 05 3e 36 e0 84 bd
       0.2228395 0.055226676 0.1308446 -0.06488077
0003d0 67 d0 c6 3d 90 04 f5 bd 57 cb 49 bb a9 b2 94 bc
       0.09707718 -0.11963761 -0.0030791366 -0.018151598
0003e0 20 6b 4b 3d 8a 3c 49 be 5a e5 1d ba 1f 30 bc bd
       0.04966271 -0.19652 -0.0006023251 -0.09188866
0003f0 2b 5b 4c 3d a8 50 ca bd fe ff 23 bb 6f b4 b3 be
       0.049891632 -0.09878665 -0.002502441 -0.35098597

network_body._body_endoder.seq_layers.2.bias f4 [128]
000000 08 64 85 bd 15 9d 50 3d 65 39 78 bb 0e 70 01 3c
       -0.0651322 0.050931055 -0.0037876007 0.007900251
000010 5e 74 6f 3d 25 ff c5 3b 4c 39 2c bb f6 f9 12 bd
       0.058460586 0.0060423785 -0.0026279269 -0.035882913
000020 cb 37 79 bd 10 eb a4 3d 2b 7f 7f 3c 0c 5a cb 3c
       -0.060844224 0.08052647 0.015594284 0.024823211
000030 3f b8 a3 3d 76 26 7c 3d ad 11 37 3b 84 2e 19 bc
       0.079941265 0.061560117 0.002793412 -0.009349469
000040 3e 06 97 bc 77 41 3b 3d 6f e0 96 bd af bc b6 3c
       -0.018435594 0.04571673 -0.07367026 0.022306768
000050 a3 40 b3 3c c7 72 42 3d d9 e3 00 bd 08 2c 1b bc
       0.021881407 0.04747274 -0.031467292 -0.009470947
000060 f7 09 f6 bc 28 0a d0 3c 38 13 32 bd 6c f6 84 bd
       -0.030034048 0.025395468 -0.04347536 -0.06492314
000070 7c 6d 2e bd d3 5d 32 bc d1 53 b4 3c 7f 72 ea 3c
       -0.04258488 -0.010886627 0.022012623 0.02861905
000080 ca e9 9d 3d 8e 89 63 3d f5 4f c7 3d 3c 46 19 3d
       0.07710607 0.055551104 0.097320475 0.037420496
000090 0f 3c ac bb 55 58 15 bd f6 67 28 3d dc 75 9d 3b
       -0.005256183 -0.036461193 0.04111477 0.0048053097
0000a0 7b 42 ba 3d ac 59 0b 3d ec 85 9b 3c 8c b5 22 bd
       0.090947114 0.034021065 0.018984757 -0.039723918
0000b0 15 69 6e 3d 38 67 81 bd 77 47 df 3c 8f 90 61 bc
       0.058205683 -0.063185155 0.027255757 -0.013767376
0000c0 f6 2e 2b bd c4 e7 57 bd ad c1 2d 3c 8d c6 5a 3d
       -0.041792832 -0.052711263 0.010605258 0.05341201
0000d0 85 64 9a 3d 47 a9 ca 3d 65 d5 a6 3d 62 9c 70 bc
       0.07538704 0.09895568 0.081461705 -0.014685722
0000e0 68 45 c3 3d c0 13 01 3d 7d 90 32 bd e6 0c 9b ba
       0.095347226 0.031512976 -0.043594826 -0.0011829406
0000f0 a6 4d 65 3d 97 a8 cc 3c dd 87 80 bc 5b 69 d4 3d
       0.055982254 0.024982734 -0.015689785 0.103716575
000100 0f 9e e1 3c 29 44 1e 3e 44 95 72 3d 9a b8 59 bc
       0.027541189 0.15455689 0.059224382 -0.013288641
000110 7f 1b ab bc 4a 8d 20 3e af 54 89 3d 31 0e e1 bd
       -0.020887135 0.15678898 0.06705605 -0.10989035
000120 eb dd 92 3d 4c a5 c4 3c db 82 15 bd 94 57 c2 bc
       0.07171234 0.024004601 -0.036501747 -0.023723401
000130 e1 da a9 3c 7f 24 42 3d 08 89 0f 3c b5 4f 1d bc
       0.020734252 0.047398087 0.008760698 -0.009601523
000140 32 59 5d bd cc 21 3e 3d 33 65 19 3b a8 71 d7 bc
       -0.05404014 0.04641895 0.0023406267 -0.026299313
000150 58 fa 3d 3d f9 c1 17 3d d8 2e c4 3d 61 9e 07 3c
       0.046381325 0.03705022 0.09579247 0.008277507
000160 9c bf b7 3d 29 c0 24 bd d1 78 1d bd 65 be ba 3b
       0.089720935 -0.04022232 -0.038445298 0.0056989663
000170 55 36 dd 3c cb 74 1e 3c d2 aa 18 3d c3 21 1b 3b
       0.027003447 0.0096714 0.037272282 0.0023671247
000180 fc 86 e0 3d 34 59 70 3d 7c 62 7c 3d 4a c0 0e 3d
       0.10963246 0.05867882 0.06161736 0.03485135
000190 6f 88 38 3b 01 51 8a 3d 99 ce b4 3b 19 3f d1 bc
       0.0028157493 0.067537315 0.0055177924 -0.025542783
0001a0 fb f8 97 bc 40 11 37 3d 1f f5 28 3d 43 8e c6 3d
       -0.01855134 0.044694185 0.04124939 0.09695103
0001b0 e4 2d 59 3d f1 58 6d bd 24 a0 a1 bc a8 1d 27 bb
       0.05302228 -0.05794615 -0.019729681 -0.0025499854
0001c0 35 36 4a bd 0a 30 7e 3d 15 cb 96 3c 33 b8 b5 3d
       -0.049368102 0.062057532 0.018407384 0.08873024
0001d0 e1 ed 61 3d b4 3b 80 bc be 5a 08 bd 29 4e 23 ba
       0.0551585 -0.015653469 -0.033289663 -0.00062296033
0001e0 a6 c2 bf 3a cd d1 58 3d 92 85 08 bb 90 d7 ba bc
       0.0014630153 0.052934457 -0.0020831567 -0.022807866
0001f0 19 bc 01 3e e4 5d 0c bc 62 41 f9 bb de 74 bd bc
       0.1266941 -0.008567307 -0.007606671 -0.023127016

action_model._continuous_distribution.log_sigma f4 [1, 2]
000000 e8 63 44 be 1a 56 51 be
       -0.19178736 -0.20443001

action_model._continuous_distribution.mu.weight f4 [2, 128]
000000 ca 2b 16 bd 16 a1 4b 3d 30 22 bd 3d 47 7e 73 ba
       -0.036662854 0.04971417 0.092350364 -0.0009288531
000010 98 46 da 3d 6b 6f 18 3d 57 ee 9e 3d 1e 7f 55 bd
       0.10657996 0.03721563 0.077603035 -0.05212318
000020 f4 eb 43 bd fa ef 43 bd 51 51 13 3e f1 97 a8 3d
       -0.047832444 -0.04783628 0.14386488 0.082321055
000030 0b 9c 73 3d e3 8c 33 3c 8c e7 14 3d c5 cf 42 3d
       0.059474986 0.010958883 0.036353633 0.047561426
000040 1a cf 70 bd 21 32 8d ba 75 f4 46 bd 24 b3 6e 3d
       -0.058791257 -0.0010772386 -0.048572976 0.05827631
000050 91 40 41 3d 72 22 52 3e 98 4a 1b bd eb d8 a8 3d
       0.047180716 0.20520952 -0.037912935 0.08244499
000060 05 e6 13 3d 1c 17 b0 bc 2f 40 2a bd 39 72 5a 3b
       0.036108036 -0.021495394 -0.041565116 0.0033332242
000070 0d 1a f7 bc 4d b6 de bd 76 00 dd bc 11 8f 67 bd
       -0.03016379 -0.10874615 -0.026977759 -0.056532923
000080 9d 97 5e be 10 88 6b bd c8 e1 3b 3d 3a 8f 71 3d
       -0.21737523 -0.057502806 0.04586962 0.058974482
000090 56 ff 11 bc ed 6b 6f bd 54 a2 23 be c1 1a 56 3c
       -0.0089109745 -0.058452535 -0.15979892 0.013067902
0000a0 e5 5e 10 3e 8f e5 82 bb 81 1b 48 ba a1 42 68 bc
       0.140987 -0.0039946507 -0.0007633493 -0.014176042
0000b0 96 ad 44 3d 62 32 26 bd e9 6a 7f 3d a5 35 9f 3d
       0.048017107 -0.040575393 0.062357817 0.07773904
0000c0 00 95 20 3c 68 1c 71 3c 38 06 9a 3d cb b6 f6 bc
       0.009801149 0.014716245 0.075207174 -0.03011646
0000d0 ac 4c 91 bd 59 89 34 be 09 43 a5 3d 21 c0 87 bc
       -0.07094702 -0.17630519 0.080694266 -0.016571106
0000e0 9b dd f2 bc 68 3a f8 bd 2e 06 0e bc 2d 0c a2 3c
       -0.029646685 -0.12120515 -0.008668466 0.019781196
0000f0 06 31 0b be 2f ec e6 bd 62 3c cb 3c c0 5c 48 3d
       -0.1359292 -0.11275517 0.024809066 0.04891658
000100 9a bd 74 3d ea b9 3c 3e 26 4f 73 bb 56 74 c6 bd
       0.05975113 0.18430296 -0.0037126034 -0.09690158
000110 59 11 c3 bd d8 a5 d9 3d b5 92 24 be 72 fc 12 bc
       -0.09524793 0.10627335 -0.1607159 -0.00897132
000120 6c b3 ad bd a8 89 a2 bb 81 54 a4 bc 77 e7 28 bd
       -0.08481488 -0.0049602576 -0.020059826 -0.041236367
000130 a4 25 1e 3e 43 2c f8 bd 87 23 b8 bd 46 fd 1f 3c
       0.15444046 -0.12117817 -0.08991151 0.009764975
000140 74 e0 bd bb 57 b4 04 be d2 6e 2a be 79 c9 34 3c
       -0.005794579 -0.12959419 -0.16643837 0.011034363
000150 78 2d 14 3e 0d 7f 02 be 44 78 51 be b0 a9 73 be
       0.1447047 -0.12743779 -0.20456034 -0.237952
000160 c7 07 a0 3d 16 6d 0d bd de 61 9c bd 77 ed d7 3c
       0.078139834 -0.03452786 -0.07635854 0.02635835
000170 31 0e 34 3c f3 7f 2e bd 5e a1 b4 3c f8 24 80 bd
       0.010989712 -0.04260249 0.022049602 -0.06257051
000180 d5 d8 02 3e 74 99 2e 3d a7 8d aa 3d a7 67 80 3d
       0.12778027 0.042626813 0.08327799 0.0626977
000190 55 68 09 bc 39 46 be bd 15 00 65 bd 7b 34 77 bb
       -0.008386691 -0.09290738 -0.05590828 -0.003772049
0001a0 a0 5c eb bd 57 8a 31 3d 93 f9 63 be 0d 29 53 3e
       -0.11492276 0.04334482 -0.22263174 0.20621128
0001b0 22 2b 0f 3e 61 c9 b5 bc fe 64 40 3d 26 84 de bc
       0.13981298 -0.022190752 0.046971314 -0.027162623
0001c0 02 76 26 bc 3b e0 a2 3d 6b 28 e2 3c ee 57 64 bd
       -0.010159971 0.07952925 0.027607163 -0.05574792
0001d0 94 b1 18 3d e7 9d 52 bd 15 9a 03 bd 50 7b ea 3b
       0.037278727 -0.05142012 -0.032129366 0.0071558133
0001e0 18 4c cb bd bf 51 4f 3e 1c 9c a1 3c e4 54 30 bd
       -0.09926623 0.20246027 0.019727759 -0.043049708
0001f0 ce 84 ed 3d 48 6f 04 bb 49 17 17 bd 83 de 71 3d
       0.11597596 -0.002020793 -0.03688744 0.059050094
000200 59 e8 41 3c 0e 5e 24 bd 18 4e b3 3d 21 6c 94 3d
       0.011835181 -0.04012876 0.087551296 0.072471865
000210 42 b1 f3 3c 82 e1 a6 3d d6 f6 ae bb 78 55 85 3d
       0.029747609 0.08148481 -0.0053394837 0.065104425
000220 6f 71 8b bc 73 b0 54 3e ba e5 67 bc 06 55 3f bc
       -0.017021863 0.20770435 -0.014153892 -0.011677986
000230 ee b1 e6 3b df af f6 bc d5 3e e9 3d 54 85 c6 3b
       0.007040254 -0.030113159 0.113889374 0.0060583744
000240 04 e2 e6 3b 32 d5 19 bd 21 f2 8a 3d 69 e2 4e ba
       0.007045986 -0.037556835 0.06784464 -0.0007892014
000250 e4 d7 18 3d 9d d8 86 bd 36 a9 04 bc 6c 10 d3 3d
       0.037315264 -0.065842845 -0.008096984 0.103058666
000260 25 9e f3 3d e0 3d 0b be cb f7 40 3b ad d2 dc 3c
       0.11895398 -0.13597822 0.002944457 0.026955927
000270 f0 70 0e bc 5a 4e ce 3b 0d 26 a9 3d 8b 27 1d bd
       -0.008693919 0.0062959613 0.08259211 -0.03836779
000280 ed 19 0b 3d 19 94 3e be 55 79 4f 3e bc cf 41 ba
       0.03396027 -0.18611182 0.20261128 -0.00073933206
000290 04 35 a9 bc a2 fa 63 bc e3 57 b5 3d 9f f6 e1 bc
       -0.020655163 -0.013914736 0.08854654 -0.027583418
0002a0 ba bf 6d 3d 7a ef 18 3e 6c 23 05 bd c8 27 f9 bb
       0.058044173 0.14935103 -0.032504484 -0.0076036192
0002b0 e0 a0 fc bc 52 99 b6 3c 7e b3 57 3d db 60 78 3c
       -0.03083843 0.022289906 0.05266141 0.015159811
0002c0 8d 2c 8f 3d a7 d5 22 bb d1 fd 84 3c ac 5b 13 3e
       0.06990919 -0.0024846585 0.01623431 0.14390439
0002d0 9d 51 6f 3e 16 54 10 be d2 79 c4 bd 68 51 41 bd
       0.23370977 -0.14094576 -0.09593548 -0.047196776
0002e0 72 8f 8a bd 51 7f 00 3b 8a ca 9b bc 21 d9 54 3d
       -0.06765641 0.0019607136 -0.019017477 0.051964883
0002f0 99 7f 76 3e 4b e6 03 3e 78 d8 27 3c 0a cc 91 bd
       0.24072112 0.12880819 0.010244481 -0.071189955
000300 63 6e 6e bd c8 f1 cf bd b4 7b 3d 3e 3b d8 b3 3a
       -0.05821074 -0.10153538 0.1850422 0.0013721058
000310 6e 0f 0a 3d b9 49 01 bd 41 fc 92 3d c7 f5 a6 3c
       0.03370612 -0.031564448 0.0717702 0.020380868
000320 a5 39 4e 3e bd b8 91 3d ca 7a 02 bd f1 05 f7 bc
       0.20139177 0.07115314 -0.031855382 -0.0301542
000330 4e 3f 0c 3d 71 56 d1 bd 17 e2 79 3c d1 78 09 3e
       0.03424006 -0.102215655 0.015251658 0.13424994
000340 a4 df 9b ba d5 7a 6a bd d9 fb 72 bd 4a cc 79 3d
       -0.0011892212 -0.057246048 -0.059322212 0.06098584
000350 10 f0 1c 3e 20 89 13 bc de bd 3a 3e a2 8e 24 bc
       0.15325952 -0.009004861 0.18236491 -0.010043772
000360 19 82 f4 bc 59 f1 32 3c 2b 5f 84 3c 7d 9f 20 3d
       -0.029847192 0.0109218 0.01615866 0.0392146
000370 e8 3c 4c 3e 89 40 05 3e c1 f7 08 3e 28 ca 66 bd
       0.19945109 0.130129 0.1337576 -0.056345135
000380 57 b7 65 be da 7b bd 3d 1e 7a 80 3d 7d b4 b6 bc
       -0.2243322 0.092521384 0.06273292 -0.02230286
000390 19 fc 2c bb b1 cd b8 bd 26 4f 51 bd 8f 1d b3 bb
       -0.002639538 -0.090236075 -0.051100872 -0.00546617
0003a0 44 1a af 3d a7 d1 10 bd af 93 e8 3c 8c 2a d0 3d
       0.08549932 -0.03535619 0.028390734 0.10164365
0003b0 1e 69 87 3b 6a c4 2f 3c 65 b6 cd 3c 6a 45 88 3d
       0.004132404 0.010727981 0.025111387 0.06653865
0003c0 f7 5e 8d 3d ba 55 0f 3e 02 38 48 bd 5e 46 4f be
       0.06902879 0.13997546 -0.04888154 -0.20241687
0003d0 b3 6b 08 be 1c c5 31 3d 0f 70 93 bc 9d c7 c6 bb
       -0.13322334 0.04340087 -0.01799777 -0.006066276
0003e0 17 61 63 bd db 74 42 bb dd f5 aa 3a f5 54 65 bc
       -0.055512514 -0.0029671702 0.0013043244 -0.013997306
0003f0 3b 0f 95 bd dd f6 e5 3d 7b ad 16 bd 9e 30 87 3d
       -0.072782956 0.11228726 -0.036786538 0.0660107

action_model._continuous_distribution.mu.bias f4 [2]
000000 19 63 dc 3c af d9 00 bd
       0.026902722 -0.0314576

action_model._discrete_distribution.branches.0.weight f4 [2, 128]
000000 41 50 87 3d 78 24 9c 3d 22 99 48 3b fc f2 c0 3d
       0.06607104 0.07624143 0.0030608852 0.094213456
000010 72 a4 30 bd 42 37 b5 3c 3e 5b 83 3d ce 74 77 3d
       -0.043125577 0.022121076 0.064138874 0.060414128
000020 0f fa 5a 3d 2e 30 b5 bd c8 c0 a7 bc d0 95 df 3d
       0.05346113 -0.0884708 -0.020477667 0.10917246
000030 21 97 0b be b6 f0 bb bd dc 30 99 3d d4 c4 15 3d
       -0.1363187 -0.09176771 0.07480022 0.036564663
000040 32 74 4a 3c a9 21 73 3d 72 9e bd 3d 4e a0 b4 3c
       0.012356805 0.059358273 0.09258737 0.022049095
000050 20 fc 03 3e 50 f6 4d bd d2 4e df 3d 52 03 c0 3d
       0.12889147 -0.05028373 0.10903706 0.09375633
000060 73 a8 da bd bf 5f 0e bd ed 8e 9a 3d 41 54 fc 3c
       -0.106766604 -0.03475928 0.07546792 0.030801894
000070 63 33 d7 3d 9b 16 42 3d e1 29 3b bd c8 8a 0d 3d
       0.10507848 0.04738484 -0.045694236 0.03455618
000080 0f f3 41 3d 66 95 b6 3b d4 8e 9f bc a2 10 9c 3c
       0.04735094 0.005572009 -0.019477285 0.0190509
000090 34 c7 98 3d cd b5 2e 3d d7 08 41 bd 5e 07 7f 3d
       0.0745987 0.042653847 -0.04712757 0.062262885
0000a0 56 af d3 bc 33 b1 ad 3c 29 04 a4 3d 7d 1f 9b 3d
       -0.025840443 0.02120266 0.08008606 0.07574365
0000b0 f8 93 ee 3d fd c2 9a 3d ad 8a b1 3c 02 ac 23 bc
       0.116493165 0.07556722 0.021672571 -0.00998974
0000c0 45 a0 b8 3d 9d 06 b6 3d a6 d5 69 3d f3 2b c6 bd
       0.09014944 0.0888798 0.057088517 -0.096763514
0000d0 3e 76 85 bc 7e 1d 03 3d e0 71 9a 3d 83 2b aa 3d
       -0.016291734 0.032010548 0.07541251 0.083090805
0000e0 45 3a e5 bd 06 7f 34 bc 2d b6 f8 3d 81 80 cc 3d
       -0.11192755 -0.011016613 0.12144122 0.09985448
0000f0 b4 de a2 bd 1e 6e bf bc 18 64 a3 3d 5f 6c 39 bd
       -0.079526335 -0.023367938 0.07978076 -0.045269366
000100 47 d8 b5 3d f9 7c 23 3c 32 8e 37 bc 77 b4 32 3d
       0.08879142 0.009978526 -0.011203336 0.043629136
000110 7a 23 77 3d 91 48 71 bd 47 d4 de bd 36 fc cd 3d
       0.060336567 -0.058907095 -0.108803324 0.10057871
000120 de fe 03 3d ed 7a 07 3e d2 bf f0 3d 97 d0 d0 3d
       0.032225482 0.13230486 0.11755337 0.10196035
000130 af da 09 3c 05 d4 a4 bd 95 88 49 3d 96 d3 ea bc
       0.008413955 -0.08048252 0.04920252 -0.028665345
000140 c1 60 02 3e 80 f8 3e 3d 56 21 26 bd 54 fe 1e 3d
       0.12732221 0.046623707 -0.040559135 0.038816765
000150 49 80 8b bc 4c 86 54 3c cf 87 eb bd 78 b5 66 bd
       -0.017028945 0.012971472 -0.11500513 -0.056325406
000160 54 b2 4a 3d f7 b1 88 3d 58 b6 49 3d 80 3f b2 3d
       0.049486473 0.06674569 0.049246162 0.08703518
000170 16 74 09 3d cd e8 c5 bd fb 7c 6e bc 38 c9 89 3d
       0.033557974 -0.09663544 -0.014556165 0.067278326
000180 59 be b4 3c 9e f8 cb 3d 0e 0f 9e 3d 35 7a b2 3d
       0.022063421 0.09959529 0.07717715 0.087147154
000190 9d fd 03 3e ed 7b c4 bd 73 ba 7c 3c 08 a2 f1 3d
       0.12889715 -0.095939495 0.015425312 0.11798483
0001a0 5e ee 03 bd e2 90 b0 3d 63 6f 98 3a 8c dc 0c bd
       -0.032209747 0.08621384 0.0011629876 -0.034390017
0001b0 5f 6a 5f 3d 03 cf a2 3d 37 1f 24 3e b1 d5 0f bd
       0.054544803 0.079496406 0.16027533 -0.0351159
0001c0 db b8 1c bd 0b a0 ce 3c 51 de 5f 3d f9 d9 82 bd
       -0.03826223 0.025222799 0.054655377 -0.06389231
0001d0 67 fe 8e 3c ab 86 0b be 2b b5 ff 3d 02 2f 1a 3e
       0.017455293 -0.1362559 0.12485727 0.15056995
0001e0 23 51 23 3d 12 44 5e bc 0f 74 08 3e d8 d4 fc 3c
       0.0398723 -0.013566034 0.13325523 0.03086321
0001f0 cb c5 49 bc e8 e1 ef 3c 99 3e d2 3d e2 17 28 3d
       -0.012315224 0.029282525 0.10265846 0.0410384
000200 5d 74 c6 bd 21 ec 95 bd d2 f4 21 bb 7c 08 c9 bd
       -0.09690163 -0.07320429 -0.0024712575 -0.098160714
000210 48 da 68 3d 19 5c 00 bd 91 89 3c bd 18 16 8b bd
       0.056848794 -0.03133783 -0.04602963 -0.067913234
000220 27 7d 85 bd fe d1 ae 3d da 7f 0a 3c 49 b1 ee bd
       -0.065180115 0.085361466 0.008453334 -0.11654908
000230 24 68 0d 3e 3a 3a c5 3d b1 57 7e bd 46 1c fd bc
       0.13809258 0.096302465 -0.062095348 -0.03089727
000240 90 31 27 bd d9 6c 94 bd f1 6c 7f bd 1f d2 0d bd
       -0.04081875 -0.072473235 -0.062359754 -0.034624215
000250 19 72 0a be b7 39 6f 3d 35 92 db bd 73 8f b5 bd
       -0.13520087 0.05840465 -0.10721246 -0.088652514
000260 b2 5b cb 3d 73 f4 34 3d 5f f1 b2 bd 41 88 4a bd
       0.09929599 0.044178437 -0.08737444 -0.049446348
000270 c6 a5 b5 bd b9 a4 57 bd d0 2e 71 3d 0a c5 30 bd
       -0.088695094 -0.052647326 0.058882535 -0.04315666
000280 f8 37 21 bd c1 d8 e9 ba ba 10 ad 3c 03 93 94 bc
       -0.039360017 -0.0017841087 0.02112614 -0.018136507
000290 ce 87 ac bd 4b 63 1e bd a1 92 5a 3d f6 5f b6 bd
       -0.0842434 -0.038668912 0.053362492 -0.08905022
0002a0 2b 4e aa 3c f3 c1 1e bc 3f 37 ba bd 7f d5 8e bd
       0.020789227 -0.009689796 -0.090925686 -0.06974315
0002b0 70 82 03 be c4 f0 d1 bd 6b ad 12 bd 66 b9 47 3c
       -0.12842727 -0.102510005 -0.035809916 0.0121901985
0002c0 ad 15 c0 bd 13 d9 92 bd 58 af 87 bd b5 45 c9 3d
       -0.09379134 -0.0717031 -0.06625241 0.09827749
0002d0 9b c1 cd 3c 5c 85 6a bd 24 23 9d bd 2a 61 b2 bd
       0.025116732 -0.057256088 -0.07672718 -0.08709939
0002e0 84 3f b9 3d 8e 03 78 3c 98 f5 e3 bd 1d 0f b9 bd
       0.09045318 0.015137566 -0.11130828 -0.09036086
0002f0 f4 d3 a4 3d aa 9c 80 3c bd 46 af bd ae cf 47 3d
       0.08048239 0.015699703 -0.08558414 0.048782043
000300 7e a5 a7 bd ce 1b 8b bc 54 3c d9 bb 1a d7 0f bd
       -0.08185862 -0.016981032 -0.006629506 -0.035117246
000310 f2 14 80 bd 71 8f 91 3d d9 35 b5 3d 40 4c c9 bd
       -0.06253995 0.071074374 0.08848161 -0.09828997
000320 97 78 0d bd d5 d1 07 be 2c 48 f0 bd 2e a5 c8 bd
       -0.03453883 -0.13263638 -0.11732516 -0.097971305
000330 e6 d2 8f bc eb 19 82 3d e8 33 52 bd 17 f8 b2 3c
       -0.017556619 0.063526 -0.051319033 0.021846814
000340 52 be fc bd 64 9f 2d bd 72 c3 96 3d 8a d8 46 bc
       -0.12340988 -0.042388335 0.07361497 -0.012136588
000350 a8 43 87 3c 5d 8d b1 bc 4f c6 d4 3d cc 05 19 3d
       0.016511753 -0.021673853 0.10389387 0.037359044
000360 a9 b0 5b bd dc b4 82 bd 13 95 53 bd bd 19 be bd
       -0.053635273 -0.063821524 -0.05165584 -0.09282253
000370 50 83 f0 bc af 5f ad 3d 2c 95 c7 3b 6f f7 83 bd
       -0.02935949 0.08465516 0.0060907807 -0.064436786
000380 78 ed ee bc 80 c2 bd bd 82 6c 9f bd 6f ee b0 bd
       -0.029165968 -0.092656136 -0.07784368 -0.086392276
000390 97 fd ea bd 17 a4 ca 3d f2 c3 10 bc a2 67 e1 bd
       -0.1147415 0.09894579 -0.0088357795 -0.110060945
0003a0 8e da 8e 3c ce 99 b0 bd f3 ad 21 bc e5 35 3e 3c
       0.0174382 -0.08623086 -0.009868133 0.011609529
0003b0 fd 00 a3 bd 2c 8d 6b bd c3 99 13 be 38 29 63 3d
       -0.07959173 -0.05750768 -0.14414124 0.05545923
0003c0 d7 fa 1f 3d 5b 6f f0 bc eb 83 22 bd d2 66 81 3d
       0.03905758 -0.029349973 -0.039676588 0.063184395
0003d0 1c 9c 24 bc 1e e3 02 3e 93 ec d7 bd 77 9c 1a be
       -0.010046985 0.12781951 -0.1054317 -0.15098749
0003e0 62 dc 8d bc 5d c6 dc 3b 0c 30 04 be 8e cd 17 bd
       -0.017317 0.006737514 -0.12908953 -0.037061267
0003f0 93 69 96 3c 83 d9 01 bd 63 c4 bf bd 6b d5 45 bd
       0.018360889 -0.031701576 -0.0936363 -0.048299234

action_model._discrete_distribution.branches.0.bias f4 [2]
000000 3b f3 7a 3c c5 f2 7a bc
       0.01531678 -0.01531667
